model/model_20210730_1627658773.34488.pt (torch, 61399 bytes, 22 tensors)

fc1.weight f4 [256, 6]
-0.30995658 0.18610038 -0.3883652 -0.1289956 0.0995435 -0.19622383 0.39344 -0.1979961
0.3485366 0.09110767 -0.013916374 -0.11753466 -0.33896264 0.09669759 -0.28773576 0.12527448
-0.15382753 -0.31041455 0.37290898 -0.31744644 0.27927023 0.34043044 0.15766405 0.055803888
0.34457642 0.26458418 0.2567007 0.36890757 -0.21172851 0.37676483 -0.14855078 -0.20325156
0.34976524 0.13271916 0.17768642 0.08295655 -0.18841907 -0.13802099 0.07202098 -0.04100725
-0.019447437 -0.40302798 -0.068850644 0.20551383 0.37418115 0.2985894 -0.27465913 -0.16207188
0.17055216 0.26145497 -0.13185042 0.39555132 0.27511862 0.078485794 -0.10559007 -0.2587055
0.36507952 0.0069677965 0.16580482 0.111839995 0.38219872 0.31293872 -0.3455602 -0.098680854
-0.26923943 0.24374111 0.06115568 0.1184044 0.16180795 -0.2649444 -0.029569175 0.23277514
-0.06591754 -0.22147182 -0.05778733 -0.015510803 -0.3675822 0.3758994 -0.029504392 -0.28883076
-0.053880185 -0.00033680673 0.08170688 -0.16399004 -0.31095457 -0.049627133 0.3070324 -0.040937155
0.0154047925 0.19310649 -0.39404762 0.312492 0.38947052 0.07291868 -0.3775328 0.086178765
-0.2683075 -0.13289958 0.21792692 -0.25132972 0.24353379 -0.14833176 -0.2226008 0.30485877
0.355546 0.29832673 -0.02950303 0.25648248 0.059669726 0.15171947 -0.3287772 0.31622428
0.21881016 -0.38473487 0.1331993 -0.2819371 0.40478027 -0.118639946 0.16963403 0.22254466
-0.22059177 0.16211735 0.12275708 -0.10695237 0.23658484 -0.058664694 0.14909403 0.013899205
0.12164152 -0.026646823 -0.15970658 -0.2240973 -0.37874103 0.26741746 -0.37829056 0.14035136
0.18456557 -0.04468735 -0.088748835 0.0010417243 0.21561843 0.23978597 -0.24033432 -0.010586303
0.19866498 -0.08510424 0.26455367 -0.022613496 -0.31419355 -0.1977292 -0.20383963 -0.116052814
0.19794798 -0.001963251 0.31530514 -0.37596324 0.33991227 -0.38662472 -0.22693472 -0.13078228
0.40605554 0.32875186 -0.31436226 -0.31805247 -0.043070585 -0.11666742 0.35512984 -0.26004812
0.19687103 0.17869896 -0.1999035 0.13358122 -0.080428906 0.17877519 -0.3950275 -0.32874054
-0.33193266 -0.34559745 -0.349463 -0.018671913 -0.002164116 0.21838576 0.24720246 -0.1755009
0.084113955 -0.14468606 -0.3420003 0.19788653 -0.14829227 0.06172988 0.38185245 0.017996324
-0.085253075 -0.38944635 0.07405341 -0.31006616 -0.06368538 -0.40490246 0.09908252 0.1327243
-0.40150836 0.22891897 0.17449667 0.277691 -0.35599953 0.013614999 -0.32167047 -0.25060368
-0.1398034 -0.1398205 0.4028986 -0.28717175 -0.031944036 0.12278092 0.2477017 -0.10925177
0.28374803 -0.32577735 -0.023046732 -0.04920587 -0.044949263 -0.32643628 0.067888916 -0.056576315
0.37177807 0.11393112 -0.22090489 -0.19913797 -0.10097176 0.21901783 0.40178525 0.1615445
0.0021453046 -0.22890991 0.28104633 -0.38428178 -0.03139317 -0.19617459 -0.33627933 -0.07571502
-0.20629583 -0.37652332 0.36664963 -0.16936964 0.40176734 0.089030236 -0.2898704 -0.04583966
-0.32394272 -0.07121134 -0.22812922 0.039976396 0.1118662 -0.3080746 -0.38328502 0.34372157
00000000: a1b2 9ebe 1991 3e3e ced7 c6be 6c17 04be
00000010: 76dd cb3d e6ee 48be f870 c93e 7dbf 4abe
00000020: 6473 b23e a896 ba3d 8101 64bc 03b6 f0bd
00000030: 838c adbe 6309 c63d 1a52 93be f447 003e
00000040: f784 1dbe a8ee 9ebe eded be3e 5788 a2be
00000050: 82fc 8e3e e64c ae3e af72 213e 9e92 643d
00000060: 526c b03e 9477 873e 466e 833e 74e1 bc3e
00000070: 5ccf 58be 52e7 c03e b21d 18be 2d21 50be
00000080: 6e14 b33e 88e7 073e 6ef3 353e 20e5 a93d
00000090: eef0 40be 6055 0dbe bc7f 933d 38f7 27bd
000000a0: 3b50 9fbc af59 cebe 9101 8dbd 3872 523e
000000b0: ac94 bf3e b6e0 983e 1fa0 8cbe 2cf6 25be
000000c0: 3aa5 2e3e 6ddd 853e cc03 07be b485 ca3e
000000d0: 59dc 8c3e 29bd a03d 9b3f d8bd 0c75 84be
000000e0: b4eb ba3e 1d52 e43b bdc8 293e 5e0c e53d
000000f0: 8daf c33e 8139 a03e 44ed b0be 3019 cabd
00000100: c0d9 89be 4597 793e 617e 7a3d 027e f23d
00000110: fcb0 253e cba6 87be 0e3b f2bc 9b5c 6e3e
00000120: c6ff 86bd 82c9 62be 68b2 6cbd 0621 7ebc
00000130: bc33 bcbe e375 c03e 32b3 f1bc a0e1 93be
00000140: 78b1 5cbd 6f95 b0b9 f055 a73d 01ed 27be
00000150: 7035 9fbe d245 4bbd 5a33 9d3e b8ad 27bd
00000160: 6264 7c3c b5bd 453e 9cc0 c9be f4fe 9f3e
00000170: ae68 c73e 6456 953d fb4b c1be 7e7e b03d
00000180: 9a5f 89be d416 08be 3c28 5f3e 4aae 80be
00000190: ec60 793e 48e4 17be 77f1 63be 7316 9c3e
000001a0: 200a b63e 48be 983e 57b0 f1bc ac51 833e
000001b0: 3e68 743d 595c 1b3e 7c55 a8be 26e8 a13e
000001c0: c50f 603e f8fb c4be 6665 083e 0f5a 90be
000001d0: 5c3f cf3e 80f9 f2bd 8bb4 2d3e bfe2 633e
000001e0: cfe2 61be 1702 263e 1068 fb3d d809 dbbd
000001f0: 4c43 723e 644a 70bd 1bac 183e 7eb9 633c
00000200: 301f f93d 704a dabc 1f8a 23be c379 65be
00000210: 58ea c1be f1ea 883e 4daf c1be 44b8 0f3e
00000220: c2fe 3c3e 150a 37bd f3c1 b5bd 788a 883a
00000230: 14cb 5c3e 748a 753e 331a 76be 2c72 2dbc
00000240: d56e 4b3e 224b aebd 9473 873e f03f b9bc
00000250: fadd a0be 8679 4abe 56bb 50be 19ad edbd
00000260: e0b2 4a3e e3a9 00bb ad6f a13e 417e c0be
00000270: fb08 ae3e adf3 c5be 9361 68be caeb 05be
00000280: 83e6 cf3e 2a52 a83e 17f4 a0be c6d7 a2be
00000290: c86a 30bd 54ef eebd 94d3 b53e 0725 85be
000002a0: 8f98 493e dcfc 363e 81b3 4cbe 84c9 083e
000002b0: e9b7 a4bd d810 373e 0b41 cabe ae50 a8be
000002c0: 14f3 a9be 26f2 b0be d0ec b2be d7f5 98bc
000002d0: d7d3 0dbb 84a0 5f3e a422 7d3e 82b6 33be
000002e0: f043 ac3d 9528 14be aa1a afbe c4a2 4a3e
000002f0: eed9 17be 78d8 7c3d 2a82 c33e 076d 933c
00000300: 2a99 aebd 8365 c7be 50a9 973d fec0 9ebe
00000310: 7b6d 82bd 604f cfbe c7eb ca3d e1e8 073e
00000320: 8192 cdbe bc69 6a3e 41af 323e 842d 8e3e
00000330: 9245 b6be 7211 5f3c feb1 a4be 204f 80be
00000340: 9f28 0fbe 1b2d 0fbe ba48 ce3e 2d08 93be
00000350: c0d7 02bd 9074 fb3d 84a5 7d3e 64bf dfbd
00000360: 6c47 913e 4acc a6be 80cc bcbc 188c 49bd
00000370: b81c 38bd a822 a7be 5809 8b3d 91bc 67bd
00000380: b259 be3e b854 e93d e434 62be d3ea 4bbe
00000390: 48ca cebd 3646 603e ccb6 cd3e ec6b 253e
000003a0: 3d98 0c3b 5c67 6abe 4ee5 8f3e 95c0 c4be
000003b0: 2096 00bd fee1 48be ce2c acbe 7a10 9bbd
000003c0: 373f 53be aac7 c0be 80b9 bb3e 3c6f 2dbe
000003d0: 73b4 cd3e 7c55 b63d e569 94be 5ec2 3bbd
000003e0: d2db a5be 40d7 91bd b59a 69be 4abe 233d
000003f0: 1b1a e53d f4bb 9dbe ef3d c4be 46fc af3e

fc1.bias f4 [256]
-0.109927624 0.25564957 0.06770736 -0.22108182 0.3303151 -0.008634895 0.35206282 0.3307957
-0.26036423 0.15881234 -0.15920088 -0.32177436 -0.3127572 0.14655095 -0.10085714 0.115621686
0.055879682 0.317572 -0.045598596 0.13903433 -0.28893226 0.24558794 0.19139338 -0.31942394
0.36007857 -0.022386134 0.2272408 -0.23097773 -0.0059265792 -0.06374198 0.11692953 0.15272039
-0.23196888 0.35699946 0.1509667 0.3091908 -0.06791076 -0.014278054 0.015632898 0.2923869
-0.12000385 -0.27491176 0.1266203 0.096864164 0.21669579 0.38945514 -0.18298453 -0.38049152
0.022391737 0.005106926 -0.050479114 0.23907751 -0.29453525 -0.017562687 -0.32693198 0.03506267
-0.12821522 0.38546473 -0.3057015 -0.11951828 0.28160274 -0.14925474 -0.37183425 0.3799842
0.09742147 -0.15289041 -0.39137077 0.34128416 0.21384543 -0.18585856 -0.11979464 0.18375331
-0.3512198 -0.015492111 0.4015817 -0.25943017 0.2765106 -0.1720159 0.1153425 0.37950605
-0.29772687 0.28600657 -0.00848192 -0.34520444 0.10526538 -0.37607354 0.1344837 0.27697212
-0.27706206 0.10654694 -0.13138789 -0.1026651 0.18617386 -0.3118368 -0.30017388 0.060034037
-0.2837689 -0.06946969 0.3105179 0.30656946 0.18732506 -0.13050944 0.032130033 -0.1309483
0.23987848 0.21655536 0.04442227 -0.35670817 0.213588 -0.0799 -0.20764905 -0.054892868
-0.28749976 -0.3127643 -0.33223993 0.3647691 0.1617378 0.39221436 -0.19692601 -0.17779
-0.18141423 0.4032575 0.2530324 0.2563727 0.2046094 0.29620874 0.38880938 -0.16562584
-0.15707728 -0.34456623 -0.4008583 0.23752445 0.17827463 -0.39293057 0.112196624 0.18926877
0.2913317 0.268009 0.14183682 -0.32612368 0.01444757 0.20805955 0.14467263 0.051472157
-0.13751096 -0.0042636096 -0.02426365 0.3905902 -0.2518983 0.30750394 0.21693558 0.010403156
0.1724028 -0.23922546 -0.18918484 0.3181473 0.23258436 0.07309422 -0.35680875 0.27877957
0.093741894 -0.05417949 0.21416527 -0.2774369 -0.17295893 0.35070252 -0.37661818 0.39856404
0.2231406 0.12365198 -0.28298306 -0.40261027 0.3236428 0.2708547 -0.3396548 -0.27853262
-0.17024672 0.024033219 0.2119649 0.058069855 -0.21227758 0.0651744 0.20883876 -0.017425448
0.07063499 0.39702916 -0.33953902 0.28620315 0.38980508 -0.04657811 -0.21053462 0.11788279
0.17113423 -0.0021073818 -0.40116492 0.1999867 -0.26855552 0.27504164 -0.24189967 -0.023623794
0.21516919 -0.22192055 -0.22347113 -0.3516281 0.2370494 -0.0060791373 0.15066904 0.22638625
0.22699374 -0.13726628 -0.1388314 -0.0129187405 -0.17477007 -0.37748253 0.2983567 0.19016111
-0.044999212 -0.23617832 -0.0843139 0.33920056 0.15458137 -0.11388698 -0.085679114 -0.09024739
0.30660403 0.11510813 0.001989156 -0.2952913 -0.10717407 -0.089416385 0.087092936 0.3951422
-0.18135457 -0.36352247 -0.24691665 -0.38988212 -0.3502831 -0.40144 0.16336781 -0.28915703
-0.36590397 -0.10606596 -0.24579312 -0.17928346 0.24914056 -0.14772129 -0.28339982 0.24626124
-0.19831945 0.011860788 -0.049052328 -0.15412116 0.13228405 -0.091269135 -0.20175685 -0.36841744
00000000: bc21 e1bd 80e4 823e 28aa 8a3d 4663 62be
00000010: 101f a93e 6079 0dbc 9441 b43e 0e5e a93e
00000020: 764e 85be b49f 223e 8e05 23be 9cbf a4be
00000030: b621 a0be 7411 163e 308e cebd 10cb ec3d
00000040: 18e2 643d cc98 a23e 98c5 3abd 045f 0e3e
00000050: eeee 93be 687b 7b3e a0fc 433e 898b a3be
00000060: 385c b83e 2063 b7bc d0b1 683e 6d85 6cbe
00000070: c033 c2bb 288b 82bd c078 ef3d bc62 1c3e
00000080: 4089 6dbe a2c8 b63e 0497 1a3e 424e 9e3e
00000090: cc14 8bbd 80ee 69bc 9010 803c bcb3 953e
000000a0: 94c4 f5bd 3cc1 8cbe c0a8 013e b860 c63d
000000b0: 80e5 5d3e aa66 c73e 4c60 3bbe c9cf c2be
000000c0: e06e b73c 0058 a73b 30c3 4ebd bcd0 743e
000000d0: 53cd 96be a0df 8fbc a163 a7be e09d 0f3d
000000e0: da4a 03be a25b c53e e884 9cbe 00c6 f4bd
000000f0: 3c2e 903e 3cd6 18be 0f61 bebe 4a8d c23e
00000100: e884 c73d 4e8f 1cbe c061 c8be ccbc ae3e
00000110: 4cfa 5a3e b551 3ebe e456 f5bd d429 3c3e
00000120: 15d3 b3be a0d2 7dbc 1e9c cd3e 08d4 84be
00000130: cc92 8d3e f024 30be b038 ec3d 9e4e c23e
00000140: a86f 98be 746f 923e c0f7 0abc a3be b0be
00000150: 6095 d73d b68c c0be 18b6 093e 4acf 8d3e
00000160: 14db 8dbe 4835 da3d 8c8a 06be 1442 d2bd
00000170: 5ca4 3e3e 13a9 9fbe 64b0 99be 40e6 753d
00000180: 284a 91be 2046 8ebd 34fc 9e3e acf6 9c3e
00000190: 24d2 3f3e 44a4 05be c89a 033d 5017 06be
000001a0: b4a2 753e b0c0 5d3e 20f4 353d 74a2 b6be
000001b0: d0b6 5a3e 9ca2 a3bd f4a1 54be 58d7 60bd
000001c0: 2b33 93be a422 a0be 5a1b aabe 04c3 ba3e
000001d0: 989e 253e 52d0 c83e f9a6 49be 950e 36be
000001e0: a7c4 39be c477 ce3e 768d 813e 4843 833e
000001f0: 2085 513e aca8 973e 0612 c73e d299 29be
00000200: ded8 20be fc6a b0be 4d3d cdbe 9c39 733e
00000210: a08d 363e 322e c9be 58c7 e53d accf 413e
00000220: 6e29 953e 7a38 893e ac3d 113e aff9 a6be
00000230: 80b5 6c3c 900d 553e 1025 143e 78d4 523d
00000240: accf 0cbe c0b5 8bbb 90c4 c6bc 70fb c73e
00000250: d0f8 80be 2871 9d3e 5c24 5e3e 0072 2a3c
00000260: 5c8a 303e 85f7 74be acb9 41be 34e4 a23e
00000270: 982a 6e3e 6cb2 953d a3af b6be 32bc 8e3e
00000280: c0fb bf3d 50eb 5dbd 244e 5b3e 360c 8ebe
00000290: 251c 31be 488f b33e 19d4 c0be 9610 cc3e
000002a0: f87e 643e 403d fd3d 28e3 90be ef22 cebe
000002b0: 82b4 a53e 78ad 8a3e 3ce7 adbe d49b 8ebe
000002c0: 2855 2ebe 50e1 c43c 540d 593e a8da 6d3d
000002d0: 4b5f 59be 287a 853d d4d9 553e d0bf 8ebc
000002e0: 14a9 903d 6847 cb3e 0fd8 adbe 3889 923e
000002f0: 8894 c73e b0c8 3ebd 6396 57be 886c f13d
00000300: d03d 2f3e 001c 0abb 7d65 cdbe 50c9 4c3e
00000310: 1c80 89be 42d2 8c3e 8cb4 77be b086 c1bc
00000320: 5055 5c3e 243f 63be 9ed5 64be 9908 b4be
00000330: 14bd 723e 8033 c7bb fc48 1a3e ccd1 673e
00000340: 0c71 683e 888f 0cbe d229 0ebe 20a9 53bc
00000350: edf6 32be 6445 c1be 36c2 983e 98b9 423e
00000360: 1851 38bd bbd8 71be c4ac acbd b2ab ad3e
00000370: 944a 1e3e 943d e9bd 8878 afbd a0d3 b8bd
00000380: 34fb 9c3e d0bd eb3d 805c 023b 6c30 97be
00000390: 147e dbbd f01f b7bd c85d b23d 1450 ca3e
000003a0: 03b5 39be 9e1f babe b8d7 7cbe a19e c7be
000003b0: 4e58 b3be 8b89 cdbe e449 273e 640c 94be
000003c0: c457 bbbe 1c39 d9bd 31b1 7bbe 1596 37be
000003d0: b41e 7f3e 4044 17be c819 91be e82b 7c3e
000003e0: 4114 4bbe c053 423c 18eb 48bd f0d1 1dbe
000003f0: 7875 073e 50eb babd 5999 4ebe 36a1 bcbe

fc2.weight f4 [16, 256]
0.03292935 0.0075856242 0.030513303 -0.05750164 -0.027599648 -0.0032070286 0.0047939178 0.032421645
-0.0267072 -0.03588425 0.018072834 -0.03889213 0.02349934 -0.041682962 -0.008974353 0.015626468
-0.055283144 -0.033426143 -0.042342734 0.0016768865 0.015132019 0.0062842304 0.022734584 -0.019259105
0.065721884 -0.053540602 -0.046292644 0.025803236 -0.018345013 -0.05634642 -0.036998406 0.0022413922
0.044884972 -0.052872974 0.050692074 0.036727633 0.009348143 0.040604867 0.0077939695 0.020157091
-0.02232559 -0.038714115 -0.029803012 -0.027903985 -0.018704785 0.0467677 -0.03376232 -0.040660888
-0.061035674 0.01441941 0.04591952 0.003306237 0.0018030113 0.060782053 -0.048097517 0.063876554
0.020080598 0.023968948 0.0059616077 0.060004115 0.039030332 -0.026911592 -0.036114775 0.023936562
-0.018753268 0.054442924 -0.030665888 0.05588263 -0.018738596 -0.028451193 0.026039481 0.04903686
0.042381648 -0.050996087 0.031769697 0.0011159822 0.0045118276 -0.05530199 0.058583733 0.019832361
0.05977696 -0.026737481 -0.022833413 -0.018778985 0.031140516 -0.010351436 -0.008360835 -0.006942125
0.016180603 -0.031772744 0.03477642 0.032940313 0.05030831 0.01431811 -0.019801602 -0.045502108
-0.011274009 0.024144845 0.0007891964 -0.014811451 0.029320741 -0.026129685 -0.027765706 0.0101691885
0.053024296 -0.022953404 -0.033364963 0.02080812 -0.05822948 0.012937484 -0.024618652 0.0086261835
-0.050233323 -0.014829831 0.052223306 -0.008912374 -0.057310093 0.043209575 0.06363896 0.05609951
0.042444296 0.017846031 0.05419929 -0.053559586 0.05282663 0.03700686 -0.0071132183 -0.0338403
-0.010580366 0.052063163 -0.018676503 0.061916232 -0.040180672 0.015831698 0.049127642 0.004030684
-0.0015886864 -0.042367954 0.04181292 -0.01807143 0.0013793006 0.014282399 -0.014930629 0.03228041
0.059520595 0.0034494062 0.045445587 -0.024890834 0.050666228 0.010195258 0.04288697 0.046272624
-0.05157496 0.010065003 0.019615693 0.022687094 -0.04080712 0.030247128 0.03560511 0.020880586
-0.018873703 -0.05332553 0.004136203 0.047072545 0.030767003 0.001726121 0.05740133 0.019925324
-0.019882033 0.039306473 0.0446227 -0.029147765 -0.05091104 0.030372491 0.01870308 0.06218534
-0.0012549082 0.01204574 -0.048929434 0.0041235522 0.053002607 -0.004512998 0.029679727 0.032241218
0.060656223 0.02809642 0.03090995 -0.059670534 0.02160757 0.06245809 0.005417611 -0.008380612
0.040455993 -0.05340689 -0.057226043 0.038879644 0.028842678 0.0013666175 -0.02829145 -0.015474859
-0.052980684 0.035736237 0.050738756 0.0056075174 -0.050402235 -0.011291779 -0.0512247 0.018592114
0.059265986 0.04751546 0.00059417426 -0.05186002 0.057511933 0.04493223 0.023775866 0.018994996
-0.008232731 -0.012083998 -0.017707918 0.060883675 -0.014898991 -0.06015175 0.016560154 0.031173963
0.054353755 -0.00020678317 0.04733392 -0.05778369 -0.008827829 0.051357206 -0.01157982 0.023406303
0.018605927 -0.00302261 0.011560457 0.011365279 0.049409233 0.03308123 0.029181272 0.008267269
-0.032760482 0.026514156 -0.044486612 -0.021023748 -0.024949728 -0.0060326685 -0.012362528 -0.0012264735
0.02924777 -0.04740795 -0.021172598 0.0044492707 -0.015459323 -0.033443164 0.020119032 -0.0065943096
00000000: ede0 063d d490 f83b 09f7 f93c d786 6bbd
00000010: a818 e2bc 032d 52bb 4c16 9d3b 8fcc 043d
00000020: 0fc9 dabc 5dfb 12bd 7b0d 943c 5b4d 1fbd
00000030: b081 c03c c1bb 2abd 2a09 13bc 1403 803c
00000040: 9470 62bd dae9 08bd 936f 2dbd f9ca db3a
00000050: 4aec 773c f2eb cd3b e13d ba3c 45c5 9dbc
00000060: 3299 863d 644d 5bbd 5b9d 3dbd 4f61 d33c
00000070: 4848 96bc 81cb 66bd a48b 17bd 52e4 123b
00000080: 4ed9 373d 5591 58bd 7ea2 4f3d b76f 163d
00000090: f428 193c 4a51 263d 8e64 ff3b 7c20 a53c
000000a0: 28e4 b6bc b192 1ebd 7225 f4bc e696 e4bc
000000b0: c73a 99bc 7d8f 3f3d 5c4a 0abd 088c 26bd
000000c0: 8b00 7abd 643f 6c3c 1b16 3c3d 74ad 583b
000000d0: 0553 ec3a 9af6 783d e701 45bd b6d1 823d
000000e0: 1180 a43c 875a c43c 9759 c33b e0c6 753d
000000f0: 45de 1f3d b375 dcbc 16ed 13bd 9c16 c43c
00000100: 74a0 99bc 8bff 5e3d 0737 fbbc 2fe5 643d
00000110: af81 99bc 7a12 e9bc c050 d53c e0da 483d
00000120: 6198 2d3d 46e1 50bd f120 023d 2646 923a
00000130: f4d7 933b 5784 62bd 7ff5 6f3d 7a77 a23c
00000140: b0d8 743d 9008 dbbc 230d bbbc 63d6 99bc
00000150: 651a ff3c 1299 29bc e2fb 08bc c47a e3bb
00000160: 2f8d 843c 2324 02bd b871 0e3d 6cec 063d
00000170: 1610 4e3d 8296 6a3c f836 a2bc 6b60 3abd
00000180: 9fb6 38bc 69cb c53c 13e2 4e3a baab 72bc
00000190: 0d32 f03c ec0d d6bc e874 e3bc ab9c 263c
000001a0: 0130 593d c708 bcbc b3a9 08bd ca75 aa3c
000001b0: 0982 6ebd bef7 533c 0ead c9bc d654 0d3c
000001c0: 75c1 4dbd d2f8 72bc 1be8 553d 3505 12bc
000001d0: fdbd 6abd 86fc 303d 2555 823d 9ac8 653d
000001e0: 12da 2d3d d731 923c 1300 5e3d 4c61 5bbd
000001f0: bd60 583d 8194 173d 0016 e9bb 209c 0abd
00000200: 4559 2dbc 2f40 553d 77ff 98bc e09b 7d3d
00000210: 7d94 24bd 7ab1 813c 113a 493d d413 843b
00000220: 783b d0ba 058a 2dbd 0644 2b3d 890a 94bc
00000230: a6c9 b43a b900 6a3c 999f 74bc 7738 043d
00000240: decb 733d 6f0f 623b 2725 3a3d dde7 cbbc
00000250: 6487 4f3d 030a 273c 3faa 2f3d 5d88 3d3d
00000260: 4440 53bd afe7 243c 17b1 a03c 49da b93c
00000270: 5e25 27bd d3c8 f73c aad6 113d c30d ab3c
00000280: 069d 9abc df6b 5abd fc88 873b 24cf 403d
00000290: 150b fc3c 023f e23a a81d 6b3d 6f3a a33c
000002a0: a5df a2bc d3ff 203d 4bc6 363d 4bc7 eebc
000002b0: 1888 50bd bbcf f83c 3437 993c 0eb6 7e3d
000002c0: bb7b a4ba 7f5b 453c 3b6a 48bd dd1e 873b
000002d0: 4319 593d c5e1 93bb e622 f33c 5e0f 043d
000002e0: a972 783d 772a e63c dd36 fd3c 1769 74bd
000002f0: 5c02 b13c 0ed4 7f3d 3786 b13b d64e 09bc
00000300: 2fb5 253d 2fc1 5abd db65 6abd 4340 1f3d
00000310: 7b47 ec3c 1320 b33a 79c3 e7bc 438a 7dbc
00000320: 4602 59bd 2960 123d 71d3 4f3d 44bf b73b
00000330: 9372 4ebd 2701 39bc fed0 51bd 7d4e 983c
00000340: e4c0 723d 929f 423d 5cc2 1b3a 2c6b 54bd
00000350: a291 6b3d dc0a 383d 9bc5 c23c 659b 9b3c
00000360: 94e2 06bc f6fb 45bc 3210 91bc 2961 793d
00000370: e61a 74bc ae61 76bd 29a9 873c 8a60 ff3c
00000380: 0ba2 5e3d efd3 58b9 36e1 413d 97ae 6cbd
00000390: 99a2 10bc ef5b 523d 49b9 3dbc 93be bf3c
000003a0: 756b 983c fb16 46bb 1268 3d3c 6f35 3a3c
000003b0: 5661 4a3d 2f80 073d 900d ef3c 7073 073c
000003c0: db2f 06bd 3734 d93c 9837 36bd ff39 acbc
000003d0: 5f63 ccbc b1ad c5bb 338c 4abc 9fc1 a0ba
000003e0: 0599 ef3c d72e 42bd 2872 adbc 30cb 913b
000003f0: 1a49 7dbc b3fb 08bd abd0 a43c 1415 d8bb

fc2.bias f4 [16]
-0.010851122 -0.01794476 -0.032554694 0.023368634 0.042442575 -0.025867358 -0.002585329 0.003246151
0.00971137 -0.042946704 0.030410029 -0.061905764 -0.0064076185 0.04224837 -0.053624168 -0.022602249
00000000: e8c8 31bc e400 93bc 1258 05bd 946f bf3c
00000010: 44d8 2d3d c8e7 d3bc a06e 29bb 60bd 543b
00000020: 701c 1f3c e2e8 2fbd 741e f93c e690 7dbd
00000030: 00f7 d1bb a00c 2d3d 04a5 5bbd 5a28 b9bc

fc3.weight f4 [1, 16]
0.035736002 -0.37613285 -0.39091024 -0.19653946 -0.13278857 0.0433308 0.03332433 0.13543034
-0.14887124 -0.2879102 0.032033056 0.21854243 0.29874733 0.21972442 0.12691616 0.22093764
00000000: ea5f 123d 7c94 c0be 6325 c8be a441 49be
00000010: baf9 07be a37b 313d 187f 083d 40ae 0a3e
00000020: b471 18be f768 93be 1835 033d 96c9 5f3e
00000030: 69f5 983e 70ff 603e 4ff6 013e 7a3d 623e

batchnorm1.weight f4 [256]
1.0033135 0.9956373 1.0015388 0.9944711 0.9931174 1.0095105 1.0025762 0.99768394
0.99253577 1.0024393 0.9919236 0.9948817 1.0092539 1.0099391 1.0042578 1.0071689
1.0015798 1.0019279 0.99286824 0.9926512 1.0020624 0.99428797 1.0004233 0.99675006
0.99073243 1.0106337 0.99169683 1.004243 0.99219704 1.0046291 1.0002468 1.0010586
1.0056636 0.995247 1.007886 0.9945015 0.99309427 0.9918425 1.0008421 0.99371624
0.9985994 1.0043027 0.994477 1.0064812 0.9983394 1.004592 0.9979624 0.99417424
0.9989176 0.9927157 0.9937629 1.0103502 1.0131334 1.0058967 0.99522316 1.0006764
1.0000545 0.99645495 0.9936413 0.9942484 0.9938607 0.9981362 0.992089 1.0034448
0.99461335 0.9937049 0.99999 1.0067164 1.0021086 0.9945156 1.0009742 0.9913512
0.99332327 0.99183893 1.0013841 0.9938771 0.99344873 1.0041891 0.999774 0.9930061
0.99390936 1.0018992 1.0058308 0.99239856 0.9932985 1.0111588 0.99231464 0.99564725
0.994177 1.0184448 0.9907582 1.0104527 0.9945436 0.9907601 1.0023141 0.9937157
1.0130336 0.9935044 0.9934781 1.0047419 0.99956787 0.99818486 1.0018344 0.9941238
0.9984553 0.9928779 0.99343973 1.001424 1.0102848 1.0029197 0.9920519 1.0032053
0.9949321 0.9943601 1.0137914 0.99249864 1.0028902 1.0021622 1.0042955 0.99304116
0.99553996 1.0012182 1.005708 0.995944 1.0015877 0.99661154 1.0026445 0.99483067
1.0039289 0.9926365 1.0048685 0.99248886 0.9959495 1.0059468 0.9921098 0.9944791
0.99038416 0.9935072 0.9998814 0.9941306 0.9921023 0.9911912 0.99528867 1.0013143
0.99483794 0.9944905 0.9949203 0.99997336 1.0033724 0.9954464 1.0089772 0.9942715
0.99306774 0.99389386 0.99328375 1.0122771 1.0003749 0.9981223 0.9945078 0.9940188
0.9932661 0.99405116 1.0022752 0.9933744 0.99583524 0.99404556 0.9950821 0.9942022
0.99250007 1.0001495 0.9941465 1.0007999 1.0014467 0.99669296 0.99854374 0.9926436
1.0081795 0.9922903 0.9923135 0.9925305 0.99167013 1.007095 0.9934241 1.0152582
0.9938498 0.99587876 0.99730545 0.99229604 0.9927057 0.9915109 0.9932438 1.0039371
0.9921424 1.0011262 0.9915517 0.99249417 0.99884117 1.0035855 1.0063417 0.9922364
1.0044626 1.0058026 1.0020801 1.0025584 0.9932334 1.0043883 0.99770266 0.99910456
0.99101657 0.9972893 1.0076034 1.0023665 0.9921932 1.0043662 1.0016661 0.99513894
1.0014039 0.9993922 1.005985 0.9918766 1.0084093 0.9915912 0.9938033 0.9976191
1.0000858 0.99865824 1.0134175 1.0015361 0.99299365 0.99187005 0.9906771 0.9951707
0.99355423 1.0026637 0.99435455 1.0093234 1.007388 0.99287987 0.9988067 0.9929866
1.0137386 1.0022659 1.0099274 0.9914979 1.0031649 0.99505055 1.0118678 0.9975647
0.9941213 0.9951316 0.9980163 0.99392396 0.99173546 0.99251056 0.99285513 1.0031748
00000000: 946c 803f 16e2 7e3f 6c32 803f a895 7e3f
00000010: f13c 7e3f a437 813f 6b54 803f 3768 7f3f
00000020: d316 7e3f ee4f 803f b4ee 7d3f 91b0 7e3f
00000030: 3b2f 813f af45 813f 858b 803f e9ea 803f
00000040: c433 803f 2c3f 803f 9d2c 7e3f 641e 7e3f
00000050: 9543 803f a889 7e3f df0d 803f 032b 7f3f
00000060: a4a0 7d3f 725c 813f d8df 7d3f 098b 803f
00000070: a000 7e3f b097 803f 1608 803f b022 803f
00000080: 96b9 803f 82c8 7e3f 6902 813f a697 7e3f
00000090: 6d3b 7e3f 64e9 7d3f 981b 803f 3064 7e3f
000000a0: 36a4 7f3f fe8c 803f 0b96 7e3f 60d4 803f
000000b0: 2c93 7f3f 7896 803f 777a 7f3f 3482 7e3f
000000c0: 10b9 7f3f 9e22 7e3f 3f67 7e3f 2853 813f
000000d0: 5bae 813f 39c1 803f f2c6 7e3f 2a16 803f
000000e0: c901 803f ac17 7f3f 475f 7e3f 1087 7e3f
000000f0: a86d 7e3f db85 7f3f 8bf9 7d3f e170 803f
00000100: fb9e 7e3f 7263 7e3f 58ff 7f3f 15dc 803f
00000110: 1845 803f 9398 7e3f ec1f 803f 31c9 7d3f
00000120: 6f4a 7e3f 28e9 7d3f 5b2d 803f bb6e 7e3f
00000130: a852 7e3f 4589 803f 30f1 7f3f a635 7e3f
00000140: d870 7e3f 3c3e 803f 10bf 803f d50d 7e3f
00000150: cf48 7e3f a76d 813f 5508 7e3f bde2 7e3f
00000160: 6282 7e3f 665c 823f 54a2 7d3f 8456 813f
00000170: 699a 7e3f 74a2 7d3f d44b 803f 2764 7e3f
00000180: 16ab 813f 4e56 7e3f 9554 7e3f 629b 803f
00000190: aee3 7f3f 0b89 7f3f 1c3c 803f e67e 7e3f
000001a0: c49a 7f3f 3f2d 7e3f 1152 7e3f a92e 803f
000001b0: 0351 813f ac5f 803f 1df7 7d3f 0869 803f
000001c0: dfb3 7e3f 628e 7e3f ebc3 813f 6414 7e3f
000001d0: b55e 803f da46 803f c18c 803f f237 7e3f
000001e0: b5db 7e3f eb27 803f 0abb 803f 30f6 7e3f
000001f0: 0734 803f ef21 7f3f a856 803f 39ad 7e3f
00000200: be80 803f 6d1d 7e3f 889f 803f c013 7e3f
00000210: 8cf6 7e3f ddc2 803f e8fa 7d3f 2f96 7e3f
00000220: d189 7d3f 7d56 7e3f 3af8 7f3f 587f 7e3f
00000230: 6bfa 7d3f b5be 7d3f 3dcb 7e3f 112b 803f
00000240: b3ad 7e3f ee96 7e3f 19b3 7e3f 41fe 7f3f
00000250: 826e 803f 93d5 7e3f 2a26 813f 9488 7e3f
00000260: b039 7e3f d46f 7e3f d847 7e3f 4c92 813f
00000270: 490c 803f f184 7f3f 1098 7e3f 0478 7e3f
00000280: b046 7e3f 237a 7e3f 8e4a 803f c94d 7e3f
00000290: 0fef 7e3f c579 7e3f b3bd 7e3f 0984 7e3f
000002a0: 7c14 7e3f e604 803f 6380 7e3f 361a 803f
000002b0: 682f 803f 4527 7f3f 90a0 7f3f e41d 7e3f
000002c0: 070c 813f bd06 7e3f 4208 7e3f 7b16 7e3f
000002d0: 18de 7d3f 7de8 803f 0b51 7e3f fbf3 813f
000002e0: f16c 7e3f e9f1 7e3f 694f 7f3f 1d07 7e3f
000002f0: f621 7e3f a9d3 7d3f 3a45 7e3f 0381 803f
00000300: 0bfd 7d3f e724 803f 55d6 7d3f 1914 7e3f
00000310: 0eb4 7f3f 7d75 803f cecf 803f 3403 7e3f
00000320: 3b92 803f 24be 803f 2944 803f d553 803f
00000330: 8b44 7e3f cc8f 803f 7169 7f3f 51c5 7f3f
00000340: 43b3 7d3f 5a4e 7f3f 26f9 803f 8c4d 803f
00000350: 6000 7e3f 128f 803f 9836 803f 6dc1 7e3f
00000360: 012e 803f 2bd8 7f3f 1ec4 803f a0eb 7d3f
00000370: 8e13 813f ecd8 7d3f e569 7e3f f763 7f3f
00000380: d002 803f 11a8 7f3f aab7 813f 5632 803f
00000390: d534 7e3f 32eb 7d3f 049d 7d3f 82c3 7e3f
000003a0: 9259 7e3f 4957 803f 058e 7e3f 8231 813f
000003b0: 17f2 803f 602d 7e3f ccb1 7f3f 5f34 7e3f
000003c0: 30c2 813f 404a 803f 4d45 813f ced2 7d3f
000003d0: b567 803f a2bb 7e3f e284 813f 6660 7f3f
000003e0: bc7e 7e3f f2c0 7e3f ff7d 7f3f cd71 7e3f
000003f0: 60e2 7d3f 2c15 7e3f c12b 7e3f 0868 803f

batchnorm1.bias f4 [256]
-0.07994735 0.0014202467 -0.053587757 -0.008642607 0.010339425 -0.09958802 -0.050353248 -0.02855045
-0.007868078 -0.06443765 0.0033610114 -0.0018879225 -0.08529902 -0.10701127 -0.06703054 -0.08168432
-0.06251136 -0.07544518 -0.0004004498 0.0029426403 -0.065520644 -0.008203785 -0.06824939 -0.03445425
0.0036549421 -0.10058619 0.0044009993 -0.06895601 0.0010348029 -0.0771533 0.04626921 -0.04609295
-0.08422468 -0.0066972757 -0.09885074 0.0036980493 0.007177891 -0.013403014 -0.06680971 -0.0026754958
-0.044590726 -0.07573598 0.002927413 -0.10329332 -0.052223723 -0.07859637 -0.0663744 0.008155544
0.006202233 0.00787717 0.004530127 -0.100249104 -0.1158263 -0.088655286 -0.0626384 -0.071469694
-0.0615051 -0.09712298 -0.009802058 0.002205554 0.015581707 -0.05039643 -0.0020398078 -0.07371647
0.013667893 0.0032730985 -0.07790691 -0.07797917 -0.08545655 -0.0053528766 -0.056391712 0.0021134978
-0.00054946076 0.014079619 -0.06856125 0.004424185 -0.0029979753 -0.07493852 -0.05765857 -0.0065902905
-0.005338606 -0.09531349 -0.07799808 -0.008295926 -0.0085579585 -0.10100247 0.012965373 0.009998471
-0.0034126611 -0.10462334 -0.00610761 -0.102937736 0.010099108 -0.00439468 -0.09808352 0.0026909716
-0.10359516 -0.0060510207 9.473281e-05 -0.09759843 -0.046789654 -0.0532976 -0.09654861 0.012515115
-0.02661869 0.0064902254 -0.0028747327 -0.06530224 -0.09922453 -0.06921226 -0.0014862986 -0.075480126
0.001757744 -0.0037472844 -0.09897485 -0.0058744955 -0.07560907 -0.077689774 -0.07227493 0.008483606
0.01436908 -0.06580018 -0.079088986 0.011568742 -0.03114648 0.0041142283 -0.0946287 -0.0014223807
-0.07984789 0.008446644 -0.09665247 -0.0048958287 -0.009269763 -0.08102875 -0.00853674 -0.0015363791
0.005650868 -0.005806834 -0.09016057 0.008493253 -0.008102212 0.0011189552 0.0042095347 -0.05020662
-0.00046574388 -0.007534493 -0.002071807 -0.05808458 -0.0942838 0.00220133 -0.10131001 -0.0036180567
-0.0010994003 -0.002792241 -0.00011540001 -0.09967915 -0.07633156 -0.032625616 0.016449306 0.0008184733
0.0084009655 0.00052575825 -0.07446202 -0.0006836459 -0.0022724604 0.001977061 0.014391375 0.0032109397
-0.0018422692 -0.09598161 0.0071770917 -0.0728305 -0.04509621 -0.018959424 -0.045387525 0.012121402
-0.09939981 0.0045860345 -0.0075307162 0.0018428947 -0.0012623911 -0.09290366 0.0112486845 -0.11187423
0.0034075952 0.0019360818 0.009608862 -0.000571445 -0.019021984 0.005906934 0.0036804131 -0.084937684
0.00039882556 -0.06723003 0.0031871155 0.018112041 -0.03219368 -0.06262226 -0.097501315 -0.012919039
-0.064401664 -0.0763078 -0.0972321 -0.07641769 -0.0042462796 -0.07981281 -0.047493663 -0.026171269
0.009350083 -0.045669805 -0.09630783 -0.06163999 -0.008090884 -0.08052748 -0.06637384 0.0032116526
-0.059427563 -0.08068677 -0.088260844 -0.0018933414 -0.08077525 0.00917672 -0.00071580114 -0.07921953
-0.059965953 -0.056547973 -0.10184666 -0.04130191 -0.012603318 0.0029022498 -0.0074332603 -0.0010216387
0.0015383898 -0.071810044 0.0016177811 -0.10007885 -0.10365284 0.0103314575 -0.02823998 0.019922715
-0.102934115 -0.067819156 -0.097529076 0.017467605 -0.091985255 -0.0059190555 -0.099834405 -0.066988654
-0.00093477435 0.0079419315 -0.05753792 -0.013711851 0.0027295658 -0.008715143 -0.0028402538 -0.06438694
00000000: 70bb a3bd 9227 ba3a d67e 5bbd b999 0dbc
00000010: b166 293c cef4 cbbd 353f 4ebd a2e2 e9bc
00000020: 1ce9 00bc e3f7 83bd 6a44 5c3b 2b74 f7ba
00000030: 41b1 aebd ba28 dbbd 4f47 89bd 1c4a a7bd
00000040: f505 80bd 0183 9abd 76f3 d1b9 50d9 403b
00000050: b02f 86bd 2b69 06bc 56c6 8bbd e61f 0dbd
00000060: c187 6f3b 2200 cebd 4236 903b cf38 8dbd
00000070: 39a2 873a 8d02 9ebd c884 3d3d f6cb 3cbd
00000080: fd7d acbd d274 dbbb 4272 cabd f95a 723b
00000090: 8434 eb3b 5198 5bbc 87d3 88bd 5f57 2fbb
000000a0: c4a4 36bd 771b 9bbd d7d9 3f3b 738b d3bd
000000b0: 8be8 55bd 22f7 a0bd 4def 87bd d59e 053c
000000c0: 1a3c cb3b 3f0f 013c 7671 943b 674f cdbd
000000d0: 5736 edbd e790 b5bd 9048 80bd b45e 92bd
000000e0: c6ec 7bbd 6ae8 c6bd d098 20bc 0e8b 103b
000000f0: 6a4a 7f3c 7d6c 4ebd 4cae 05bb a9f8 96bd
00000100: 4cef 5f3c 7b81 563b a88d 9fbd 8bb3 9fbd
00000110: d803 afbd 2f67 afbb fffa 66bd 9c82 0a3b
00000120: b009 10ba 34ae 663c d769 8cbd c1f8 903b
00000130: ae79 44bb 5e79 99bd 652b 6cbd 5df3 d7bb
00000140: 79ef aebb b833 c3bd 75bd 9fbd a3eb 07bc
00000150: ae36 0cbc 62da cebd b76c 543c a0d0 233c
00000160: f4a6 5fbb c344 d6bd 5922 c8bb 05d1 d2bd
00000170: bb76 253c 3f01 90bb 03e0 c8bd 035b 303b
00000180: b329 d4bd a447 c6bb 4aab c638 b0e1 c7bd
00000190: 82a6 3fbd 964e 5abd 47bb c5bd 320c 4d3c
000001a0: 700f dabc f5ab d43b 0366 3cbb 2ebd 85bd
000001b0: 3b36 cbbd 28bf 8dbd e8cf c2ba 5395 9abd
000001c0: 1a64 e63a 0095 75bb 53b3 cabd d77e c0bb
000001d0: eed8 9abd d11b 9fbd e104 94bd d3fe 0a3c
000001e0: 4a6c 6b3c 3fc2 86bd 68f9 a1bd d28a 3d3c
000001f0: e726 ffbc a6d0 863b b1cc c1bd 2d6f baba
00000200: 4a87 a3bd cb63 0a3c bbf1 c5bd 306d a0bb
00000210: 34e0 17bc 67f2 a5bd afdd 0bbc 5460 c9ba
00000220: eb2a b93b 4147 bebb 1ba6 b8bd 4927 0b3c
00000230: 24bf 04bc e8a9 923a 23f0 893b 75a5 4dbd
00000240: 162f f4b9 e9e3 f6bb 27c7 07bb 19ea 6dbd
00000250: dd17 c1bd 3044 103b 9f7b cfbd eb1c 6dbb
00000260: c119 90ba 08fe 36bb e902 f2b8 9524 ccbd
00000270: b953 9cbd 70a2 05bd b2c0 863c d08e 563a
00000280: 34a4 093c 0ad3 093a 8b7f 98bd b336 33ba
00000290: 8fed 14bb 9491 013b cdc9 6b3c a16e 523b
000002a0: 4c78 f1ba 0292 c4bd cf2d eb3b 2828 95bd
000002b0: ceb6 38bd cb50 9bbc 45e8 39bd d898 463c
000002c0: 2192 cbbd 7246 963b 3ac4 f6bb 498d f13a
000002d0: d176 a5ba 4644 bebd 674c 383c 511e e5bd
000002e0: f651 5f3b 20c4 fd3a 7d6e 1d3c 06cd 15ba
000002f0: fed3 9bbc f48e c13b 1633 713b cff3 adbd
00000300: 7619 d139 e6af 89bd edde 503b b45f 943c
00000310: 85dd 03bd 1940 80bd c5ae c7bd 61aa 53bc
00000320: 05e5 83bd 4447 9cbd a021 c7bd e180 9cbd
00000330: 6024 8bbb e674 a3bd b788 42bd 2165 d6bc
00000340: 1731 193c 4310 3bbd 0a3d c5bd 377a 7cbd
00000350: a18f 04bc 97eb a4bd 02ef 87bd 977a 523b
00000360: 516a 73bd 1b3f a5bd 1ac2 b4bd ff29 f8ba
00000370: 7f6d a5bd f459 163c 9aa4 3bba d93d a2bd
00000380: dc9e 75bd d99e 67bd fb94 d0bd 312c 29bd
00000390: 267e 4ebc ac33 3e3b b592 f3bb 82e8 85ba
000003a0: cca3 c93a 2511 93bd ba0b d43a 24f6 ccbd
000003b0: f147 d4bd 4645 293c 8857 e7bc f634 a33c
000003c0: 1fcf d2bd c5e4 8abd 53bd c7bd 3918 8f3c
000003d0: c462 bcbd a3f4 c1bb fb75 ccbd 5931 89bd
000003e0: a50b 75ba e01e 023c e2ac 6bbd aca7 60bc
000003f0: 84e2 323b f6c9 0ebc 8d23 3abb 4ddd 83bd

batchnorm1.running_mean f4 [256]
-90023.266 114400.88 -98822.12 107979.625 101726.695 -44163.414 -55603.46 -19423.955
50807.01 -31789.715 112897.69 18304.908 -20055.686 -9642.142 -91134.72 -114178.76
-78952.35 -64048.688 17982.889 37982.867 -63962.766 43660.746 -109858.27 -25958.73
57815.695 -60036.04 98087.72 -93072.58 58215.945 -116708.52 42.318043 -99351.914
-26304.182 29451.42 -104095.266 116856.945 81863.29 19659.967 -28772.293 80869.52
-61660.46 -84957.305 31648.516 -66536.6 -25009.37 -101934.48 -20548.992 18618.057
17.581375 35403.2 32818.395 -104096.555 -3468.7385 -56028.71 -51471.957 -119442.4
-51062.082 -35159.234 20468.13 102790.96 103460.18 -76105.76 103629.45 -19665.115
35277.996 49170.832 -55409.32 -24643.621 -35643.504 91541.21 -71530.35 100593.36
98361.34 18943.363 -44211.113 39525.99 117065.26 -81008.81 -24926.635 59822.805
42146.52 -47838.25 -73903.164 49130.684 34886.395 -96785.53 95459.74 89675.21
43757.03 -40276.184 68688.016 -113603.29 8135.9644 62468.03 -26570.098 97834.9
-7206.1484 109695.45 104222.53 -96167.01 -87376.32 -117237.71 -37781.277 1390.8784
-20476.908 94356.05 105013.91 -95583.58 -65253.8 -70630.67 46882.72 -95096.52
62391.285 56371.402 -37248.21 31292.521 -105303.1 -71020.71 -12407.438 34547.316
10992.635 -88313.4 -63661.98 1589.8083 -91435.234 88145.09 -65081.87 60260.605
-109438.48 43196.074 -116610.39 59292.82 68673.43 -6543.275 74048.87 99086.7
105845.44 36253.6 -37297.867 205.13869 45655.457 4050.8047 -137.20912 -112498.96
90410.125 88460.09 11582.726 -99271.266 -73359.414 117015.78 -115055.65 76935.75
69878.07 111754.41 114797.734 -88095.48 -47842.434 -38620.58 14813.884 116473.87
35211.37 33461.562 -20199.22 41405.96 31720.607 50656.043 105398.59 67178.75
98953.3 -40756.664 11106.14 -32399.123 -34249.52 -37951.254 -40620.656 47796.97
-66699.42 75076.51 108676.02 118125.77 48713.83 -80265.2 27867.598 -5796.883
71096.49 29119.34 -1008.2869 54351.258 108159.11 24512.67 105142.875 -104540.12
46057.047 -79604.68 31969.672 3788.6648 -67563.99 -4159.16 -106950.17 89100.52
-66797.586 -84527.914 -71513.87 -75649.85 108977.4 -64258.203 -91761.18 -51870.54
104594.195 -94148.8 -78797.1 -102211.88 56533.258 -68630.86 -89818.4 60895.03
-82821.22 -53618.957 -7787.621 31888.273 -58518.05 74961.77 17131.926 -78753.38
-52977.97 -46770.668 -22552.572 -56131.875 103476.664 40467.75 108025.95 48696.992
56120.23 -52835.02 47421.414 -34586.188 -42086.758 19315.146 1988.5563 91181.62
-74278.016 -75928.44 -88453.98 42481.55 -37255.418 58734.605 -24644.242 -80947.016
49684.74 79090.766 -114486.15 6624.0664 90815.195 5441.7793 110034.33 -19469.414
00000000: a2d3 afc7 7170 df47 0f03 c1c7 d0e5 d247
00000010: 59af c647 6a83 2cc7 7633 59c7 e9bf 97c6
00000020: 0377 4647 6e5b f8c6 d880 dc47 d101 8f46
00000030: 5faf 9cc6 91a8 16c6 5cff b1c7 6101 dfc7
00000040: 2d34 9ac7 b030 7ac7 c77d 8c46 de5e 1447
00000050: c4da 79c7 bf8c 2a47 2391 d6c7 76cd cac6
00000060: b2d7 6147 0a84 6ac7 dc93 bf47 4ac8 b5c7
00000070: f267 6347 43f2 e3c7 ad45 2942 f50b c2c7
00000080: 5d80 cdc6 d716 e646 a24f cbc7 793c e447
00000090: a5e3 9f47 ef97 9946 96c8 e0c6 c3f2 9d47
000000a0: 76dc 70c7 a7ee a5c7 0841 f746 4df4 81c7
000000b0: bd62 c3c6 3d17 c7c7 fc89 a0c6 1d74 9146
000000c0: a8a6 8c41 334b 0a47 6532 0047 4750 cbc7
000000d0: d1cb 58c5 b6dc 5ac7 f50f 49c7 3349 e9c7
000000e0: 1576 47c7 3c57 09c7 43e8 9f46 7bc3 c847
000000f0: 1712 ca47 e1a4 94c7 ba66 ca47 3ba2 99c6
00000100: ffcd 0947 d512 4047 5271 58c7 3e87 c0c6
00000110: 813b 0bc7 9bca b247 2db5 8bc7 ae78 c447
00000120: ac1c c047 bafe 9346 1db3 2cc7 fd65 1a47
00000130: a1a4 e447 6838 9ec7 45bd c2c6 ceae 6947
00000140: 85a2 2447 40de 3ac7 9557 90c7 afea 3f47
00000150: 6546 0847 c408 bdc7 df71 ba47 9b25 af47
00000160: 08ed 2a47 2f54 1dc7 0228 8647 a5e1 ddc7
00000170: b73f fe45 0804 7447 3294 cfc6 7315 bf47
00000180: 3031 e1c5 ba3f d647 448f cb47 81d3 bbc7
00000190: 29a8 aac7 dbfa e4c7 4795 13c7 1cdc ad44
000001a0: d1f9 9fc6 064a b847 f41a cd47 caaf bac7
000001b0: cde5 7ec7 56f3 89c7 b822 3747 43bc b9c7
000001c0: 49b7 7347 6733 5c47 3680 11c7 0b79 f446
000001d0: 8dab cdc7 5bb6 8ac7 c1dd 41c6 51f3 0647
000001e0: 8ac2 2b46 b37c acc7 fbad 78c7 deb9 c644
000001f0: 9e95 b2c7 8c28 ac47 df39 7ec7 9b64 6b47
00000200: 3dbf d5c7 13bc 2847 32c1 e3c7 d29c 6747
00000210: b720 8647 337a ccc5 6fa0 9047 5a87 c147
00000220: b8ba ce47 9a9d 0d47 deb1 11c7 8123 4d43
00000230: 7557 3247 e02c 7d45 8935 09c3 7bb9 dbc7
00000240: 1095 b047 0cc6 ac47 e7fa 3446 a2e3 c1c7
00000250: b547 8fc7 e48b e447 d3b7 e0c7 e043 9647
00000260: 097b 8847 3445 da47 de36 e047 bd0f acc7
00000270: 6fe2 3ac7 94dc 16c7 8977 6746 ef7c e347
00000280: 5f8b 0947 90b5 0247 71ce 9dc6 f6bd 2147
00000290: 37d1 f746 0be0 4547 4cdb cd47 6035 8347
000002a0: a644 c147 aa34 1fc7 8f88 2d46 3f1e fdc6
000002b0: 85c9 05c7 413f 14c7 a8ac 1ec7 f8b4 3a47
000002c0: b645 82c7 41a2 9247 0342 d447 e3b6 e647
000002d0: d449 3e47 9ac4 9cc7 32b7 d946 1027 b5c5
000002e0: 3fdc 8a47 ae7e e346 5d12 7cc4 424f 5447
000002f0: 8e3f d347 5781 bf46 705b cd47 0f2e ccc7
00000300: 0ce9 3347 577a 9bc7 58c3 f946 a3ca 6c45
00000310: fff5 83c7 48f9 81c5 16e3 d0c7 4306 ae47
00000320: cb76 82c7 f517 a5c7 efac 8bc7 edc0 93c7
00000330: b3d8 d447 3402 7bc7 9738 b3c7 8a9e 4ac7
00000340: 1949 cc47 66e2 b7c7 8de6 99c7 f1a1 c7c7
00000350: 42d5 5c47 6e0b 86c7 336d afc7 08df 6d47
00000360: 9cc2 a1c7 f572 51c7 f85c f3c5 8c20 f946
00000370: 0d96 64c7 e368 9247 dad7 8546 b1d0 99c7
00000380: f8f1 4ec7 abb2 36c7 2531 b0c6 e043 5bc7
00000390: 551a ca47 c013 1e47 fafc d247 fe38 3e47
000003a0: 3b38 5b47 0563 4ec7 6a3d 3947 301a 07c7
000003b0: c266 24c7 4be6 9646 cd91 f844 cf16 b247
000003c0: 0213 91c7 384c 94c7 fdc2 acc7 8df1 2547
000003d0: 6b87 11c7 9b6e 6547 7c88 c0c6 8219 9ec7
000003e0: bd14 4247 6279 9a47 139b dfc7 8800 cf45
000003f0: 995f b147 3c0e aa45 2ae9 d647 d41a 98c6

batchnorm1.running_var f4 [256]
5.807288e+11 9.3567916e+11 6.944948e+11 8.405935e+11 7.1769784e+11 1.333961e+11 2.1459544e+11 2.8665397e+10
1.7583874e+11 6.740829e+10 8.829789e+11 2.2610022e+10 2.627667e+10 5.284481e+09 5.844624e+11 9.385892e+11
4.3514233e+11 2.9954133e+11 2.1526884e+10 1.0726565e+11 2.941397e+11 1.3436408e+11 8.6708165e+11 4.7608873e+10
2.3856731e+11 2.5115625e+11 6.984349e+11 5.973641e+11 2.3428158e+11 9.432498e+11 4.937243e+07 7.070089e+11
4.3970646e+10 5.9344994e+10 7.6605823e+11 9.812216e+11 4.8669694e+11 2.7859845e+10 6.1636903e+10 4.7748563e+11
2.572762e+11 5.078907e+11 7.566858e+10 3.026624e+11 4.844219e+10 7.349161e+11 3.1315278e+10 2.6562152e+10
1.6069152e+07 9.098232e+10 7.801022e+10 7.629385e+11 4.6388653e+08 2.1399971e+11 1.86941e+11 9.84879e+11
1.8105359e+11 9.2234e+10 2.8034011e+10 7.332373e+11 7.6997624e+11 4.0802078e+11 7.430211e+11 2.422474e+10
8.4377715e+10 1.7318799e+11 2.273339e+11 4.2107265e+10 9.4180704e+10 5.874033e+11 3.501726e+11 7.281213e+11
7.028444e+11 2.504408e+10 1.4292668e+11 1.1841111e+11 9.752181e+11 4.589512e+11 4.7606284e+10 2.5011094e+11
1.33184815e+11 1.7022145e+11 3.786487e+11 1.6940471e+11 7.962246e+10 6.4501206e+11 6.445653e+11 5.7722234e+11
1.2853098e+11 1.0733538e+11 3.2172737e+11 9.002445e+11 5.767729e+09 2.752005e+11 4.7898665e+10 6.9432954e+11
2.6659428e+09 8.602398e+11 7.586214e+11 6.6738074e+11 5.543777e+11 9.561881e+11 9.993376e+10 2.039986e+08
3.1515361e+10 6.256777e+11 7.743652e+11 6.627488e+11 2.9002796e+11 3.6534813e+11 1.6222734e+11 6.3857426e+11
2.6515445e+11 2.3397869e+11 9.7678344e+10 7.185194e+10 7.8285387e+11 3.457481e+11 1.0016589e+10 8.919458e+10
7.728616e+09 5.6271195e+11 2.7806446e+11 5.8851548e+07 6.054721e+11 5.663191e+11 3.086127e+11 2.6803891e+11
8.2986186e+11 1.25203464e+11 9.510463e+11 2.4053249e+11 3.4520062e+11 2.017925e+09 4.000889e+11 6.887785e+11
7.998972e+11 9.006679e+10 1.0456412e+11 1.7891038e+08 1.4324222e+11 1.1682628e+09 4.7323972e+07 9.0535664e+11
5.7275515e+11 5.4237918e+11 1.0152549e+10 6.7646403e+11 3.9347264e+11 9.717633e+11 9.245984e+11 4.260986e+11
3.5325152e+11 8.601585e+11 9.2059854e+11 5.4916393e+11 1.6919562e+11 1.1200967e+11 1.283812e+10 9.489298e+11
8.359972e+10 7.291142e+10 2.5905828e+10 1.2272859e+11 6.679687e+10 1.7491416e+11 7.660158e+11 3.0858117e+11
7.0914094e+11 1.2380671e+11 9.749185e+09 7.848637e+10 8.954146e+10 1.07843895e+11 1.2041226e+11 1.5753617e+11
3.0879875e+11 4.0835256e+11 8.199697e+11 9.961661e+11 1.6123978e+11 4.5855513e+11 5.104828e+10 1.7364769e+09
3.5562144e+11 6.2051148e+10 3.8365372e+07 2.0589052e+11 8.2401087e+11 4.308338e+10 7.9289785e+11 7.91761e+11
1.4322598e+11 4.4666434e+11 7.3812296e+10 1.0938003e+09 3.3587125e+11 5.966852e+08 7.8917645e+11 5.628769e+11
3.0773015e+11 4.9200048e+11 3.729979e+11 3.9675478e+11 8.50539e+11 2.8063066e+11 5.773986e+11 1.9559575e+11
7.7954594e+11 6.398555e+11 4.4996785e+11 7.5520954e+11 2.2563622e+11 3.2049254e+11 5.761719e+11 2.7245003e+11
4.8618593e+11 2.1089896e+11 4.1003574e+09 6.889534e+10 2.3150135e+11 4.117791e+11 1.9946557e+10 4.5105843e+11
2.0394092e+11 1.6290926e+11 3.4174147e+10 2.2886985e+11 7.50864e+11 1.1081779e+11 8.4547836e+11 1.7472543e+11
2.3108631e+11 1.9193658e+11 1.5151112e+11 8.0029884e+10 1.1793136e+11 2.9619755e+10 7.0084634e+08 5.908622e+11
3.8030416e+11 3.96289e+11 5.5365265e+11 1.35443186e+11 9.613999e+10 2.4616123e+11 4.0034304e+10 4.5294662e+11
1.6827826e+11 4.396481e+11 9.1330177e+11 4.3036595e+09 5.880053e+11 2.908183e+09 8.454247e+11 2.6684963e+10
00000000: 2236 0753 d3da 5953 1eb3 2153 47b7 4353
00000010: 201a 2753 3878 f851 8adb 4752 e892 d550
00000020: 39c3 2352 8e1d 7b51 a595 4d53 3275 a850
00000030: c5c6 c350 647d 9d4f ac14 0853 4788 5a53
00000040: 02a1 ca52 1c7c 8b52 4663 a050 3fcc c751
00000050: 2ff8 8852 c945 fa51 18e2 4953 5c5b 3151
00000060: e12e 5e52 51e8 6952 f79d 2253 ad15 0b53
00000070: 1531 5a52 129e 5b53 4457 3c4c 049d 2453
00000080: adcd 2351 cc13 5d51 a15c 3253 5d75 6453
00000090: cca2 e252 7092 cf50 889d 6551 b958 de52
000000a0: 6d9b 6f52 4a81 ec52 97f1 8c51 2bf0 8c52
000000b0: 1376 3451 6a1c 2b53 2751 e950 49e7 c550
000000c0: 2032 754b c077 a951 2c4e 9151 aea2 3153
000000d0: c632 dd4d 824d 4752 351a 2e52 5d4f 6553
000000e0: 8a9e 2852 99cc ab51 a2de d050 59b8 2a53
000000f0: 2946 3353 deff bd52 82ff 2c53 067d b450
00000100: 6e2a 9d51 3c4b 2152 a0b8 5352 9edc 1c51
00000110: dc6c af51 f7c3 0853 d40f a352 6987 2953
00000120: caa4 2353 cb97 ba50 601c 0552 d18e dc51
00000130: 870f 6353 3fb7 d552 e458 3151 18ef 6852
00000140: 7813 f851 f587 1e52 7152 b052 3bc5 1d52
00000150: f34e 9451 b72d 1653 1613 1653 2265 0653
00000160: 5968 ef51 7fed c751 e4d0 9552 c19a 5153
00000170: 48e4 ab4f 7526 8052 ba6f 3251 44a9 2153
00000180: 0fe7 1e4f 4a4a 4853 5ca1 3053 fe62 1b53
00000190: 7c13 0153 41a1 5e53 2124 ba51 588c 424d
000001a0: c8ce ea50 4cad 1153 c34b 3453 e84e 1a53
000001b0: 070e 8752 e420 aa52 0316 1752 fead 1453
000001c0: bff1 7652 dee8 5952 aaf0 b551 add5 8551
000001d0: ba45 3653 6300 a152 4142 1550 4a23 a651
000001e0: a954 e64f 3f04 0353 de7b 8152 3780 604c
000001f0: f3f8 0c53 40db 0353 80b5 8f52 75a1 7952
00000200: 9f37 4153 aa35 e951 c76e 5d53 6a03 6052
00000210: 1fbf a052 2f8e f04e 504e ba52 665e 2053
00000220: 973d 3a53 31c3 a751 0fc4 c251 4b9f 2a4d
00000230: 9b67 0552 8d44 8b4e d186 344c 76cb 5253
00000240: de5a 0553 a390 fc52 e748 1750 6680 1d53
00000250: 9839 b752 9b41 6253 5c46 5753 e96a c652
00000260: dd7e a452 7145 4853 f357 5653 71b9 ff52
00000270: 6193 1d52 5fa2 d051 8b4d 3f50 a0f0 5c53
00000280: 74b7 9b51 e0ce 8751 7203 c150 8d99 e451
00000290: 76d6 7851 c9e6 2252 1a5a 3253 beb1 8f52
000002a0: 181c 2553 a49b e651 3046 1150 3831 9251
000002b0: b2c8 a651 fadf c851 0a49 e051 8db7 1252
000002c0: aecb 8f52 6b27 be52 01ea 3e53 20f0 6753
000002d0: 8f2a 1652 0888 d552 6f2b 3e51 1201 cf4e
000002e0: 6199 a552 9628 6751 2f5a 124c 20c0 3f52
000002f0: e0da 3f53 837f 2051 659c 3853 a258 3853
00000300: bc63 0552 8afe cf52 727c 8951 2364 824e
00000310: f966 9c52 c642 0e4e 95be 3753 140e 0353
00000320: 4b4c 8f52 071b e552 d1b0 ad52 dbc0 b852
00000330: 1308 4653 c8ad 8252 a36f 0653 a929 3652
00000340: 8f80 3553 5cfa 1453 5988 d152 ffd5 2f53
00000350: de23 5252 b03d 9552 8526 0653 26bd 7d52
00000360: e165 e252 3b6a 4452 7d66 744f dc53 8051
00000370: 399a 5752 e5bf bf52 0a9d 9450 5b0a d252
00000380: 4eef 3d52 98b8 1752 039e fe50 d326 5552
00000390: fbd2 2e53 0a6a ce51 70da 4453 cab9 2252
000003a0: 4537 5752 3fc1 3252 111b 0d52 3911 9551
000003b0: 0eaa db51 33af dc50 4418 274e 2292 0953
000003c0: ca17 b152 5589 b852 45e8 0053 5848 fc51
000003d0: 1f13 b351 6941 6552 b023 1551 72eb d252
000003e0: aab8 1c52 23ba cc52 07a5 5453 5142 804f
000003f0: d9e7 0853 5a57 2d4f 3dd7 4453 87d1 c650

batchnorm2.weight f4 [16]
0.98260987 1.0446972 1.0443993 1.0121435 1.0060654 0.9739108 0.9990919 1.0077924
1.0056032 1.0216426 1.0002841 0.9838137 1.0402364 0.9222147 1.0064644 0.9372922
00000000: 528c 7b3f a3b8 853f e0ae 853f eb8d 813f
00000010: c0c6 803f 3852 793f 7dc4 7f3f 57ff 803f
00000020: 9bb7 803f 2fc5 823f 4f09 803f 37db 7b3f
00000030: 7726 853f 4316 6c3f d3d3 803f 62f2 6f3f

batchnorm2.bias f4 [16]
-0.00045583583 0.053673714 0.039465997 0.017352123 0.010217408 0.11748109 0.026057508 0.04365188
0.007251424 0.01786856 0.015195594 0.26638728 0.07708433 0.4374617 0.002236907 0.3967939
00000000: 40fd eeb9 f8d8 5b3d 19a7 213d 0a26 8e3c
00000010: ea66 273c ed99 f03d 8e76 d53c 50cc 323d
00000020: 5a9d ed3b 1661 923c f1f6 783c ea63 883e
00000030: 64de 9d3d fbfa df3e 1299 123b 9228 cb3e

batchnorm2.running_mean f4 [16]
0.09409049 0.14167531 0.107905455 0.08066627 0.059891324 -0.12830761 0.10945625 -0.113157734
0.04340174 0.02702202 0.17167406 -0.28211477 -0.2219988 -0.18727313 -0.15066186 -0.25417387
00000000: 84b2 c03d 5513 113e 89fd dc3d 5b34 a53d
00000010: 9b50 753d 1263 03be 992a e03d 3ebf e7bd
00000020: 06c6 313d 495d dd3c 53cb 2f3e 5971 90be
00000030: a753 63be 87c4 3fbe 1a47 1abe 1423 82be

batchnorm2.running_var f4 [16]
0.83934945 0.031214785 0.048251055 0.18425564 0.24289073 0.06936573 0.516067 0.19744635
0.21121521 0.18686266 0.69727725 0.008080664 0.05444414 0.0101739215 0.32505 0.009051741
00000000: 9bdf 563f 26b6 ff3c e6a2 453d 83ad 3c3e
00000010: 59b8 783e 9f0f 8e3d f81c 043f 602f 4a3e
00000020: cd48 583e ed58 3f3e c380 323f c364 043c
00000030: d200 5f3d 85b0 263c f46c a63e c14d 143c
