model/model_20210730_1627964594.5715802_data1.pt (torch, 69591 bytes, 22 tensors)

fc1.weight f4 [256, 10]
0.06766275 0.2559372 -0.07055099 -0.27204072 -0.17839307 -0.075199485 0.12182218 -0.0024817586
0.25211814 0.021499814 0.23920201 -0.09805576 -0.11090131 0.12319815 0.18634221 0.25466272
-0.2838874 -0.032832712 -0.13185695 0.17610583 -0.23486617 -0.28614295 -0.1514001 -0.005089939
0.17991263 -0.31561217 0.22674355 0.060791403 -0.24900374 0.16370553 0.06799388 -0.25473765
-0.2855569 0.26104328 -0.3145011 -0.24093388 -0.13563903 0.25871608 -0.16537115 0.1218829
-0.3099711 -0.07104924 -0.289292 0.0055202544 0.12871298 0.0306938 -0.022300541 0.1168665
0.24486004 -0.18942638 0.29524484 0.123802245 -0.034421176 0.16826671 -0.29560727 -0.19958904
-0.18969648 0.035233736 0.14144008 -0.30714983 -0.110543154 0.05865038 0.13888177 0.10674983
-0.07106373 0.14538747 0.13885471 -0.22460741 0.1536532 0.06721665 0.022524538 -0.27181175
-0.15606587 -0.026179612 0.26999345 0.25473532 0.20124492 -0.26244128 0.14393015 -0.12923568
-0.25493062 0.22201398 -0.052421927 -0.178322 0.03852722 -0.21006301 0.05581814 0.29301086
0.03669241 0.015459413 0.21861309 0.01705014 0.3008766 -0.037979364 -0.28566515 -0.091660395
-0.04404071 -0.09580162 -0.086185604 0.20444794 0.10901781 -0.230094 -0.24418467 -0.01920712
-0.21486779 -0.18110786 -0.2797193 0.08837181 0.003957688 0.062125128 0.22103399 0.116055086
0.2508584 -0.24232623 0.044089377 -0.22263697 -0.08932708 0.017916113 0.16391374 0.24574006
0.2543967 0.19390407 -0.0970954 -0.07517299 -0.12107374 0.00833106 -0.21075445 -0.30209166
0.30117053 0.009186369 0.25214475 0.22418602 -0.1912708 -0.01016295 -0.1488267 0.041471004
-0.20838347 -0.31303382 0.20031232 0.25097144 -0.09183959 0.08752846 -0.24283782 0.17928144
0.24488088 0.2505915 0.24302837 -0.1281059 -0.12156783 0.2957087 -0.10420773 0.30379173
0.09862831 0.2916976 0.02745539 -0.28627512 0.16998386 -0.06897171 -0.027755974 0.28557423
0.18242866 0.10350115 0.19746622 0.24416491 0.19326952 0.04576236 0.15256518 -0.22517976
0.2455807 -0.14478791 -0.2590701 0.029353341 0.2489169 0.010948807 -0.0043789446 -0.03917262
-0.2957422 -0.011904955 0.10811473 -0.2947288 0.19793548 -0.012156324 -0.02908495 -0.08286011
-0.08466129 -0.22799824 -0.22343552 0.03794545 -0.1946221 0.03263669 0.08323424 0.09782864
-0.11066596 0.12255445 -0.31331295 -0.26797172 -0.12348376 -0.30036643 0.16774884 -0.16210727
-0.033875663 -0.28871748 0.309994 0.14527851 0.022150666 0.300477 -0.075362 0.12686211
-0.11666291 0.19644184 -0.28239053 0.2770105 0.041787326 0.058664024 0.3049409 -0.10128409
0.111050576 0.0543164 -0.026804002 -0.005273082 -0.2375304 0.28725493 0.23017159 -0.18656926
-0.268221 0.04264313 0.16196647 -0.16031823 0.24155706 -0.31250042 0.009938992 -0.05624922
-0.3143817 0.25739107 -0.27561927 0.033788003 -0.03464943 0.30925152 -0.079062544 -0.18602234
0.116283976 0.3019016 -0.27503428 -0.031255007 0.11699024 -0.217741 -0.236075 -0.09162095
-0.30802548 -0.20169875 -0.0027436465 -0.034257025 -0.30860713 0.010906878 -0.062427815 -0.08279474
00000000: c592 8a3d 330a 833e 0a7d 90bd ec48 8bbe
00000010: acac 36be 3002 9abd e87d f93d 00a5 22bb
00000020: a115 813e 6120 b03c 5ff1 743e 75d1 c8bd
00000030: 3a20 e3bd 504f fc3d 7ed0 3e3e 2763 823e
00000040: b059 91be 987b 06bd 8205 07be 1655 343e
00000050: c280 70be 5481 92be a108 1bbe 81c9 a6bb
00000060: 043b 383e eb97 a1be 762f 683e 6800 793d
00000070: d6fa 7ebe 6ca2 273e 6040 8b3d f96c 82be
00000080: 8434 92be 77a7 853e 4a06 a1be 5fb7 76be
00000090: f5e4 0abe 6f76 843e 0e57 29be be9d f93d
000000a0: 88b4 9ebe 4482 91bd 151e 94be 40e3 b43b
000000b0: 56cd 033e 9071 fb3c a0af b6bc b457 ef3d
000000c0: 97bc 7a3e fdf8 41be 552a 973e 088c fd3d
000000d0: 38fd 0cbd 1c4e 2c3e d659 97be 1261 4cbe
000000e0: cb3f 42be 4051 103d abd5 103e be42 9dbe
000000f0: 7364 e2bd 613b 703d 0637 0e3e a89f da3d
00000100: dc89 91bd 74e0 143e ee2f 0e3e 7cff 65be
00000110: 4457 1d3e e2a8 893d 6185 b83c e92a 8bbe
00000120: bbcf 1fbe a076 d6bc 953c 8a3e ab6c 823e
00000130: 2613 4e3e b45e 86be 6d62 133e 5c56 04be
00000140: 4486 82be a257 633e 60b8 56bd 0b9a 36be
00000150: b8ce 1d3d c21a 57be 90a1 643d 8505 963e
00000160: c84a 163d 7a49 7d3c 1cdc 5f3e bcac 8b3c
00000170: 7f0c 9a3e 4090 1bbd b442 92be 72b8 bbbd
00000180: 0864 34bd a433 c4bd 1482 b0bd cd5a 513e
00000190: bb44 df3d c39d 6bbe 8c0b 7abe 4058 9dbc
000001a0: 4d06 5cbe 5774 39be 5e37 8fbe 48fc b43d
000001b0: 7eaf 813b eb76 7e3d bc56 623e 4aae ed3d
000001c0: 8370 803e 5e24 78be 1097 343d f2fa 63be
000001d0: 1ef1 b6bd d0c4 923c 01d9 273e 48a3 7b3e
000001e0: 4940 823e ca8e 463e f4d9 c6bd 4cf4 99bd
000001f0: 82f5 f7bd 007f 083c 04d0 57be c2ab 9abe
00000200: 0633 9a3e 6d82 163c 1e19 813e 0591 653e
00000210: 7edc 43be 8082 26bc 0766 18be 80dd 293d
00000220: 7a62 55be f845 a0be ac1e 4d3e 547f 803e
00000230: 6516 bcbd 1f42 b33d 7aaa 78be 8e95 373e
00000240: 0ec2 7a3e 874d 803e 6edc 783e 312e 03be
00000250: 8ef8 f8bd 2167 973e dd6a d5bd 978a 9b3e
00000260: a4fd c93d 6359 953e 20ea e03c a792 92be
00000270: 4010 2e3e 0a41 8dbd 7f60 e3bc c936 923e
00000280: 94ce 3a3e 69f8 d33d 9634 4a3e 5e06 7a3e
00000290: 72e8 453e 5071 3b3d 0c3a 1c3e 8695 66be
000002a0: 8279 7b3e 4843 14be d6a4 84be 6b76 f03c
000002b0: 12e4 7e3e a062 333c 407d 8fbb 7873 20bd
000002c0: 866b 97be 000d 43bc 416b dd3d b1e6 96be
000002d0: 99af 4a3e 522b 47bc 9043 eebc 90b2 a9bd
000002e0: e662 adbd 5f78 69be 48cc 64be b06c 1b3d
000002f0: 044b 47be 0dae 053d b776 aa3d 625a c83d
00000300: d6a4 e2bd d4fd fa3d 8e6a a0be 9733 89be
00000310: 0ee5 fcbd a1c9 99be 5ac6 2b3e 73ff 25be
00000320: 35c1 0abd c7d2 93be 89b7 9e3e e4c3 143e
00000330: 5075 b53c 1fd8 993e 6457 9abd 24e8 013e
00000340: f7ec eebd 0d28 493e 7e95 90be 52d4 8d3e
00000350: 3029 2b3d b049 703d 3721 9c3e 086e cfbd
00000360: 7c6e e33d e07a 5e3d 1194 dbbc d1c9 acbb
00000370: 2b3b 73be 1413 933e 1ab2 6b3e 030c 3fbe
00000380: 4354 89be 90aa 2e3d 8ada 253e 762a 24be
00000390: bc5a 773e 0e00 a0be 27d7 223c 9565 66bd
000003a0: a3f6 a0be c3c8 833e f81d 8dbe 4a65 0a3d
000003b0: 90ec 0dbd 3756 9e3e 8beb a1bd a47c 3ebe
000003c0: 4b26 ee3d d992 9a3e 4bd1 8cbe 4005 00bd
000003d0: 9498 ef3d 7ff7 5ebe a5bd 71be c4a3 bbbd
000003e0: 84b5 9dbe 1e8a 4ebe c0ce 33bb 1851 0cbd
000003f0: c101 9ebe c3b2 323c 4fb4 7fbd 4a90 a9bd

fc1.bias f4 [256]
0.067399025 -0.30548066 0.1324772 -0.0046693683 -0.20035076 0.072651595 0.2496762 -0.11703707
-0.025685847 -0.002704531 -0.10733643 -0.0069997907 0.2072601 0.15865716 0.1581923 -0.016288847
-0.17918074 -0.113102004 0.29461017 -0.042793393 0.3151966 0.22178122 0.12709406 0.1758863
-0.23452693 -0.025812626 0.063247025 -0.24549901 -0.27468303 0.17741904 0.30275717 0.13925359
-0.1842401 0.06843445 0.25689134 0.14448997 0.01346302 0.052571118 0.24866375 0.27586564
0.212118 0.0019990802 -0.010852665 0.23769572 -0.044686556 0.12835255 0.016632915 -0.29295942
0.22509995 -0.18749997 0.019176126 0.21914491 -0.27617484 -0.036752105 0.015294045 0.2598326
-0.099558875 0.19696996 -0.25682065 -0.1598284 0.014922202 0.019494563 -0.2938928 0.20479491
-0.28676623 0.1923041 -0.013132364 0.012816429 -0.15307014 -0.24395868 0.3001525 0.14541727
-0.31365177 0.02381152 0.15294653 -0.23745374 0.10856399 -0.256894 -0.21809562 -0.18825546
-0.27833438 -0.2159633 0.041003913 0.22304615 -0.23257342 0.17689395 0.15226853 0.02656272
-0.3003214 -0.29952648 -0.09820603 -0.17880961 -0.25700647 -0.23590721 -0.22025236 0.038529456
-0.12301932 -0.108104736 -0.05174303 -0.11085336 0.31054243 0.10741475 -0.078887224 -0.24791059
0.065987945 0.16794786 0.21519676 0.02263537 0.1832062 -0.031244367 -0.25083542 -0.12774721
-0.25941426 0.2498841 -0.07733418 0.24282876 -0.18613209 0.007855892 -0.29735604 0.2591184
-0.13839021 -0.14491335 -0.28430262 0.17088082 0.207163 -0.07180835 -0.26732537 -0.19079845
-0.10008867 0.10403207 -0.15557592 0.25736836 0.13405833 0.1313006 -0.19414046 0.2909619
0.15166888 0.085823655 0.093094796 0.115486234 0.05488336 0.0035628974 0.09240478 -0.0061666965
-0.25968906 0.00010743737 0.19401833 0.051146775 0.21727064 -0.23050165 0.09655169 0.052740723
0.1201646 -0.09889397 0.14048979 0.024567693 -0.16082579 -0.0065335333 0.29950592 0.24700257
-0.11090523 0.29744592 -0.06289521 0.31399032 0.13747591 0.06358063 -0.30790123 0.007127553
-0.14175002 -0.30839545 -0.30519596 0.11814237 -0.18706132 -0.050646275 -0.2190794 0.007946432
-0.13438733 0.31218985 -0.09662172 0.18454126 -0.31436583 -0.1773634 -0.2767622 -0.28668097
0.23313251 -0.10806602 -0.14336146 -0.2913407 0.22750685 -0.09022567 0.031054646 -0.15148169
0.28392687 -0.026435077 -0.04657963 0.2734665 -0.1347747 0.08309767 -0.14812644 -0.12324491
0.14031452 -0.17996787 0.26204917 0.17359984 -0.10266189 -0.03786859 0.14302248 -0.18316142
-0.06197822 -0.116023466 -0.06990121 0.014846593 0.2020702 0.2955732 -0.15087189 -0.29314497
0.045900673 0.31484225 -0.045185715 -0.14168541 -0.21585855 -0.030767053 -0.1520004 -0.002557993
0.07289761 -0.23219588 0.1376622 -0.027953357 0.046896994 0.14864758 -0.11186248 0.30964294
-0.26280588 -0.22003974 -0.040409267 0.24979368 0.28755352 0.017446637 -0.27820688 0.20327654
0.118766725 0.026088178 0.29493323 -0.23247758 0.27904168 0.26725343 0.26805457 -0.30672514
-0.033866286 0.011974692 -0.10173902 -0.16451499 -0.09435952 -0.042426676 -0.16161893 0.031375438
00000000: 8008 8a3d f667 9cbe 1aa8 073e 8001 99bb
00000010: c028 4dbe 5cca 943d 1eab 7f3e 22b1 efbd
00000020: 206b d2bc 803e 31bb 34d3 dbbd 805e e5bb
00000030: fe3b 543e 0677 223e 2afd 213e 3070 85bc
00000040: 287b 37be 06a2 e7bd 25d7 963e 2048 2fbd
00000050: 7361 a13e 9e1a 633e f224 023e 8a1b 343e
00000060: d427 70be 0075 d3bc a887 813d 1864 7bbe
00000070: 41a3 8cbe 56ad 353e fd02 9b3e 7e98 0e3e
00000080: 70a9 3cbe 5c27 8c3d 4387 833e 2ef5 133e
00000090: 0094 5c3c d054 573d b6a1 7e3e 433e 8d3e
000000a0: 7635 593e 0003 033b 60cf 31bc 8266 733e
000000b0: 4009 37bd da6e 033e c041 883c c7fe 95be
000000c0: 9a80 663e feff 3fbe 4017 9d3c 8667 603e
000000d0: ca66 8dbe 6089 16bd e093 7a3c c708 853e
000000e0: 86e5 cbbd 7eb2 493e ff7d 83be 0eaa 23be
000000f0: 407c 743c 10b3 9f3c 1e79 96be c2b5 513e
00000100: 06d3 92be 5eeb 443e 2029 57bc 00fc 513c
00000110: 6bbe 1cbe 4ed0 79be 97ad 993e 44e8 143e
00000120: f796 a0be 6010 c33c 049e 1c3e 1327 73be
00000130: cc56 de3d 9c87 83be 7554 5fbe 0ac6 40be
00000140: d881 8ebe 7c25 5dbe b8f3 273d 3666 643e
00000150: ba27 6ebe b023 353e 48ec 1b3e 109a d93c
00000160: bac3 99be 895b 99be 3e20 c9bd de19 37be
00000170: 5a96 83be a991 71be d689 61be 10d1 1d3d
00000180: 8ef1 fbbd 0466 ddbd 80f0 53bd 1607 e3bd
00000190: 6bff 9e3e 44fc db3d a08f a1bd 46dc 7dbe
000001a0: b024 873d 86fa 2b3e 8a5c 5c3e d06d b93c
000001b0: 689a 3b3e 30f4 ffbc 806d 80be 2ad0 02be
000001c0: f2d1 84be 9ee1 7f3e 6261 9ebd 1aa8 783e
000001d0: 6999 3ebe 00b6 003c 0d3f 98be 2bab 843e
000001e0: 2ab6 0dbe 2a64 14be 1d90 91be 62fb 2e3e
000001f0: 8a22 543e 4210 93bd dfde 88be ab60 43be
00000200: 4afb ccbd c40e d53d 4b4f 1fbe c9c5 833e
00000210: 9646 093e aa73 063e c2cc 46be f5f8 943e
00000220: 164f 1b3e 50c4 af3d 7ca8 be3d 0c84 ec3d
00000230: 60cd 603d 807f 693b b83e bd3d 0012 cabb
00000240: f7f5 84be 0050 e138 beac 463e 487f 513d
00000250: 327c 5e3e a008 6cbe e4bc c53d a806 583d
00000260: dc18 f63d ec88 cabd 8edc 0f3e 3042 c93c
00000270: 84af 24be 4017 d6bb d758 993e 3eee 7c3e
00000280: 4822 e3bd d54a 983e 34cf 80bd 57c3 a03e
00000290: 7cc6 0c3e 9036 823d 3ba5 9dbe 408e e93b
000002a0: eb26 11be 02e6 9dbe a542 9cbe a0f4 f13d
000002b0: 018d 3fbe 7872 4fbd 5a56 60be c031 023c
000002c0: d59c 09be 59d7 9f3e 9ce1 c5bd 62f8 3c3e
000002d0: 8ff4 a0be c09e 35be c6b3 8dbe d9c7 92be
000002e0: 4aba 6e3e b851 ddbd 59cd 12be 9c2a 95be
000002f0: 8ef7 683e 3cc8 b8bd 5066 fe3c 041e 1bbe
00000300: dd5e 913e 608e d8bc 48ca 3ebd cd03 8c3e
00000310: 6102 0abe 1c2f aa3d 75ae 17be d467 fcbd
00000320: 9cae 0f3e 7f49 38be 4f2b 863e 28c4 313e
00000330: 6640 d2bd 181c 1bbd 7c74 123e ab8e 3bbe
00000340: e0dc 7dbd b69d edbd 5e28 8fbd 203f 733c
00000350: 7eeb 4e3e 5f55 973e 297e 1abe 1917 96be
00000360: 5802 3c3d 0133 a13e a814 39bd fb15 11be
00000370: 060a 5dbe 300b fcbc fea5 1bbe 00a4 27bb
00000380: 584b 953d c2c4 6dbe 52f7 0c3e 70fe e4bc
00000390: 1017 403d 1237 183e 2818 e5bd 8589 9e3e
000003a0: 7e8e 86be 1952 61be 3084 25bd eac9 7f3e
000003b0: 373a 933e 40ec 8e3c 2271 8ebe ba27 503e
000003c0: f83b f33d e0b6 d53c 7d01 973e 9a0e 6ebe
000003d0: 8dde 8e3e 71d5 883e 733e 893e 140b 9dbe
000003e0: 60b7 0abd 8031 443c 8c5c d0bd 9e76 28be
000003f0: 903f c1bd 98c7 2dbd 6f7f 25be 8883 003d

fc2.weight f4 [16, 256]
-0.01931566 -0.017462047 -0.049923647 0.023201205 -0.010640231 -0.029184114 -0.030717634 -0.028494861
0.018539619 -0.02172165 -0.009367866 -0.02011687 0.016764473 -0.03474119 -0.040603876 -0.02952291
-0.023543904 -0.07879736 0.00300392 -0.015731726 -0.09002868 0.024502393 -0.03029353 -0.02107978
-0.030808594 -0.026633138 0.016758807 0.025313016 -0.068812944 0.020918738 -0.03772112 -0.02010492
-0.06799396 -0.029011512 -0.0066758515 -0.036368046 -0.026844272 0.018632261 0.026489861 0.02405056
0.018809717 -0.06126548 -0.018128552 -0.022615766 -0.034439705 -0.042439707 -0.059785493 -0.015230708
0.009551306 0.007418278 -0.04140621 -0.005429415 0.017226687 -0.030614853 -0.039541993 -0.019305639
-0.013603698 0.0021880618 -0.0046402165 -0.069494255 0.005029838 -0.07132833 -0.06844339 -0.08861742
-0.011405507 -0.060245704 0.019934941 -0.010109087 -0.007799568 -0.095062435 0.010447674 0.028795445
0.0198542 -0.047433466 -0.011810715 -0.018107023 -0.020329082 -0.011145579 -0.023245608 -0.0077803913
-0.028332468 -0.041277766 -0.09148851 -0.00020408595 -0.08754021 -0.0120218545 -0.07646886 -0.03414257
-0.08199336 0.018878812 -0.06190767 0.018660236 -0.065199554 -0.021658054 0.0043630926 -0.026299324
-0.009588111 -0.051031638 -0.021685569 0.01124215 -0.048922163 -0.009853883 -0.075740494 -0.014478511
-0.0077134767 -0.022914056 -0.07971165 -0.0012219825 0.0006515818 0.000572905 -0.030206015 -0.10849813
0.015893355 0.0039253146 0.006338244 -0.09409061 -0.012671076 0.00019395904 0.02240713 0.020052623
-0.014014767 0.020382058 -0.008300865 -0.03180516 -0.03508441 0.022973511 -0.00455922 0.018562276
-0.06819562 -0.006123717 0.015516563 -0.009502838 -0.047774952 0.035211988 -0.0020055175 -0.018417187
-0.012248122 0.012329877 -0.02083069 0.028198928 -0.05647411 -0.04980682 -0.00087299675 0.006913806
-0.019533493 -0.075600006 -0.05973709 -0.031889647 0.0025373413 0.0023383922 -0.008406545 0.013197712
0.015098456 -0.090038724 0.024577837 -0.06534992 0.012117519 -0.047995027 -0.008554734 -0.018100077
-0.017607264 -0.0274366 -0.014633113 -0.03685066 0.004983882 -0.058956392 -0.014067476 0.0026825839
0.034476556 -0.010537027 0.009184769 -0.027405996 -0.036801312 0.0202026 -0.09082832 -0.044709135
-0.02755666 0.019946242 -0.0010391568 -0.07387781 -0.007561268 0.013430883 0.026270011 -0.060918916
-0.010981974 -0.013054109 0.020516297 -0.056083657 -0.059133057 -0.046767328 -0.017590437 0.01660547
-0.015726421 -0.06061431 -0.038932547 0.030154483 -0.07286126 -0.01888381 -8.5020896e-05 -0.026745366
-0.00753766 0.012491217 0.027214913 -0.089814395 -0.035094433 -0.044407867 0.007325889 -0.0019593048
0.0024335228 -0.0076952204 -0.04442308 0.031625986 -0.048913162 0.018926553 -0.004365947 0.02894028
-0.021064483 -0.0053230645 -0.02589543 0.0015721393 0.0012380757 -0.03248618 -0.04002418 -0.0028860422
-0.033981875 -0.015069251 -0.05653718 -0.077910036 0.025133003 -0.0033685484 0.018112186 0.011003093
0.017474642 -0.055292733 -0.05055041 -0.087476335 0.010377955 -0.01773961 -0.0017779768 0.022757938
-0.016798668 -0.029081924 -0.047942653 0.0010163327 -0.018668711 -0.005653386 -0.03235317 0.0053158323
0.010030434 -0.040957388 -0.0014910236 -0.027980844 0.009382909 -0.0024079042 -0.042563282 -0.029434696
00000000: e03b 9ebc 910c 8fbc bd7c 4cbd 7410 be3c
00000010: 5d54 2ebc 8613 efbc 8ca3 fbbc 0e6e e9bc
00000020: 66e0 973c 9af1 b1bc ae7b 19bc 22cc a4bc
00000030: a655 893c c74c 0ebd 4050 26bd 08da f1bc
00000040: 25df c0bc 8360 a1bd 6add 443b d2df 80bc
00000050: f560 b8bd 3eb9 c83c 232a f8bc 81af acbc
00000060: 4e62 fcbc bd2d dabc c449 893c 3e5d cf3c
00000070: cded 8cbd c65d ab3c 7681 1abd 13b3 a4bc
00000080: 6b40 8bbd 8da9 edbc 1ac1 dabb a9f6 14bd
00000090: 85e8 dbbc afa2 983c 4401 d93c ae05 c53c
000000a0: d616 9a3c 83f1 7abd 5482 94bc b344 b9bc
000000b0: a610 0dbd 42d5 2dbd a2e1 74bd 388a 79bc
000000c0: 157d 1c3c 0715 f33b 8f99 29bd 3ce9 b1bb
000000d0: fb1e 8d3c 00cc fabc c9f6 21bd dc26 9ebc
000000e0: 0ce2 5ebc 9665 0f3b f50c 98bb 0153 8ebd
000000f0: 57d1 a43b 9614 92bd 0c2c 8cbd 0d7d b5bd
00000100: 2ade 3abc 33c4 76bd 9a4e a33c 96a0 25bc
00000110: 8593 ffbb 18b0 c2bd b92c 2b3c 6de4 eb3c
00000120: 46a5 a23c 9849 42bd bb81 41bc 2e55 94bc
00000130: 2d89 a6bc f29b 36bc 936d bebc a7f2 febb
00000140: 7e19 e8bc e012 29bd 545e bbbd e8ff 55b9
00000150: 4848 b3bd 50f7 44bc b59b 9cbd 14d9 0bbd
00000160: 22ec a7bd bda7 9a3c e692 7dbd 5add 983c
00000170: 5887 85bd 3b6c b1bc 46f8 8e3b ae71 d7bc
00000180: 7417 1dbc 8d06 51bd efa5 b1bc ff30 383c
00000190: 9b62 48bd 2e72 21bc d51d 9bbd 4737 6dbc
000001a0: 55c1 fcbb 42b6 bbbc dd3f a3bd ee2a a0ba
000001b0: eace 2a3a 012f 163a 9b72 f7bc 4534 debd
000001c0: c832 823c ed9f 803b 0bb1 cf3b 94b2 c0bd
000001d0: 589a 4fbc 7c61 4b39 288f b73c 6645 a43c
000001e0: 319e 65bc 46f8 a63c 5a00 08bc 2146 02bd
000001f0: acb4 0fbd f232 bc3c 8265 95bb ea0f 983c
00000200: 25aa 8bbd 76a9 c8bb 2f39 7e3c cbb1 1bbc
00000210: abaf 43bd 723a 103d 006f 03bb a4df 96bc
00000220: 59ac 48bc 4103 4a3c 20a5 aabc 7001 e73c
00000230: 6551 67bd 3c02 4cbd d2d9 64ba 358d e23b
00000240: b404 a0bc 2dd4 9abd e1ae 74bd b89e 02bd
00000250: 8649 263b b63f 193b 9bbb 09bc 373b 583c
00000260: 845f 773c 3966 b8bd 7657 c93c 2ed6 85bd
00000270: 8f88 463c 6f96 44bd 2829 0cbc 9d46 94bc
00000280: 1c3d 90bc b8c2 e0bc b9bf 6fbc b8f0 16bd
00000290: d54f a33b 427c 71bd 457b 66bc 4ace 2f3b
000002a0: 4a37 0d3d 7fa3 2cbc b77b 163c 8a82 e0bc
000002b0: f9bc 16bd ec7f a53c 3304 babd ed20 37bd
000002c0: 81be e1bc 4d66 a33c 5134 88ba 404d 97bd
000002d0: 83c4 f7bb 350d 5c3c 3534 d73c 1d86 79bd
000002e0: bded 33bc e7e0 55bc cb11 a83c fab7 65bd
000002f0: 8135 72bd 198f 3fbd d219 90bc 3208 883c
00000300: b2d4 80bc b646 78bd bc77 1fbd 8906 f73c
00000310: 4938 95bd 38b2 9abc 3f4d b2b8 1919 dbbc
00000320: 7afe f6bb f6a7 4c3c cff1 de3c 9cf0 b7bd
00000330: 2ebf 0fbd 06e5 35bd 030e f03b ae67 00bb
00000340: bd7b 1f3b 3028 fcbb faf4 35bd 408a 013d
00000350: 2b59 48bd dc0b 9b3c 3810 8fbb 2b14 ed3c
00000360: 6c8f acbc 1a6d aebb a722 d4bc 3e10 ce3a
00000370: ed46 a23a 3b10 05bd 65f0 23bd c123 3dbb
00000380: 9430 0bbd 05e5 76bc 8893 67bd 4c8f 9fbd
00000390: bae3 cd3c ddc2 5cbb 0260 943c 5146 343c
000003a0: fb26 8f3c a27a 62bd f20d 4fbd cb26 b3bd
000003b0: 4c08 2a3c a952 91bc 000b e9ba db6e ba3c
000003c0: 5c9d 89bc 373d eebc 845f 44bd 7736 853a
000003d0: 20ef 98bc 0a40 b9bb c284 04bd 6f30 ae3b
000003e0: b056 243c efc2 27bd 736e c3ba 1538 e5bc
000003f0: c6ba 193c eecd 1dbb d656 2ebd 0821 f1bc

fc2.bias f4 [16]
-0.011079647 -0.015401685 -0.02867119 -0.04912512 -0.013468113 -0.023578607 -0.051903695 -0.030868948
-0.060795315 -0.033503495 0.05928243 0.023080736 0.0051287115 0.009110086 0.049026452 0.055234037
00000000: 6887 35bc 5957 7cbc d8df eabc 6c37 49bd
00000010: 5ca9 5cbc ec27 c1bc f898 54bd e0e0 fcbc
00000020: 8204 79bd f63a 09bd 22d2 723d d013 bd3c
00000030: c00e a83b 7842 153c f6cf 483d 163d 623d

fc3.weight f4 [1, 16]
0.26459792 0.2219139 0.16238977 0.024652457 0.21771358 0.021777002 0.20971593 0.30049893
0.036378432 -0.20681702 0.024746116 -0.31423926 0.02597681 0.35198447 0.024403766 -0.36523795
00000000: 6179 873e 663d 633e 8149 263e f3f3 c93c
00000010: 4ff0 5e3e af65 b23c c6bf 563e ffda 993e
00000020: 8d01 153d d7c7 53be 5eb8 ca3c f8e3 a0be
00000030: 52cd d43c 4f37 b43e 68ea c73c 7800 bbbe

batchnorm1.weight f4 [256]
0.992388 0.99362016 1.0113595 0.99512464 1.0056934 0.9942153 1.0079458 0.9941644
1.0038232 0.99355096 0.9922418 0.99411184 0.99317247 0.9944887 1.0018157 0.99953663
0.99336535 1.0048664 0.9923917 0.99608743 1.0140039 1.0066271 1.000055 0.9949344
0.99378276 1.0019083 0.9933873 0.99582136 1.0127563 0.9971679 0.9922621 1.0024054
1.0006247 0.9943941 0.99335647 0.99809927 1.0078412 0.9974328 0.9928565 0.9937
0.9927494 1.0003067 0.99344087 0.9918786 1.0005885 1.0042819 0.9975653 0.99271524
0.99477637 0.9975784 1.0031784 1.0099853 1.0002719 0.9936243 0.9998407 0.99312407
0.99359584 0.9952282 0.9957214 1.0032648 0.99306834 1.0002402 1.0043073 1.0020406
0.99763376 1.0028721 0.9981237 1.0039303 0.9943569 1.0104972 0.99111205 0.9912715
0.9932852 0.9941792 0.9959284 0.9935812 0.9950635 1.0048615 1.001376 1.0059732
1.0036675 0.9999895 1.0020225 0.9895838 1.0011582 0.99199706 0.99788725 0.9939423
1.0036961 0.9940778 1.0075995 0.9911286 1.0059177 1.0009359 0.9932481 0.99261075
0.99484235 0.9984999 1.001293 0.99365854 1.0006009 0.99313027 1.0008578 0.9950706
0.9930322 0.9928174 1.0097479 1.0036169 0.99281883 0.993283 0.9926236 1.0064819
0.9903733 0.9993056 0.99792147 1.0075326 0.99815154 0.99425364 0.99366486 0.9935164
0.99828374 0.99164486 0.993434 1.0024445 1.0014399 1.0113448 0.9987361 0.9936203
1.0108491 0.9940199 1.0002033 1.0003461 0.99589777 0.9929 0.9940182 1.00039
1.0055126 1.0017687 1.0086375 0.9936713 1.0056235 1.0035491 0.9926541 0.99264574
0.9948225 1.0085129 1.0094616 1.0069388 0.9906973 1.0027498 0.9955942 0.9915046
1.0139401 0.9994472 0.992916 1.0029029 0.99832755 1.0087814 0.99423325 0.9935032
0.9925024 0.99465 0.9921196 1.0076106 1.0040767 1.0083345 0.9939694 0.9946591
0.9908751 0.99943846 0.9959602 0.9949136 1.0004683 0.9968579 1.0116663 0.9996207
1.0020789 0.9936446 1.0044787 1.0018363 0.99385864 0.993428 0.991973 1.0018208
1.0006955 0.99334174 0.9947211 1.0007833 1.000974 1.0062991 0.9918465 0.9969353
0.9948754 0.99762446 1.0063667 0.99380475 1.0061346 1.0032666 0.997964 0.99285203
0.9924946 0.99902886 0.99256057 1.0144303 0.99878347 1.0028808 0.99569595 0.99743414
1.0082839 1.0071094 0.9999985 0.99620986 1.0063674 0.9916069 0.99400073 0.9928378
1.0007207 0.99796265 0.9931702 0.9945241 0.99502015 0.99170893 0.9999431 0.9914855
0.9976183 0.99467295 1.0107145 1.0022169 0.993042 1.0076759 0.99280363 0.9936411
0.99274945 1.0057623 1.006033 0.9997755 0.9998664 1.0183443 0.99515 0.991874
0.99435633 1.0004393 1.0041714 0.9928297 0.99218506 0.9919219 1.0000046 0.99412763
0.99298644 1.0044007 0.9917173 1.003035 0.99346787 0.9939617 0.9912034 0.991719
00000000: 240d 7e3f e45d 7e3f 3a74 813f 7dc0 7e3f
00000010: 90ba 803f e584 7e3f 5e04 813f 8f81 7e3f
00000020: 477d 803f 5b59 7e3f 8f03 7e3f 1d7e 7e3f
00000030: 8d40 7e3f d096 7e3f 7f3b 803f a2e1 7f3f
00000040: 314d 7e3f 769f 803f 620d 7e3f 96ff 7e3f
00000050: e1ca 813f 28d9 803f cd01 803f 05b4 7e3f
00000060: 8c68 7e3f 883e 803f a14e 7e3f 26ee 7e3f
00000070: 00a2 813f 6546 7f3f e404 7e3f d24e 803f
00000080: 7814 803f 9d90 7e3f 9c4c 7e3f 6f83 7f3f
00000090: f100 813f c257 7f3f d82b 7e3f 2063 7e3f
000000a0: d324 7e3f 0d0a 803f 2452 7e3f c2eb 7d3f
000000b0: 4913 803f 4f8c 803f 7160 7f3f 9622 7e3f
000000c0: aaa9 7e3f 4c61 7f3f 2668 803f 3347 813f
000000d0: e908 803f 2a5e 7e3f 8ff5 7f3f 613d 7e3f
000000e0: 4c5c 7e3f 46c7 7e3f 99e7 7e3f fb6a 803f
000000f0: ba39 7e3f df07 803f 248d 803f de42 803f
00000100: ed64 7f3f 1d5e 803f 0985 7f3f ca80 803f
00000110: 2c8e 7e3f f957 813f 85b9 7d3f f8c3 7d3f
00000120: f047 7e3f 8782 7e3f 2af5 7e3f 565b 7e3f
00000130: 7bbc 7e3f 4d9f 803f 172d 803f bbc3 803f
00000140: 2d78 803f 50ff 7f3f 4642 803f 5d55 7d3f
00000150: f425 803f 85f3 7d3f 8a75 7f3f 0173 7e3f
00000160: 1d79 803f e27b 7e3f 05f9 803f 9bba 7d3f
00000170: e9c1 803f ab1e 803f 8245 7e3f bd1b 7e3f
00000180: fdad 7e3f b09d 7f3f 5e2a 803f 6860 7e3f
00000190: b113 803f c93d 7e3f 1c1c 803f f2bc 7e3f
000001a0: 5c37 7e3f 4829 7e3f 6b3f 813f 8576 803f
000001b0: 6029 7e3f cb47 7e3f 951c 7e3f 66d4 803f
000001c0: 1b89 7d3f 7ed2 7f3f c877 7f3f d4f6 803f
000001d0: dc86 7f3f 6887 7e3f d260 7e3f 1757 7e3f
000001e0: 868f 7f3f 70dc 7d3f b151 7e3f 1a50 803f
000001f0: 2f2f 803f bf73 813f 2bad 7f3f e65d 7e3f
00000200: 8163 813f 1778 7e3f a906 803f 570b 803f
00000210: 28f3 7e3f b22e 7e3f fa77 7e3f c80c 803f
00000220: a3b4 803f f539 803f 091b 813f 3e61 7e3f
00000230: 45b8 803f 4c74 803f 941e 7e3f 081e 7e3f
00000240: b0ac 7e3f f316 813f 0a36 813f 5fe3 803f
00000250: 579e 7d3f 1b5a 803f 43df 7e3f 3fd3 7d3f
00000260: cac8 813f c6db 7f3f be2f 7e3f 1f5f 803f
00000270: 6592 7f3f c01f 813f 1286 7e3f 3a56 7e3f
00000280: a314 7e3f 62a1 7e3f 8dfb 7d3f 62f9 803f
00000290: 9685 803f 1b11 813f c774 7e3f fba1 7e3f
000002a0: fea9 7d3f 33db 7f3f 3ff7 7e3f a8b2 7e3f
000002b0: 580f 803f 1432 7f3f 487e 813f 24e7 7f3f
000002c0: 1f44 803f 7e5f 7e3f c292 803f 2c3c 803f
000002d0: 856d 7e3f 4c51 7e3f f1f1 7d3f aa3b 803f
000002e0: ca16 803f a54b 7e3f 0ba6 7e3f ab19 803f
000002f0: eb1f 803f 69ce 803f a7e9 7d3f 2737 7f3f
00000300: 27b0 7e3f 5164 7f3f a0d0 803f fd69 7e3f
00000310: 05c9 803f 0a6b 803f 927a 7f3f 8d2b 7e3f
00000320: 2014 7e3f 5bc0 7f3f 7318 7e3f dad8 813f
00000330: 46b0 7f3f 665e 803f eee5 7e3f d857 7f3f
00000340: 720f 813f f6e8 803f e7ff 7f3f 9c07 7f3f
00000350: a6d0 803f f3d9 7d3f d576 7e3f 9e2a 7e3f
00000360: 9e17 803f 7b7a 7f3f 6740 7e3f 2299 7e3f
00000370: a4b9 7e3f a3e0 7d3f 45fc 7f3f fed1 7d3f
00000380: ea63 7f3f e3a2 7e3f 185f 813f a548 803f
00000390: 0038 7e3f 86fb 803f 6128 7e3f 435f 7e3f
000003a0: d424 7e3f d2bc 803f b0c5 803f 4af1 7f3f
000003b0: 3ff7 7f3f 1b59 823f 27c2 7e3f 74eb 7d3f
000003c0: 238e 7e3f 650e 803f b088 803f 162a 7e3f
000003d0: d7ff 7d3f 98ee 7d3f 2700 803f 267f 7e3f
000003e0: 5c34 7e3f 3490 803f 2fe1 7d3f 7363 803f
000003f0: e953 7e3f 4674 7e3f 82bf 7d3f 4ce1 7d3f

batchnorm1.bias f4 [256]
-0.0031214089 -0.0034325551 -0.09879246 0.0035669026 -0.086154446 -0.0011905344 -0.10443828 -0.0033474488
-0.1051399 0.00171813 0.009320255 0.0029711402 -0.001728936 0.0032057099 -0.07789615 -0.068016075
-0.0025832627 -0.09483403 -0.003555396 -0.005862651 -0.091756985 -0.10394131 -0.059469365 0.0018273375
-0.0018306372 -0.06743324 0.0018803054 -0.0030775957 -0.10569935 -0.04089614 0.0009694807 -0.08104811
-0.06632079 -0.004718149 0.008243478 -0.026012156 -0.096938044 -0.061571177 -0.0047116475 0.003044937
0.0022820532 -0.05961978 2.4484885e-05 -0.0004379458 -0.066604495 -0.093409546 -0.03456372 -0.003957035
0.026958684 0.0328338 -0.09500331 -0.104322635 -0.06369646 0.008465563 -0.049757633 -0.0045101247
0.0015288119 -0.006898668 0.0006325702 -0.0696519 -0.0030006974 -0.05204124 -0.10375091 -0.09037383
-0.055554643 -0.09291765 -0.047957007 -0.09403831 -0.006518645 -0.106005825 0.010826873 -0.001466554
0.00022369137 0.002378614 -0.05435442 -0.010863845 0.019717688 -0.07170432 -0.057308547 -0.09612338
-0.10500643 -0.046743445 -0.061582744 0.0045114234 -0.10319706 0.0031190293 -0.09367836 0.0018741876
-0.0770811 -0.034885578 -0.09713744 0.011462622 -0.09217194 -0.060129326 0.007154053 -0.0038736584
0.0020597456 -0.04832888 -0.057255544 -0.0018938148 -0.06949353 -0.00065550796 -0.06838118 -0.008589762
-0.010947039 0.001191962 -0.08600539 -0.09059185 0.0067221406 0.0014728386 -0.0015062832 -0.072405465
0.011423862 -0.07020787 0.050985146 -0.10281229 -0.04321262 0.0013136145 0.004980766 0.0008302596
-0.083346315 -0.0021919436 0.002574037 -0.06931658 -0.08136675 -0.10619592 -0.04248033 0.0016975313
-0.09339621 0.004731715 -0.06951096 -0.07975049 -0.05174976 -0.0033390583 -0.0032436273 -0.042287998
-0.065506205 -0.079899795 -0.09928741 -0.0012659332 -0.1051245 -0.0813091 0.0024061368 -0.009916472
0.00013170784 -0.10484664 -0.1044354 -0.10186384 0.0065365955 -0.07907273 -0.0028014502 -0.006424487
-0.10642195 -0.07273122 0.00063782523 -0.081769265 -0.039125547 -0.065699294 0.0025857398 0.0062888474
0.0018823921 0.0031749513 0.0037169803 -0.08349224 -0.076972924 -0.096773446 -0.004387954 -0.010311385
-0.005015046 -0.04765285 0.0023870508 0.00237045 -0.06509674 -0.038598925 -0.106430046 -0.03136139
-0.080938324 0.0045873495 -0.07275975 -0.06723813 -0.000812082 0.0013455908 -0.0073480075 -0.08053239
-0.07053478 -0.0060379184 0.0078733545 -0.048619933 -0.06917315 -0.092085265 0.0059253993 -0.029964162
-0.0071374993 -0.040589225 -0.10258296 0.00032357092 -0.10486518 -0.06254008 -0.013895343 -0.006260584
0.013683113 -0.06461713 0.0016672618 -0.10518746 -0.065941684 -0.066080675 0.002722525 -0.069021665
-0.10050602 -0.09661319 -0.060397856 -0.0064938767 -0.09702254 -0.00492014 -0.0022201943 0.005745583
-0.064827286 -0.015860654 -0.003983025 0.0028941275 -0.0047602253 0.012130384 -0.059136186 0.009726193
-0.060483478 0.0047746734 -0.104616664 -0.087040514 0.0038483664 -0.09897383 0.003290673 0.00034036016
0.0058511775 -0.09519071 -0.10149764 -0.071009964 -0.06877269 -0.11245704 0.009697097 0.0010963734
-0.008398929 -0.044730816 -0.0787126 0.012974371 -0.0041604666 0.009491649 -0.05725779 0.0048998296
0.0058408626 -0.0862847 -0.00015384147 -0.06635343 0.014083432 -0.005592384 -0.04573944 -0.0025287226
00000000: 8d90 4cbb b8f4 60bb b453 cabd b2c2 693b
00000010: be71 b0bd b50b 9cba bde3 d5bd df60 5bbb
00000020: 9753 d7bd e032 e13a fcb3 183c 76b7 423b
00000030: 779d e2ba e316 523b 0488 9fbd 034c 8bbd
00000040: f54b 29bb 5838 c2bd a601 69bb 7b1b c0bb
00000050: 16eb bbbd 2edf d4bd 2696 73bd 4683 ef3a
00000060: fef1 efba 701a 8abd 9474 f63a 7db1 49bb
00000070: e778 d8bd b682 27bd c024 7e3a 8dfc a5bd
00000080: 32d3 87bd b49a 9abb a70f 073c 7217 d5bc
00000090: 7487 c6bd 0f32 7cbd 2a64 9abb 918d 473b
000000a0: 808e 153b df33 74bd e464 cd37 179c e5b9
000000b0: f067 88bd 814d bfbd b092 0dbd 04aa 81bb
000000c0: 75d8 dc3c bc7c 063d 1891 c2bd 1ba7 d5bd
000000d0: 4a73 82bd 25b3 0a3c a9ce 4bbd abc9 93bb
000000e0: 6a62 c83a 390e e2bb 11d3 253a a8a5 8ebd
000000f0: 59a7 44bb 3229 55bd 5b7b d4bd ea15 b9bd
00000100: 448d 63bd 9c4b bebd 916e 44bd 2897 c0bd
00000110: 5c9a d5bb 9519 d9bd 3263 313c 6339 c0ba
00000120: b28e 6a39 85e2 1b3b bea2 5ebd 45fe 31bc
00000130: fd86 a13c b7d9 92bd 5ebc 6abd 56dc c4bd
00000140: 9c0d d7bd 0e76 3fbd 303e 7cbd 90d4 933b
00000150: fb58 d3bd a168 4c3b 71da bfbd 4da7 f53a
00000160: b2dc 9dbd 2ee4 0ebd ffef c6bd b9cd 3b3c
00000170: a4c4 bcbd 2b4a 76bd 8c6c ea3b 34dd 7dbb
00000180: ccfc 063b 81f4 45bd ca84 6abd e139 f8ba
00000190: a052 8ebd 65d6 2bba 6f0b 8cbd 13bc 0cbc
000001a0: 365b 33bc 9c3b 9c3a 9823 b0bd 3888 b9bd
000001b0: 6745 dc3b 430c c13a 7a6e c5ba 5149 94bd
000001c0: 262b 3b3c 25c9 8fbd cdd5 503d 408f d2bd
000001d0: b7ff 30bd 972d ac3a b235 a33b c7a5 593a
000001e0: 79b1 aabd b6a6 0fbb 2db1 283b daf5 8dbd
000001f0: 9ca3 a6bd 3f7d d9bd dbff 2dbd b37f de3a
00000200: 8346 bfbd 810c 9b3b c35b 8ebd 3a54 a3bd
00000210: 8ef7 53bd 1ad4 5abb 0993 54bb 2e36 2dbd
00000220: 1e28 86bd 81a2 a3bd 3357 cbbd abed a5ba
00000230: 844b d7bd 6385 a6bd 47b0 1d3b b378 22bc
00000240: 0e1b 0a39 d6b9 d6bd 3ae2 d5bd fd9d d0bd
00000250: f030 d63b e2f0 a1bd 8998 37bb 8184 d2bb
00000260: c0f3 d9bd 1bf4 94bd ba33 273a a576 a7bd
00000270: 1c42 20bd 5a8d 86bd 8475 293b ad12 ce3b
00000280: 99ba f63a d812 503b 9598 733b fbfd aabd
00000290: fba3 9dbd 2831 c6bd d3c8 8fbb 15f1 28bc
000002a0: 4155 a4bb a32f 43bd 1170 1c3b 8d59 1b3b
000002b0: 7151 85bd e819 1ebd fff7 d9bd cd74 00bd
000002c0: fec2 a5bd 7a51 963b 1003 95bd 25b4 89bd
000002d0: e7e1 54ba 895e b03a 8ec7 f0bb 2aee a4bd
000002e0: 8a74 90bd bbd9 c5bb 3eff 003c b225 47bd
000002f0: a7aa 8dbd 3397 bcbd da29 c23b 6777 f5bc
00000300: afe1 e9bb e340 26bd 0417 d2bd f4a4 a939
00000310: 8ec3 d6bd 0315 80bd 4ba9 63bc 9625 cdbb
00000320: 232f 603c fc55 84bd 0688 da3a 866c d7bd
00000330: 6f0c 87bd 4e55 87bd 646c 323b 3b5b 8dbd
00000340: 1ad6 cdbd 23dd c5bd be63 77bd 96ca d4bb
00000350: c1b3 c6bd 2039 a1bb ae80 11bb 7245 bc3b
00000360: 2bc4 84bd 34ee 81bc 0984 82bb 67ab 3d3b
00000370: aafb 9bbb 85be 463c c938 72bd 9c5a 1f3c
00000380: 86bd 77bd dd74 9c3b 4341 d6bd 4c42 b2bd
00000390: e034 7c3b cbb2 cabd 55a8 573b 5e72 b239
000003a0: 3cbb bf3b 59f3 c2bd ffdd cfbd ac6d 91bd
000003b0: b2d8 8cbd e04f e6bd 93e0 1e3c 30b4 8f3a
000003c0: a99b 09bc a937 37bd 1234 a1bd 7592 543c
000003d0: 8654 88bb dd82 1b3c 2587 6abd c08e a03b
000003e0: b564 bf3b 08b6 b0bd 8150 21b9 4fe4 87bd
000003f0: 32be 663c 5140 b7bb 4759 3bbd edb8 25bb

batchnorm1.running_mean f4 [256]
18010.389 60848.684 -60820.926 16659.287 -79407.72 75792.96 -28081.059 4992.6426
-64520.348 55911.85 27211.71 56809.867 65553.37 65063.188 -23221.766 -25774.14
46908.984 -66119.484 50544.2 21544.148 -9467.428 -71382.85 -59890.426 2380.869
30558.217 -794.69666 63395.41 55628.805 -73282.125 -19833.14 11033.48 -33726.117
-21496.316 26493.139 71410.72 -14493.318 -59646.84 -35673.47 75415.875 43659.516
39957.55 -37655.04 80527.23 71322.73 -66617.19 -46441.387 -45002.06 48410.098
2937.021 1075.495 -19968.014 -33822.785 -47088.797 2267.2112 -28216.51 46973.25
50792.758 77050.016 52884.13 -73701.07 2392.432 -22239.945 -64617.28 -61657.297
-65104.984 -43769.254 -39573.656 -68295.83 7089.1943 -58460.5 28695.406 53896.66
13957.317 -572.84094 -7396.1562 8471.053 1823.1885 -80193.1 -74356.7 -70923.13
-77310.51 -16780.041 -65279.043 38153.89 -22556.428 80106.55 -49203.613 25093.078
-22727.557 -44843.26 -73399.18 80885.414 -21082.607 -45614.906 60584.37 79303.27
67201.52 -39525.17 -32461.47 27200.896 -61303.81 75721.83 -68735.79 33739.21
36371.605 16046.465 -22089.004 -20577.73 71394.15 70673.19 19410.3 -5176.3496
17423.271 -33826.652 418.08368 -72971.71 -61750.812 47100.016 45478.82 15076.8545
-24834.076 12133.595 57995.586 -42036.668 -64849.1 -33305.17 -60821.61 23516.252
-3340.869 4375.648 -44228.035 -27551.74 -13187.445 44427.63 37127.66 -79563.17
-7536.161 -75455.016 -4996.8975 25974.67 -4302.285 -64692.082 35680.082 58380.355
27015.73 -3938.8455 -52428.64 -76258.57 23732.668 -55250.242 38440.34 80103.92
-75912.914 -47827.85 66168.234 -6082.425 -22820.53 -3850.285 9204.399 52367.043
13906.59 26432.502 12745.546 -63271.176 -74022.21 -59257.562 57059.58 72883.59
70291.16 -15891.963 58554.418 76983.55 -74326.74 -18259.596 -24371.652 -46783.754
-8909.309 49815.98 -70333.2 -28828.588 23286.521 60485.55 12746.71 -37458.35
-47083.734 25175.672 40547.31 -66246.29 -18187.732 -67592.2 54891.086 -71472.8
76645.07 -26481.12 -47990.887 25521.13 -65877.22 -29904.592 -5344.5576 7546.2925
10248.93 -21724.994 64950.664 -14444.439 2596.8118 -41093.414 31669.91 -55794.887
-34097.05 -64854.027 -21788.867 53452.742 -67902.32 11734.083 11117.975 4673.795
-25774.404 -2766.7373 55151.043 47790.883 9467.098 44784.23 -31380.54 10822.079
-29837.07 2500.0923 -54528.277 -65773.77 72236.37 -42399.414 55796.37 31427.934
76448.31 -18372.566 -59008.32 -68297.34 -80454.26 -9344.048 4599.641 51247.934
65552.92 -34291.594 -68722.2 72930.92 49288.63 54041.418 -31594.803 2124.957
65811.03 -62948.68 48061.715 -25635.768 12908.883 15322.575 3728.7927 27820.896
00000000: c7b4 8c46 afb0 6d47 ed94 6dc7 9326 8246
00000010: dc17 9bc7 7b08 9447 1e62 dbc6 2405 9c45
00000020: 5908 7cc7 da67 5a47 6c97 d446 dee9 5d47
00000030: af08 8047 3027 7e47 886b b5c6 485c c9c6
00000040: fc3c 3747 be23 81c7 3370 4547 4c50 a846
00000050: b6ed 13c6 6d6b 8bc7 6df2 69c7 e7cd 1445
00000060: 6fbc ee46 96ac 46c4 69a3 7747 ce4c 5947
00000070: 1021 8fc7 48f2 9ac6 ec65 2c46 1ebe 03c7
00000080: a2f0 a7c6 47fa ce46 5c79 8b47 4675 62c6
00000090: d7fe 68c7 7859 0bc7 f04b 9347 848b 2a47
000000a0: 8d15 1c47 0a17 13c7 9d47 9d47 5d4d 8b47
000000b0: 981c 82c7 6369 35c7 0fca 2fc7 191a 3d47
000000c0: 5690 3745 d76f 8644 0700 9cc6 c91e 04c7
000000d0: ccf0 37c7 61b3 0d45 0571 dcc6 407d 3747
000000e0: c268 4647 027d 9647 2194 4e47 89f2 8fc7
000000f0: e986 1545 e4bf adc6 4869 7cc7 4cd9 70c7
00000100: fc50 7ec7 41f9 2ac7 a895 1ac7 ea63 85c7
00000110: 8e89 dd45 805c 64c7 d02e e046 a988 5247
00000120: 4515 5a46 d235 0fc4 4021 e7c5 365c 0446
00000130: 08e6 e344 8da0 9cc7 5a3a 91c7 9185 8ac7
00000140: 41ff 96c7 1518 83c6 0bff 7ec7 e409 1547
00000150: db38 b0c6 4675 9c47 9d33 40c7 280a c446
00000160: 1d8f b1c6 432b 2fc7 975b 8fc7 b5fa 9d47
00000170: 37b5 a4c6 e82e 32c7 5fa8 6c47 a3e3 9a47
00000180: c340 8347 2c65 1ac7 f19a fdc6 cb81 d446
00000190: cf77 6fc7 eae4 9347 e53f 86c7 36cb 0347
000001a0: 9b13 0e47 dcb9 7a46 0292 acc6 76c3 a0c6
000001b0: 1371 8b47 9808 8a47 9aa4 9746 ccc2 a1c5
000001c0: 8b1e 8846 a722 04c7 b60a d143 db85 8ec7
000001d0: d036 71c7 04fc 3747 d2a6 3147 6b93 6b46
000001e0: 2704 c2c6 6196 3d46 968b 6247 ab34 24c7
000001f0: 1a51 7dc7 2c19 02c7 9c95 6dc7 81b8 b746
00000200: e7cd 50c5 2fbd 8845 09c4 2cc7 7b3f d7c6
00000210: c80d 4ec6 a18b 2d47 a907 1147 9665 9bc7
00000220: 4a81 ebc5 825f 93c7 2e27 9cc5 57ed ca46
00000230: 4872 86c5 15b4 7cc7 1560 0b47 5b0c 6447
00000240: 760f d346 872d 76c5 a4cc 4cc7 49f1 94c7
00000250: 5669 b946 3ed2 57c7 5728 1647 f673 9c47
00000260: 7544 94c7 dad3 3ac7 1e3c 8147 6613 bec5
00000270: 0f49 b2c6 8fa4 70c5 99d1 0f46 0b8f 4c47
00000280: 5c4a 5946 0181 ce46 2f26 4746 2d27 77c7
00000290: 1b93 90c7 9079 67c7 94e3 5e47 cc59 8e47
000002a0: 9449 8947 da4f 78c6 6bba 6447 c65b 9647
000002b0: 5f2b 91c7 31a7 8ec6 4e67 bec6 c1bf 36c7
000002c0: 3c35 0bc6 fb97 4247 9a5e 89c7 2d39 e1c6
000002d0: 0bed b546 8d45 6c47 d72a 4746 5a52 12c7
000002e0: bceb 37c7 58af c446 4f63 1e47 2563 81c7
000002f0: 7717 8ec6 1a04 84c7 166b 5647 6698 8bc7
00000300: 89b2 9547 3de2 cec6 e376 3bc7 4362 c746
00000310: 9caa 80c7 2fa1 e9c6 7604 a7c5 57d2 eb45
00000320: b823 2046 fdb9 a9c6 aab6 7d47 c2b1 61c6
00000330: fd4c 2245 6a85 20c7 d26b f746 e3f2 59c7
00000340: 0d31 05c7 0756 7dc7 bc39 aac6 becc 5047
00000350: 299f 84c7 5558 3746 e6b7 2d46 5c0e 9245
00000360: cf5c c9c6 cceb 2cc5 0b6f 5747 e2ae 3a47
00000370: 64ec 1346 3bf0 2e47 1429 f5c6 5118 2946
00000380: 241a e9c6 7a41 1c45 4700 55c7 e376 80c7
00000390: 2f16 8d47 6a9f 25c7 5ff4 5947 de87 f546
000003a0: 2850 9547 2289 8fc6 5280 66c7 ac64 85c7
000003b0: 2123 9dc7 3100 12c6 21bd 8f45 ef2f 4847
000003c0: 7608 8047 98f3 05c7 1a39 86c7 7671 8e47
000003d0: a188 4047 6b19 5347 9bd5 f6c6 50cf 0445
000003e0: 8489 8047 aee4 75c7 b7bd 3b47 8947 c8c6
000003f0: 88b3 4946 4d6a 6f46 af0c 6945 cb59 d946

batchnorm1.running_var f4 [256]
2.1862087e+10 2.7301387e+11 2.6324337e+11 2.206639e+10 4.5846872e+11 4.1594988e+11 5.8306175e+10 2.431987e+09
3.100974e+11 2.2804265e+11 5.6712552e+10 2.331303e+11 3.0882647e+11 3.033868e+11 4.024461e+10 5.182315e+10
1.588071e+11 3.202536e+11 1.8694196e+11 3.306139e+10 5.4945843e+09 3.805005e+11 2.6921144e+11 4.7172733e+08
6.454469e+10 3.579891e+07 3.0168456e+11 2.2980718e+11 3.9230007e+11 3.0849841e+10 7.6500756e+09 8.4742685e+10
3.3421175e+10 5.2279767e+10 3.7601024e+11 1.6699732e+10 2.5792209e+11 9.491378e+10 4.0696693e+11 1.3428667e+11
1.1600477e+11 1.0436577e+11 4.729597e+11 3.753256e+11 3.165468e+11 1.6228803e+11 1.5212269e+11 1.6527586e+11
8.993305e+08 2.7066906e+07 2.9144934e+10 8.22577e+10 1.6134622e+11 4.1772896e+08 5.91774e+10 1.6066322e+11
1.941732e+11 4.291459e+11 2.0813113e+11 4.0601528e+11 4.222065e+08 3.4823004e+10 3.1235752e+11 2.841401e+11
3.13072e+11 1.3814156e+11 1.164535e+11 3.4807192e+11 4.2995374e+09 2.4550094e+11 5.919545e+10 2.1530013e+11
1.5373781e+10 1.8620504e+07 4.0353633e+09 4.4840515e+09 4.8103418e+08 4.6783562e+11 4.1213192e+11 3.664982e+11
4.3325234e+11 2.1950937e+10 3.0751752e+11 1.0645174e+11 3.8479086e+10 4.7312224e+11 1.8248085e+11 4.300912e+10
3.7677494e+10 1.5164845e+11 3.8869618e+11 4.720115e+11 3.1954522e+10 1.5705935e+11 2.6588453e+11 4.6138586e+11
3.283032e+11 1.1397767e+11 7.445058e+10 5.4194205e+10 2.7388605e+11 4.1650572e+11 3.442979e+11 8.52169e+10
9.27803e+10 1.9767398e+10 3.3828897e+10 3.1799443e+10 3.780439e+11 3.6569714e+11 2.9644632e+10 1.4239707e+09
2.0770816e+10 8.338172e+10 1.8235762e+07 3.8111825e+11 2.8103655e+11 1.6679752e+11 1.4886538e+11 1.800482e+10
4.7015027e+10 9.991602e+09 2.468873e+11 1.24377235e+11 3.0761045e+11 8.17362e+10 2.7182272e+11 4.286851e+10
5.728658e+08 1.1650683e+09 1.4239818e+11 5.7145954e+10 1.3968535e+10 1.4401502e+11 9.854304e+10 4.7106264e+11
4.0394378e+09 4.218516e+11 1.448962e+09 5.0283258e+10 8.638924e+08 3.0219364e+11 9.577869e+10 2.522855e+11
5.0156495e+10 7.039298e+08 2.0457031e+11 4.298501e+11 4.188209e+10 2.2539647e+11 1.0680017e+11 4.7171882e+11
4.158983e+11 1.6754426e+11 3.137471e+11 2.6452398e+09 4.033597e+10 7.230161e+08 6.4223053e+09 2.0109638e+11
1.5075629e+10 5.450888e+10 1.1482086e+10 2.8707658e+11 4.0770296e+11 2.5321095e+11 2.4054197e+11 3.9732085e+11
3.675703e+11 1.9186735e+10 2.4807899e+11 4.238367e+11 4.0013598e+11 2.6647028e+10 4.2925203e+10 1.6091303e+11
5.4567337e+09 1.7684629e+11 3.538795e+11 6.2503277e+10 4.203076e+10 2.6791156e+11 1.1409803e+10 1.04385405e+11
1.6550809e+11 4.742273e+10 1.2369199e+11 3.1959033e+11 2.492474e+10 3.391938e+11 2.1427069e+11 3.7650848e+11
4.2982123e+11 5.190278e+10 1.6674516e+11 4.924365e+10 3.1382074e+11 6.524948e+10 2.523652e+09 3.5045404e+09
6.4479846e+09 3.5185422e+10 3.0479817e+11 1.3767458e+10 8.3964915e+08 1.20785084e+11 7.656275e+10 2.3459509e+11
8.110741e+10 3.0330857e+11 3.5998765e+10 2.1083804e+11 3.3032254e+11 8.648234e+09 9.091886e+09 2.168082e+09
4.734419e+10 5.3779104e+08 2.2652733e+11 1.6594379e+11 6.5095567e+09 1.4698593e+11 7.269436e+10 8.1698345e+09
6.585806e+10 6.474675e+08 2.1450095e+11 3.237468e+11 3.8640284e+11 1.2635625e+11 2.2735161e+11 7.118607e+10
4.3543793e+11 2.5121096e+10 2.6066503e+11 3.380661e+11 4.81995e+11 5.365649e+09 2.1373935e+09 1.9778257e+11
3.1964266e+11 8.862678e+10 3.385144e+11 3.7978207e+11 1.7250407e+11 2.2032327e+11 7.539018e+10 4.677969e+08
3.247274e+11 2.9741207e+11 1.7054114e+11 4.6177497e+10 1.358368e+10 1.6943351e+10 1.1489637e+09 5.786516e+10
00000000: 9fe2 a250 9443 7e52 1c2a 7552 4c68 a450
00000010: bb7d d552 17b1 c152 1a35 5951 2df5 104f
00000020: 7e66 9052 9b61 5452 4e45 5351 981e 5952
00000030: fcce 8f52 8646 8d52 40ec 1551 680e 4151
00000040: 90e6 1352 3421 9552 701a 2e52 9953 f650
00000050: 5ac0 a34f 322f b152 02b9 7a52 e7ef e04d
00000060: 9d72 7051 e08f 084c 9a7b 8c52 4d06 5652
00000070: d0ad b652 67d9 e550 72fd e34f 76d8 9d51
00000080: d501 f950 dfc1 4251 ea17 af52 6cd8 7850
00000090: 6b35 7052 6bca b051 3d82 bd52 e020 fa51
000000a0: 6313 d851 7a65 c251 313d dc52 4cc6 ae52
000000b0: 5267 9352 7b24 1752 e0ac 0d52 d6ec 1952
000000c0: c76a 564e 0d81 ce4b 8d25 d950 8737 9951
000000d0: f043 1652 4e30 c74d f773 5c51 19a1 1552
000000e0: 80d6 3452 2ed6 c752 54d6 4152 cb10 bd52
000000f0: e152 c94d ceb9 0151 eb73 9152 2450 8452
00000100: 17c9 9152 84a7 0052 5be9 d851 6815 a252
00000110: de22 804f fca3 6452 2e85 5c51 8d83 4852
00000120: 5216 6550 2c10 8e4b c286 704f 99a2 854f
00000130: fe5f e54d 5ada d952 f4e9 bf52 fda9 aa52
00000140: b4bf c952 178c a350 f232 8f52 2548 c651
00000150: 8458 0f51 9150 dc52 d3f2 2952 b138 2051
00000160: 0f5c 0c51 cf3b 0d52 3200 b552 28cc db52
00000170: 6a14 ee50 de45 1252 d09f 7752 7bd9 d652
00000180: cbe0 9852 ca4c d451 ceac 8a51 9fe3 4951
00000190: 8613 7f52 5af3 c152 8253 a052 96ba 9e51
000001a0: 18d1 ac51 5247 9350 800b fc50 a0ec ec50
000001b0: 580a b052 7f4a aa52 a6de dc50 23c0 a94e
000001c0: 30c1 9a50 814f 9b51 b920 8b4b d678 b152
000001d0: 2bde 8252 a157 1b52 46a4 0a52 7825 8650
000001e0: 0625 2f51 f0e2 1450 85ee 6552 b0ab e751
000001f0: 063e 8f52 db3e 9851 9627 7d52 99b2 1f51
00000200: f494 084e 10e3 8a4e 5f9e 0452 a1e2 5451
00000210: bb25 5050 db1f 0652 fc8c b751 0b5b db52
00000220: eec4 704f a170 c452 d0ba ac4e da51 3b51
00000230: cff7 4d4e 4ab8 8c52 d766 b251 8df5 6a52
00000240: f6d8 3a51 77d4 274e 5d85 3e52 202a c852
00000250: e005 1c51 b5ea 5152 4aee c651 44a9 db52
00000260: f1aa c152 aa09 1c52 9219 9252 28ab 1d4f
00000270: 6143 1651 6761 2c4e 4d66 bf4f 1d49 3b52
00000280: f6a4 6050 b80f 4b51 af18 2b50 32ae 8552
00000290: fbd9 bd52 32d2 6b52 ad05 6052 5604 b952
000002a0: cb29 ab52 cbf3 8e50 a40a 6752 465d c552
000002b0: ed53 ba52 2c89 c650 aae8 1f51 a8dc 1552
000002c0: 939f a24f 71b3 2452 b9c9 a452 c5d7 6851
000002d0: a893 1c51 1883 7952 f204 2a50 d76e c251
000002e0: 3424 1a52 d7a9 3051 f064 e651 23d2 9452
000002f0: 2bb4 b950 0df3 9d52 1d8e 4752 4f53 af52
00000300: af26 c852 595a 4151 254b 1b52 6772 3751
00000310: 5922 9252 c112 7351 e06b 164f 0be3 504f
00000320: 382a c04f 6f13 0351 c6ee 8d52 af26 4d50
00000330: 1e30 484e d1fa e051 f79b 8e51 d47b 5a52
00000340: 0713 9751 333d 8d52 191b 0651 b55b 4452
00000350: 84d1 9952 65de 0050 cb7a 0750 4e3a 014f
00000360: f05e 3051 2938 004e 53f8 5252 158c 1a52
00000370: faff c14f 2de4 0852 5f67 8751 e47a f34f
00000380: 2457 7551 485e 1a4e 03c5 4752 a0c1 9652
00000390: cfee b352 5b5b eb51 d9bc 5352 2a98 8451
000003a0: 3fc4 ca52 b02a bb50 63c3 7252 9f6c 9d52
000003b0: 4872 e052 a7e8 9f4f 13cc fe4e 0a33 3852
000003c0: 60d8 9452 8b14 a551 10a2 9d52 8dd9 b052
000003d0: 2da8 2052 2931 4d52 d76c 8c51 1d10 df4d
000003e0: 8636 9752 487e 8a52 2dd4 1e52 4b06 2c51
000003f0: a069 4a50 c179 7c50 97f7 884e 8490 5751

batchnorm2.weight f4 [16]
1.0160769 0.8963372 1.008642 0.9995174 0.93147296 0.9830312 0.9452675 1.0221207
0.9918581 1.0146028 0.98760223 1.0223149 0.9987124 1.0326406 0.9965808 1.0493288
00000000: cf0e 823f 5b76 653f 2e1b 813f 5fe0 7f3f
00000010: 0375 6e3f efa7 7b3f 0dfd 713f dad4 823f
00000020: 6aea 7d3f 81de 813f 80d3 7c3f 37db 823f
00000030: 9eab 7f3f 912d 843f eb1f 7f3f 6850 863f

batchnorm2.bias f4 [16]
0.067652844 0.42916018 -0.018242866 0.010792019 0.35155055 -0.011259081 0.33830446 0.04147395
0.08711742 0.012479316 -0.004078801 0.051301386 0.027736448 0.010831736 0.03398333 0.070328265
00000000: 938d 8a3d e2ba db3e 1072 95bc 02d1 303c
00000010: 6ffe b33e 0278 38bc 3e36 ad3e 97e0 293d
00000020: 9e6a b23d 0c76 4c3c 76a7 85bb 6721 523d
00000030: 8c37 e33c 9877 313c 1b32 0b3d 4408 903d

batchnorm2.running_mean f4 [16]
-0.20959638 -0.22814727 -0.105825484 0.00039937682 -0.21881998 0.036410876 -0.26562646 -0.22335428
-0.16086113 0.0027088707 0.12983158 0.14484271 0.043483816 -0.15566154 0.11378361 0.2270206
00000000: 6fa0 56be 709f 69be 08bb d8bd 7363 d139
00000010: 5812 60be 9223 153d 3100 88be fcb6 64be
00000020: c8b8 24be 4f87 313b 92f2 043e a651 143e
00000030: 161c 323d bd65 1fbe 6207 e93d 1778 683e

batchnorm2.running_var f4 [16]
0.078253 0.0072473045 0.33123213 0.21477458 0.006751118 0.39615104 0.0070846127 0.1427965
0.044655524 0.22605698 0.7470721 0.09992348 0.23282947 0.17333613 0.4282647 0.013728516
00000000: 1c43 a03d cc7a ed3b 4297 a93e deed 5b3e
00000010: 7c38 dd3b 4fd4 ca3e 0a26 e83b 3f39 123e
00000020: b6e8 363d 7b7b 673e 1e40 3f3f aea4 cc3d
00000030: d96a 6e3e 077f 313e 8345 db3e 92ed 603c
