model/model_20210803_112604.pt (torch, 321228 bytes, 45 tensors)

fc1.weight f4 [256, 14]
0	0x3e492586	0.1964322
1	0x3e8cfaa4	0.27534974
2	0xbdea72eb	-0.114477
3	0x3ecd92a2	0.40150934
4	0xba5ea2ca	-0.00084928854
5	0x3e0505b9	0.12990464
6	0xbe3256b3	-0.17415886
7	0xbe6cb55f	-0.23116063
8	0x3e91e038	0.28491378
9	0x3e0151ca	0.12628856
10	0xbb428edc	-0.0029687202
11	0xbea53311	-0.32265523
12	0xbdc26fd0	-0.09493983
13	0xbda226c5	-0.07917551
14	0xbb6881b8	-0.003547771
15	0xbb7e2767	-0.003878081
16	0xbe344294	-0.17603523
17	0xbd30ff0b	-0.043211978
18	0x3d3c2c86	0.0459409
19	0x3d4d1d8b	0.050077002
20	0xbdb508e3	-0.08839586
21	0xbe126622	-0.14296773
22	0xbe6bb3b1	-0.23017766
23	0xbe06ce5b	-0.13164656
24	0xbcd5d18e	-0.0261009
25	0xbe36cf20	-0.1785245
26	0xbd3fe5ad	-0.046849895
27	0xbe5bbafc	-0.21458048
28	0xbacfc646	-0.0015851937
29	0x3993d1cf	0.00028194344
30	0xbf99591d	-1.198032
31	0xbd205990	-0.039147913
32	0xbca63882	-0.020290617
33	0xbfa2825a	-1.269603
34	0xbfb77137	-1.4331425
35	0x3ecddcba	0.40207464
36	0xbfebc316	-1.841891
37	0xbfc23791	-1.5173208
38	0xbc833c28	-0.016019896
39	0xbf799171	-0.9748755
40	0x3edbabe1	0.4290457
41	0xbe3c9f8e	-0.1842024
42	0x3b9d4517	0.004799496
43	0xbe98751a	-0.2977684
44	0xbe36cd32	-0.17851713
45	0xbd1cdcf0	-0.03829664
46	0x3ec4dba4	0.38448822
47	0x3ee21261	0.44154647
48	0x3f0893b4	0.5335038
49	0xbda1cf32	-0.079008475
50	0x3e1074f3	0.14107113
51	0x3ee5b09d	0.44861308
52	0x3d5c2142	0.053742655
53	0x3ea2c1c8	0.31788468
54	0x3ead6216	0.33863896
55	0x3f25c8d0	0.6475954
56	0xbe4e8eb3	-0.20171623
57	0xbdb5005c	-0.08837959
58	0x3d335347	0.04378059
59	0x3da16492	0.078805104
60	0xbde45403	-0.111488365
61	0xbff4c923	-1.9123882
62	0xbfc7bf4d	-1.5605255
63	0x3fa23e07	1.2675179
64	0xbfaa6f4a	-1.3315213
65	0xbea08cfc	-0.31357563
66	0xbda39f35	-0.07989351
67	0xbfb93e06	-1.4472053
68	0x3f39564b	0.723973
69	0xbf34b5ed	-0.70590097
70	0x3d043b1b	0.03228293
71	0x3b968d3b	0.0045944727
72	0xbf1f7dba	-0.6230122
73	0x3d25a106	0.040436767
74	0xbe7679ae	-0.24069855
75	0xbfcd4fea	-1.6040013
76	0xbf9acc68	-1.209363
77	0x3f7b3964	0.98134446
78	0xbf8b583c	-1.0886302
79	0xbf7a1499	-0.9768768
80	0xbeb5b551	-0.35489896
81	0xbf87ec71	-1.0619031
82	0x3ed1e3d9	0.40994146
83	0xbe92924b	-0.28627238
84	0xbe3ae912	-0.18252972
85	0x3ddfc082	0.1092539
86	0x3dcc29ea	0.09968932
87	0x3ecb0a0c	0.39656103
88	0xbeaef17b	-0.3416861
89	0xbfd48232	-1.6602232
90	0xbfef9855	-1.8718363
91	0x3f8a6190	1.0811024
92	0xbfc45312	-1.5337851
93	0xbe7ed920	-0.24887514
94	0x3e207ced	0.15672655
95	0xbfc4864e	-1.5353487
96	0x3e745e47	0.23864089
97	0xbed60132	-0.41797787
98	0x3d9607b1	0.07325686
99	0x3c88e98a	0.016712923
100	0xbf2a38fb	-0.66493195
101	0xbe330ec8	-0.17486107
102	0xbe325fda	-0.17419377
103	0xbf8584c7	-1.0431145
104	0xbf691fd8	-0.91064215
105	0x3eaa9dba	0.3332346
106	0xbf474dc6	-0.7785305
107	0xbf2e0f5a	-0.67992175
108	0x3df614fe	0.12015723
109	0xbecc65f4	-0.39921534
110	0x3f07e323	0.5308096
111	0x3e74b72d	0.23898001
112	0x3e49423a	0.1965417
113	0xbe80ef95	-0.25182787
114	0xbe1c7a68	-0.1528107
115	0x3ebb8051	0.36621335
116	0x3e25efd7	0.16204773
117	0x3d19f845	0.037590284
118	0x3dfebb38	0.12438053
119	0xbce47811	-0.027889283
120	0xbd91e5bb	-0.07123896
121	0xbded278b	-0.11579808
122	0xbe8d656d	-0.27616444
123	0xbc9a7df3	-0.018858885
124	0xbc7211f8	-0.014774792
125	0xbdfa3303	-0.12216761
126	0x3caae591	0.020861419
127	0xbe07f423	-0.13276725
128	0xbd2f9265	-0.042864222
129	0xbd6ef885	-0.058342475
130	0xbe1df1ed	-0.15424319
131	0x3e92c65c	0.2866696
132	0x3e5cb371	0.21552826
133	0xbe55d622	-0.20882466
134	0x3e10d58d	0.14143963
135	0x3e34ff3b	0.17675488
136	0x3e09426b	0.13404243
137	0x3e315fc2	0.17321685
138	0x3c9a8997	0.018864436
139	0xbd821b98	-0.06352919
140	0x38c74d41	9.503449e-05
141	0x3a051f01	0.00050781673
142	0xbfc56edc	-1.5424457
143	0xbd2d61b7	-0.042329516
144	0xbee2d37c	-0.44301975
145	0xbf60ebdc	-0.8785989
146	0xbf6daafa	-0.92839015
147	0xbdb8aaf1	-0.090169795
148	0xbfcd59c5	-1.604302
149	0xc0096872	-2.1469998
150	0xbe4f79a7	-0.2026125
151	0xbf0bf45a	-0.54669726
152	0x3f16b2d5	0.58866626
153	0x3e91ca9a	0.28474885
154	0xbe14de8a	-0.14538017
155	0xbccea3cd	-0.02522459
156	0x3c4d7247	0.012539453
157	0x3c12162b	0.008916418
158	0xbef214cc	-0.47281492
159	0xbfc3c18a	-1.5293438
160	0xbff75f80	-1.9326019
161	0x3f5154ff	0.8177032
162	0xbff53748	-1.9157495
163	0xbdf0d578	-0.11759466
164	0xbea0777b	-0.31341156
165	0xbfb28527	-1.3946885
166	0x3dd90fbe	0.10598706
167	0xbf5c35dd	-0.8601969
168	0x3baa5f38	0.0051993392
169	0xbe6bd61a	-0.23030892
170	0xbe90041b	-0.28128132
171	0x3ecdbc22	0.40182596
172	0xbd950f21	-0.07278276
173	0xbe4bfc17	-0.19920383
174	0xbe7b456c	-0.24538201
175	0x3e4db8a3	0.20089965
176	0xbe7b9ca2	-0.2457147
177	0x3bd2be93	0.0064314096
178	0xbde18c62	-0.11013104
179	0xbe0efbbf	-0.13963221
180	0xbedf9161	-0.43665603
181	0x3d809a4d	0.062794305
182	0xbce580b6	-0.028015476
183	0xbe84316c	-0.25818956
184	0xbd8a16ab	-0.06742605
185	0x3d2c4b8b	0.04206423
186	0xbed93264	-0.42421257
187	0xbfed7d9c	-1.8553958
188	0xbf9132ec	-1.1343665
189	0x3f0dc7b7	0.55382866
190	0xbfd8d585	-1.6940161
191	0xbeacfe25	-0.33787647
192	0xbe3eb131	-0.1862228
193	0xbf96258b	-1.1730207
194	0x3f2ad5e8	0.66732645
195	0xbebb221c	-0.3654946
196	0x3e989b24	0.29805863
197	0x3e12db4d	0.14341469
198	0xbe1b4f7c	-0.1516704
199	0x3de6d8c2	0.11271812
200	0x3e474b60	0.19462347
201	0x3dabcb8c	0.08388433
202	0xbcc2fa92	-0.023801122
203	0x3eb74919	0.35797957
204	0xbe83651c	-0.25663078
205	0xbe32bf74	-0.17455846
206	0x3dcbcc92	0.09951128
207	0xbcbd718a	-0.023125429
208	0x3d00dc28	0.031459957
209	0xbc91c625	-0.017794678
210	0x3c739b0c	0.014868509
211	0xbbae1b76	-0.005313332
212	0xbf9fbb74	-1.2479081
213	0x3d9c24e5	0.076242246
214	0xbeb8a4bd	-0.36063185
215	0xbfce60dc	-1.6123309
216	0xbf944847	-1.1584557
217	0x3f4fbb03	0.8114473
218	0xbfd3734e	-1.6519563
219	0xbf968507	-1.1759347
220	0x3d4e0427	0.05029693
221	0xbfad2f65	-1.3530089
222	0x3eef3759	0.46721914
223	0xbdba2277	-0.09088605
224	0x3e51ac4f	0.20475887
225	0x3e70dd27	0.23521863
226	0x3e2eed5f	0.17082737
227	0xbde5ef8d	-0.11227331
228	0x3baadf6d	0.0052146227
229	0x3e784f7b	0.2424907
230	0x3e7539f3	0.23947887
231	0x3cd5a765	0.026080796
232	0xbd29ded0	-0.041472256
233	0x3e1cc086	0.15307817
234	0x3e3ee455	0.1864179
235	0x3ea20c1e	0.3164987
236	0x3e183595	0.1486419
237	0x3e6873f7	0.22700487
238	0xbbdc83f9	-0.0067295996
239	0xbcc04e7b	-0.023474922
240	0xbd9896c9	-0.07450635
241	0x3e2ee809	0.17080702
242	0x3e3dfa6c	0.1855256
243	0x3c64f312	0.013973968
244	0x3dd797da	0.1052701
245	0xbd418710	-0.047247946
246	0xbdc888ac	-0.09791693
247	0x3e93c431	0.2886062
248	0xbdc320ef	-0.09527766
249	0xbe11c246	-0.14234266
250	0xbe8add2f	-0.27121875
251	0x3e0c1367	0.13679276
252	0xb9d2b9b1	-0.00040192672
253	0xbab3343b	-0.0013672182
254	0xbf9e4f50	-1.2367954
255	0xbd0f4894	-0.034981325

fc1.bias f4 [256]
0	0xbe5f6797	-0.2181686
1	0x3dd1d6d0	0.1024605
2	0xbe4732a9	-0.19452919
3	0xbe78a7ec	-0.24282807
4	0x3e342724	0.17593056
5	0x3bbc2c26	0.0057425676
6	0xbe42706e	-0.18988201
7	0x3de5ca00	0.11220169
8	0xbd88424a	-0.06653269
9	0xbe262b70	-0.16227508
10	0xbddd3fff	-0.10803222
11	0xbd865334	-0.065588385
12	0xbc4f307c	-0.012645837
13	0xbdebe4fa	-0.11518283
14	0xbe368afc	-0.17826456
15	0xbb923fb9	-0.0044631627
16	0x3e22d0a2	0.158999
17	0xbd42e0f0	-0.0475778
18	0x3cbbf312	0.022943053
19	0x3dd51ecc	0.10406265
20	0x3e312d18	0.17302358
21	0x3d9faaf5	0.07796279
22	0xbc7b6fef	-0.015346511
23	0xbe6ef028	-0.233338
24	0x3e62e690	0.22158265
25	0x3d418a78	0.047251195
26	0xbe18a7d2	-0.14907768
27	0xbcf9fce3	-0.030516094
28	0x3df5ea7a	0.120076135
29	0x3e4e83ac	0.20167416
30	0xbe07bf69	-0.13256611
31	0x3d20f7c9	0.039298806
32	0x3d171750	0.036887467
33	0x3e883d54	0.2660929
34	0xbdc7b022	-0.097503915
35	0xbe16eb84	-0.1473828
36	0x3e113895	0.1418174
37	0x3e679661	0.22615959
38	0x3d7c0fd8	0.061538547
39	0xbbb20586	-0.0054327874
40	0x3e0a71c7	0.13519965
41	0x3e8492f9	0.2589338
42	0xbe70cf56	-0.23516592
43	0xbd23a9e0	-0.039956927
44	0xbe7b865e	-0.24562976
45	0xbdf25f0e	-0.118345365
46	0xbe84b5b0	-0.25919867
47	0xbd12e248	-0.03586033
48	0x3e0ef98c	0.13962382
49	0x3e155f3c	0.1458711
50	0x3abd6e64	0.0014452455
51	0xbd94cd44	-0.07265714
52	0x3d7d5588	0.061849147
53	0xbd700f94	-0.058608606
54	0x3dcd72e4	0.10031679
55	0x3e60b1f0	0.21942878
56	0xbd54d414	-0.051960066
57	0x3d8ac3f8	0.06775659
58	0x3e87dd8b	0.2653621
59	0xbe3c04e8	-0.18361247
60	0xbd4fb379	-0.050708268
61	0xbe356682	-0.17714885
62	0xbe2cbb20	-0.16868258
63	0xbe054884	-0.13015944
64	0xbe5d368f	-0.21602844
65	0x3e6a0a66	0.22855529
66	0x3e22e79d	0.15908666
67	0xbdb2251b	-0.086984836
68	0xbdcb2296	-0.09918706
69	0x3d938871	0.072037585
70	0xbdcf1672	-0.10111703
71	0xbc1109a0	-0.008852392
72	0xbd85bf59	-0.06530637
73	0x3df1f4b0	0.118142486
74	0x3df6ab60	0.12044406
75	0x3e54e684	0.2079106
76	0xbc21e0bd	-0.009880242
77	0x3d8f0d28	0.06984931
78	0xbbfd8540	-0.007736832
79	0x3e13ef6e	0.14446804
80	0x3e73ec6a	0.23820654
81	0xbe8890d7	-0.26673004
82	0xbc9c6430	-0.019090742
83	0x3e6d0aea	0.23148695
84	0x3e7c6fd2	0.24652031
85	0x3d292898	0.04129848
86	0xbddb6bf5	-0.107139505
87	0x3e32919b	0.17438357
88	0xbdc1ba4d	-0.09459362
89	0xbe1e216c	-0.15442437
90	0xbd22dad0	-0.039759457
91	0x3e057966	0.13034591
92	0x3e1b80fe	0.15185925
93	0xbe3bd500	-0.18342972
94	0x3e68cc4e	0.22734186
95	0xbe05766b	-0.13033454
96	0x3e693338	0.22773445
97	0x3c121580	0.008916259
98	0xbd64d124	-0.055863515
99	0xbda71d64	-0.08159903
100	0xbd6c22bf	-0.057650324
101	0xbe3c9c8f	-0.18419097
102	0x3d819b07	0.06328397
103	0xbdc34ca8	-0.095361054
104	0x3d1cdd50	0.038296998
105	0xbdd11d9c	-0.10210726
106	0x3db69695	0.0891544
107	0x3e1e4634	0.15456468
108	0xbcff28e8	-0.031147435
109	0xbe3b2eec	-0.18279618
110	0x3cff20d0	0.031143576
111	0xbcdf7b48	-0.027280465
112	0x3e465232	0.19367293
113	0xbd612304	-0.054965034
114	0x3e52306f	0.20526288
115	0x3e30e734	0.17275697
116	0xbcabe791	-0.020984443
117	0x3dc78aae	0.09743248
118	0xbde6f042	-0.11276294
119	0x3e3c83ae	0.18409607
120	0xbe03ec9a	-0.12883225
121	0x3daec214	0.08533111
122	0xbd6ee990	-0.05832821
123	0xbd67c6cd	-0.056586076
124	0x3e2481b6	0.16065106
125	0xbe026c0b	-0.12736528
126	0xbd24e5ac	-0.040258095
127	0x3e353356	0.17695364
128	0xbbf41b09	-0.007449512
129	0x3d97adc1	0.07406188
130	0xbe7cf7b2	-0.24703863
131	0x3e4853ef	0.19563268
132	0x3e864733	0.26226196
133	0xbe719965	-0.23593672
134	0x3dc4b120	0.096040964
135	0x3e2ecf5a	0.17071286
136	0xbc926df0	-0.017874688
137	0x3e324f28	0.17413008
138	0xbe86aae0	-0.26302242
139	0x3dd19fe3	0.10235574
140	0x3d87abee	0.0662459
141	0xbe0a5c77	-0.13511835
142	0xbd8a8814	-0.06764236
143	0xbe21a96e	-0.15787289
144	0x3d8f0df4	0.06985083
145	0x3e68c60e	0.22731802
146	0x3c84eb50	0.016225487
147	0xbe256e1c	-0.16155285
148	0xbdc7bb78	-0.09752554
149	0xbe38ca51	-0.18045928
150	0x3e315e52	0.17321137
151	0xbe312b08	-0.17301571
152	0x3dd48754	0.10377374
153	0xbe4d2f0c	-0.20037478
154	0x3dc66473	0.09687128
155	0x3dd01a59	0.101612754
156	0xbe1c5d7e	-0.1527004
157	0x3e495c56	0.1966413
158	0x3d8129bc	0.06306788
159	0x3e4c33ad	0.19941588
160	0x3e86cb1a	0.2632683
161	0x3e2e59ba	0.17026415
162	0xbc07abf9	-0.008280748
163	0xbe259388	-0.1616956
164	0x3e6a7ee8	0.22899973
165	0xbc7376bf	-0.014859854
166	0xbd489119	-0.0489665
167	0x3e60ec3e	0.21965119
168	0x3c726aa0	0.014795929
169	0xbd8b688c	-0.0680705
170	0x3e73eac2	0.23820022
171	0x3d1c5e1a	0.03817568
172	0xbbb1aa43	-0.005421908
173	0xbe342754	-0.17593127
174	0xbe3c9e2c	-0.18419713
175	0xbe30a5a3	-0.17250685
176	0xbbbd724f	-0.005781449
177	0xbd6cd964	-0.057824507
178	0xbdf1684e	-0.11787473
179	0x3e42ad1d	0.1901135
180	0xbd99f866	-0.07518081
181	0x3e71e4a9	0.23622383
182	0x3d108040	0.03527856
183	0x3d7b7200	0.061388016
184	0xbe196b1c	-0.14982265
185	0xbd705334	-0.0586731
186	0xbe4cbd5a	-0.19994107
187	0x3e08a752	0.13345078
188	0x3d750763	0.059821498
189	0x3e355df2	0.17711619
190	0x3e61b320	0.22040987
191	0x3b435880	0.0029807389
192	0x3e2a0138	0.16602027
193	0xbdc5ea38	-0.09663814
194	0xbe46fda6	-0.19432697
195	0x3e635400	0.22200012
196	0xbe6739ff	-0.22580718
197	0xbe03c727	-0.1286894
198	0xbe83fdef	-0.25779673
199	0x3e4d5e08	0.20055401
200	0xbcabce6b	-0.020972451
201	0x3e2528df	0.16128872
202	0x3dad7804	0.08470157
203	0x3e5cc98a	0.21561256
204	0xbe852319	-0.2600334
205	0xbe04d8f6	-0.12973389
206	0x3e62b13b	0.2213792
207	0x3e3dc97a	0.18533888
208	0x3ca3afb0	0.019981235
209	0x3e570aba	0.21000186
210	0xbdbdc108	-0.092653334
211	0xbb5bec55	-0.0033557613
212	0xbe6342b8	-0.2219342
213	0x3e321f3e	0.1739473
214	0xbe8054d9	-0.25064734
215	0xbe0270a7	-0.12738286
216	0xbe455c9a	-0.19273606
217	0x3e2dbc3b	0.16966335
218	0x3deb7bc8	0.11498219
219	0xbe6301c0	-0.22168636
220	0x3e2b7f20	0.16747713
221	0xbe3d373e	-0.18478104
222	0xbcc32400	-0.023820877
223	0x3e79c5d3	0.2439187
224	0xbdac3170	-0.08407867
225	0x3e3a7152	0.18207291
226	0xbe64129e	-0.22272727
227	0x3e5eb3e3	0.21748309
228	0x3d4476ae	0.047964744
229	0xbcbb2f38	-0.022849664
230	0xbe854b84	-0.26034176
231	0xbe016f91	-0.12640215
232	0x3e3b33a3	0.18281417
233	0xbdb45fa1	-0.08807302
234	0xbe7e912e	-0.24860069
235	0xbe40845a	-0.18800488
236	0x3e3df603	0.18550877
237	0x3dad4ca5	0.084618844
238	0xbde70887	-0.11280923
239	0x3e727d7e	0.23680684
240	0xbd76a2e4	-0.06021394
241	0x3d47f334	0.04881592
242	0x3de89dc4	0.113582164
243	0xbe2c7a9f	-0.16843651
244	0xbe7c84f1	-0.24660088
245	0xbdb3ac42	-0.0877309
246	0xbc5a5a80	-0.013327241
247	0x3e6f6bda	0.23380986
248	0xbdd87699	-0.10569496
249	0xbe637689	-0.22213186
250	0x3e11bbe4	0.14231831
251	0x3e7b066e	0.24514171
252	0x3da3abd8	0.07991761
253	0xbdb94d5e	-0.0904796
254	0xbe5ba940	-0.21451283
255	0xbddb7d92	-0.1071731

fc2.weight f4 [64, 256]
0	0x3d47b515	0.048756678
1	0xbbb3a468	-0.0054822452
2	0xbe159599	-0.14607848
3	0x3cf8e29b	0.030381491
4	0x3d2dea63	0.042459857
5	0xba5f942d	-0.0008528855
6	0x3d10aeef	0.03532308
7	0xbd0d1b37	-0.034449782
8	0x3d10717c	0.035264477
9	0xb83a4f9d	-4.442e-05
10	0xbe3ff12c	-0.18744344
11	0xbb56f787	-0.0032801346
12	0x3d1ddc9b	0.038540464
13	0xbd0c3086	-0.034225963
14	0xbd6c8808	-0.057746917
15	0xbd7926fd	-0.060828198
16	0xbd81e858	-0.06343144
17	0x3cf5874c	0.029971741
18	0xbe1d8fba	-0.15386859
19	0x3c6327dd	0.013864485
20	0xbd2fd9df	-0.042932387
21	0xbcac69e1	-0.02104658
22	0x3cefb219	0.029259728
23	0xbd976c03	-0.073936485
24	0x3d506e0c	0.0508862
25	0x3c10a3de	0.0088281315
26	0xbd975b48	-0.073904574
27	0xbe13dac2	-0.14438918
28	0xbe37bbef	-0.17942785
29	0xb912d7c9	-0.00014004031
30	0x3d75fffb	0.060058575
31	0xbe29a4e5	-0.16566809
32	0xbac7b8c0	-0.0015237555
33	0xbe51849e	-0.20460746
34	0xbbb2434c	-0.0054401513
35	0x3c4adad0	0.0123812705
36	0x3d3951f9	0.04524419
37	0xbc14e08a	-0.009086737
38	0xbbaf32a1	-0.0053466116
39	0xbc0bc9bc	-0.008531984
40	0xbd801e1e	-0.062557444
41	0xbcdbc393	-0.026826655
42	0xbcd6b0ae	-0.026207294
43	0x3d538d5e	0.05164849
44	0x3ca048d2	0.019565973
45	0xbd44954b	-0.04799394
46	0xbcc7cfc7	-0.024391068
47	0x3d5b9a2e	0.053613834
48	0xbbe9df58	-0.0071372204
49	0x3cd60519	0.026125478
50	0xbda0592b	-0.078295074
51	0x3cc7cb4d	0.024388934
52	0x3d014841	0.031563047
53	0x3d078847	0.03308895
54	0x3d4d811c	0.050171956
55	0x3ce669a1	0.02812654
56	0xbe28d55d	-0.16487642
57	0x3acd8159	0.0015678807
58	0x3d1cc61d	0.038274873
59	0x3c5abe17	0.013350985
60	0xbc8fb3b2	-0.01754174
61	0xbc0b4f7b	-0.008502836
62	0xbe156d6e	-0.14592525
63	0xbe3d4512	-0.1848338
64	0xbc89a9dd	-0.01680463
65	0x3c8a4e5a	0.016883064
66	0xbe552028	-0.20813048
67	0x3d1ff544	0.039052263
68	0xbc9b663d	-0.01896965
69	0x3cf8d9e7	0.030377341
70	0xbe3274e1	-0.17427398
71	0x3cd8ac31	0.026449295
72	0x39a399f3	0.00031204484
73	0x3bf4188d	0.0074492157
74	0x3d24f697	0.04027423
75	0x3c93dea2	0.018050496
76	0xbe218ccc	-0.15776366
77	0x3c6b65c5	0.0143675255
78	0x3c6a3480	0.014294744
79	0xbb1f290f	-0.0024285947
80	0x3d681e9b	0.056669813
81	0x3a06ec55	0.00051469106
82	0x3cd474e2	0.02593464
83	0x3d33a643	0.04385973
84	0x3d36c47f	0.044620987
85	0xbc58cbab	-0.013232152
86	0xbd6c708d	-0.057724524
87	0xbd204081	-0.039124016
88	0xbe67d5b0	-0.22640109
89	0xbd3241c5	-0.043519754
90	0xbd880ac0	-0.066426754
91	0xbd5b6bae	-0.05356949
92	0xbe04a8b3	-0.12954979
93	0x3cb49c60	0.022047222
94	0xbc84c7e0	-0.01620859
95	0xbc41ae77	-0.011821381
96	0xbdc20af1	-0.09474743
97	0x3cab80bb	0.020935407
98	0xbc5a9528	-0.013341226
99	0x3c873ac2	0.01650751
100	0x3af6f4c7	0.001884126
101	0x3d0cbb63	0.034358393
102	0xbaae3b89	-0.0013292889
103	0x3c6fcc08	0.014636047
104	0xbaaed69d	-0.0013339106
105	0xbae9af77	-0.0017828782
106	0xbc896531	-0.016771885
107	0x3d20d074	0.039261296
108	0x3ccdc58b	0.02511861
109	0x3d29d75f	0.04146516
110	0xbcbc6fd0	-0.023002535
111	0xbd270de8	-0.040784746
112	0x3d28bd35	0.041196067
113	0xbc194e94	-0.009357113
114	0xbd5bfdf3	-0.05370898
115	0xbcd8bd38	-0.026457414
116	0xbb58cc46	-0.003308074
117	0xbe02f1f6	-0.12787613
118	0xbcb35fce	-0.02189627
119	0x3cc1cced	0.023657287
120	0x3c736641	0.014855922
121	0x3d707bc1	0.05871177
122	0xbb730c5e	-0.003708623
123	0x3c58c22b	0.013229887
124	0xbd29ecbf	-0.041485544
125	0xbd1c22fc	-0.0381193
126	0xbbf406fd	-0.007447122
127	0x3d7690ca	0.060196675
128	0xbd342abf	-0.04398608
129	0x3c7aae73	0.015300381
130	0xbc1cb24b	-0.009563993
131	0xbe23b2b1	-0.15986134
132	0xbc1b58a4	-0.009481583
133	0x3c3ae71e	0.011407642
134	0xbae5bc21	-0.001752738
135	0xbbb68013	-0.005569467
136	0xbbbaab11	-0.0056966622
137	0xbc6f0356	-0.014588198
138	0x3a686c88	0.000886627
139	0x3d2016d7	0.03908428
140	0x3a85fc0b	0.0010222209
141	0x3d4cb579	0.049977753
142	0x3cb101bc	0.021607272
143	0xbc0e0ecf	-0.008670523
144	0xbda93ed3	-0.08263936
145	0x3d7ac8a1	0.06122649
146	0xbd433969	-0.047662172
147	0xbc9bb015	-0.01900486
148	0x3c3e83fe	0.011628149
149	0xbc92365c	-0.017848186
150	0xbbd1a9ac	-0.0063984003
151	0x3d2c96e7	0.0421361
152	0xbe3e1a6c	-0.18564767
153	0xbe0ac401	-0.13551332
154	0x3d3319b6	0.04372569
155	0x3bec2562	0.007206605
156	0x3c880d99	0.016608046
157	0xbcade2f4	-0.021226384
158	0x3b1d7a6b	0.0024029266
159	0xbd1a1f86	-0.03762772
160	0xbd6a3cf4	-0.057187036
161	0xbc2440d3	-0.010025221
162	0xbce9b64a	-0.028529305
163	0xbe112596	-0.14174494
164	0xbd0d043b	-0.034427863
165	0xbe6b1a4e	-0.22959253
166	0xbb2ba863	-0.0026192896
167	0x3c18379a	0.0092906
168	0x3d467200	0.048448563
169	0xbbd49ecf	-0.006488658
170	0x3d750b80	0.05982542
171	0x3c98934d	0.018624926
172	0xbcf6cabe	-0.030125972
173	0x3d31072c	0.04321973
174	0xbd367041	-0.044540647
175	0xbc42fa8a	-0.0119005535
176	0xbcd27ae9	-0.025693374
177	0x3d0ee6bd	0.034888018
178	0xbd4e3426	-0.0503427
179	0xbd3aa4ed	-0.04556744
180	0xbe5972a8	-0.21235144
181	0xbd15befe	-0.036559097
182	0x3cfca816	0.030841868
183	0xbc861609	-0.016367929
184	0x3d818da5	0.06325845
185	0xbcdccb2f	-0.026952354
186	0xbc932ebd	-0.017966622
187	0x3cc4d771	0.024028512
188	0xbcdfaa4f	-0.02730289
189	0xbdbbace9	-0.09163839
190	0xbc14c91e	-0.009081153
191	0xbc8f9133	-0.017525291
192	0xbc55276d	-0.013009888
193	0x3d5dbf6d	0.054137636
194	0xbc364459	-0.011124694
195	0xbc274315	-0.010208865
196	0xbacd2afb	-0.0015653068
197	0xbcd70151	-0.026245745
198	0x3c6040e1	0.013687343
199	0xbc2256d7	-0.0099084
200	0xbb99641a	-0.0046811225
201	0xbc5566e7	-0.013025022
202	0xbe5dd158	-0.2166189
203	0x3ca657f3	0.02030561
204	0x3d029646	0.031881593
205	0xbd56d835	-0.052452285
206	0x3cd135d2	0.025538359
207	0x3c87e32e	0.01658782
208	0x3cc61fd2	0.024185095
209	0x3ceb6f45	0.02873958
210	0xbc070483	-0.008240822
211	0x3cba9f52	0.022781048
212	0x3d1d2f77	0.038375344
213	0xbccf613d	-0.025314922
214	0xbe3e288b	-0.18570153
215	0xbd2c83df	-0.04211795
216	0x3c4fac20	0.012675315
217	0xbdac97e2	-0.08427407
218	0xbc7a984f	-0.015295102
219	0xbdfa4400	-0.12220001
220	0x3ca7cad2	0.020482454
221	0xbd416764	-0.04721774
222	0xba851c3f	-0.0010155513
223	0xbce2c702	-0.027682785
224	0xbbe905ec	-0.0071113016
225	0x3d5b2795	0.053504545
226	0xbcc2a5e2	-0.02376074
227	0xbe54bb9e	-0.20774695
228	0xbc80d5d5	-0.015726963
229	0xbce04c39	-0.027380096
230	0xbcef0ab1	-0.029179903
231	0x3cd3ca81	0.025853397
232	0xbe1f9f9d	-0.15588231
233	0x3c176070	0.009239301
234	0x3ccbe051	0.024887236
235	0xbe4e75fe	-0.20162198
236	0xbdbd85e9	-0.09254057
237	0xbe02254b	-0.12709539
238	0xbc735e3f	-0.014854013
239	0xbcde1032	-0.027107332
240	0xbdd48df4	-0.10378638
241	0xbe88b0d8	-0.2669742
242	0xbda7b356	-0.081885025
243	0xbc99a2d6	-0.018754404
244	0xbe651e16	-0.22374758
245	0x3d1fd32e	0.039019756
246	0x3ca517b3	0.020152902
247	0x3d3f3630	0.046682537
248	0xbe684204	-0.22681433
249	0xbccd35f0	-0.025050133
250	0xbc98c5e0	-0.018649042
251	0x3be1156f	0.00686901
252	0x3c8e2e93	0.017356193
253	0x3bf1840c	0.0073704775
254	0x3c7e8e3b	0.01553684
255	0x3c29a27e	0.010353683

fc2.bias f4 [64]
0	0xbcd0eae7	-0.025502635
1	0x3d60caaa	0.054880776
2	0x3d42511e	0.04744064
3	0xbc9459ce	-0.018109228
4	0x3d12f423	0.03587736
5	0x3d59d13f	0.05317807
6	0xbd215bee	-0.03939431
7	0x3d147262	0.036241896
8	0x3d3647ff	0.044502255
9	0x3cf6b29f	0.03011447
10	0x3d62a011	0.055328432
11	0xbc83a0e7	-0.016067935
12	0x3d31f2e5	0.043444533
13	0x3c2de7a9	0.010614314
14	0xbd35036d	-0.04419272
15	0x3d686712	0.05673892
16	0xbd912894	-0.07087818
17	0x3b52fca2	0.0032194038
18	0xbb327bf0	-0.0027234517
19	0x3d57a39c	0.052646264
20	0xbd4f4000	-0.050598145
21	0x3cab7099	0.020927714
22	0x3d118915	0.035531122
23	0xbd2d4623	-0.042303216
24	0x3c988201	0.018616678
25	0x3cb0e5a2	0.021593872
26	0xbb7e443c	-0.0038797995
27	0xbd64566e	-0.05574649
28	0x3d94a9b9	0.072589345
29	0xbd485afc	-0.048914894
30	0xbd034f30	-0.03205794
31	0x3d796ee3	0.060896765
32	0x3d256492	0.040379114
33	0x3c1ab454	0.009442408
34	0xbd61d8b1	-0.055138294
35	0xba9171a2	-0.0011096487
36	0x3cf8c765	0.030368516
37	0x3cff7073	0.03118155
38	0x3c8b3d52	0.016997013
39	0xbd3d6925	-0.04624285
40	0xbcfc018f	-0.030762462
41	0x3b49e930	0.0030809157
42	0x3d63c857	0.05561098
43	0xbba4a838	-0.005024936
44	0xbd239b6e	-0.03994315
45	0x3c759195	0.014988323
46	0xbd43fc56	-0.04784807
47	0x3cf8fe5b	0.030394724
48	0xbd4d73ff	-0.05015945
49	0xbc6c8e56	-0.014438232
50	0x3d01ed9d	0.031720746
51	0x3d4076c3	0.04698826
52	0xbd6083a1	-0.05481303
53	0x3d43eeea	0.047835268
54	0xbc848c8e	-0.016180303
55	0xbcd17d74	-0.025572516
56	0x3b664bab	0.0035140316
57	0x3c950089	0.018188732
58	0x3cbcb0b9	0.023033487
59	0xbd959566	-0.07303886
60	0xbd5af717	-0.0534583
61	0x3c0d037c	0.008606788
62	0xbbd276ca	-0.006422852
63	0x3c85c8fb	0.016331187

fc3.weight f4 [64, 64]
0	0x3ba2294b	0.00494877
1	0xbd9f1f43	-0.077696346
2	0xbb37059b	-0.0027926925
3	0xbbb1e5e6	-0.0054290174
4	0xbbef4a65	-0.0073025697
5	0x3aab4b74	0.0013068751
6	0x3b9d33db	0.0047974414
7	0xbddc28df	-0.10749983
8	0x3a755f56	0.00093602145
9	0xba8328bd	-0.0010006648
10	0xbe50d0be	-0.20392129
11	0xbb431f9b	-0.0029773477
12	0xbc6d4bc9	-0.014483401
13	0xbe18d267	-0.14924012
14	0xbeb1070a	-0.34575683
15	0xb9a24c92	-0.00030956097
16	0xbd76fbd4	-0.060298756
17	0xba576205	-0.0008216205
18	0xbe152852	-0.14566162
19	0xbed9368f	-0.42424437
20	0xbdab0be0	-0.08351874
21	0xbf36d0e9	-0.7141252
22	0xbca3aec1	-0.01998079
23	0xbcb4039b	-0.021974375
24	0x3c89a7a6	0.016803574
25	0xbeee6967	-0.4656479
26	0xba877ea5	-0.0010337426
27	0xbe95bfe2	-0.29247957
28	0x3bdf676c	0.006817749
29	0xbe67aed9	-0.22625293
30	0x3af68df9	0.0018810622
31	0xbf2c04b6	-0.6719469
32	0xbdbee1c0	-0.09320402
33	0x39bbefc5	0.00035846062
34	0xbccc2ec9	-0.024924653
35	0xba1933c4	-0.00058442005
36	0xb9bc4662	-0.00035910594
37	0x3d10a141	0.035310034
38	0xbda0557e	-0.07828806
39	0xbec9d890	-0.39423037
40	0xbf06b9dc	-0.5262735
41	0xbd24461a	-0.040105917
42	0x3b42bcc0	0.0029714555
43	0xbe3b29f1	-0.18277718
44	0xbdbee36a	-0.093207195
45	0xba8b0f48	-0.0010609413
46	0xbe23236a	-0.15931478
47	0xbd0c0633	-0.0341856
48	0xbf18946a	-0.5960146
49	0xbed75801	-0.4205933
50	0xbc242c7b	-0.010020371
51	0xbe19274d	-0.14956398
52	0xba5b99b0	-0.0008377088
53	0xbcf4ab04	-0.029866703
54	0xbdf83999	-0.12120361
55	0x3d024213	0.031801295
56	0xbe79bbac	-0.24387997
57	0xbf048880	-0.5177078
58	0xbaab3859	-0.0013063058
59	0xbd8f5896	-0.06999318
60	0xbd028a88	-0.031870395
61	0x3d23836d	0.03992026
62	0xbcb56708	-0.022143856
63	0xbd84ba79	-0.06480879
64	0xbe83bfdc	-0.25732315
65	0xbdeaedb9	-0.11471123
66	0xbd06ae4a	-0.03288106
67	0x3d1676e1	0.036734466
68	0xbd817d0c	-0.06322679
69	0xbddd69d8	-0.10811204
70	0xbdbc0f7e	-0.091826424
71	0xbdc8afce	-0.09799157
72	0xb99ed74c	-0.00030296517
73	0xbe767b9d	-0.24070592
74	0xbdd16712	-0.10224737
75	0xbd4afea2	-0.049559243
76	0xbe5514ea	-0.2080876
77	0xbc83a12b	-0.016068062
78	0xbcfba4da	-0.030718256
79	0xbc1ae315	-0.009453555
80	0xbd0dcba6	-0.034618042
81	0xbdc12fcd	-0.094329454
82	0xbd16dffd	-0.036834706
83	0xbe2a6982	-0.1664181
84	0x3b108b02	0.0022055511
85	0xbdac58f0	-0.08415401
86	0xbd5c6a9e	-0.053812616
87	0xbd618950	-0.055062592
88	0xbe4b1be8	-0.19834864
89	0xbdc4f6ae	-0.09617363
90	0xbd609194	-0.054826334
91	0xbdd06f6c	-0.10177502
92	0xbe53fd2f	-0.2070205
93	0xbc30de2d	-0.010795158
94	0xbad1af7e	-0.0015997735
95	0xbd9bec2d	-0.07613406
96	0xbda98b0f	-0.082784764
97	0xbc6785ae	-0.014130993
98	0xbbf509cf	-0.007477976
99	0xbe9241b1	-0.28565744
100	0xbdce3ad2	-0.10069813
101	0xbe3a5a4f	-0.18198512
102	0xbb82060c	-0.003968006
103	0xbdd6435f	-0.10462069
104	0xbde0e5c0	-0.10981321
105	0xbe3330a7	-0.17499028
106	0xbd9a7e78	-0.07543653
107	0xbd55af75	-0.052169282
108	0xbd95a468	-0.07306749
109	0xbd852ce2	-0.06502701
110	0xbde154b9	-0.11002488
111	0xbe1d96bd	-0.15389533
112	0xbd471676	-0.048605405
113	0xbdaf50ad	-0.085603096
114	0xbd2fd02d	-0.04292314
115	0x3d4bb909	0.04973701
116	0xbcb08356	-0.021547
117	0xbe378d4a	-0.17924991
118	0xbda32c2a	-0.07967408
119	0xbe344c04	-0.17607123
120	0xbd819ce8	-0.063287556
121	0xbe2e8216	-0.17041811
122	0xbbb1e35c	-0.0054287147
123	0xbda12167	-0.07867699
124	0xbd97ff45	-0.07421736
125	0xbe5dde71	-0.21666886
126	0xbe56d59b	-0.20979922
127	0xbc697a85	-0.014250402
128	0x3c2ad765	0.010427331
129	0xbd4774af	-0.048695263
130	0x3af5256c	0.0018703169
131	0xbdaf2b4e	-0.085531816
132	0xbb85fa5e	-0.004088684
133	0xbb94b7f9	-0.004538533
134	0x3b73d073	0.0037203103
135	0xbde8d658	-0.11369008
136	0x38c8618e	9.554914e-05
137	0x3aef4a82	0.0018256458
138	0xbe4cc2e0	-0.19996214
139	0xbb5655ba	-0.0032704906
140	0x3bfe7304	0.007765176
141	0xbdc74420	-0.09729791
142	0xbe4b22fe	-0.19837567
143	0xbaf6e16f	-0.0018835495
144	0xbd9c6167	-0.076357655
145	0xbae71040	-0.0017628744
146	0xbe075bae	-0.13218567
147	0xbf10aaa4	-0.56510377
148	0xbdc29916	-0.09501855
149	0xbf33e70e	-0.70274436
150	0xbc407563	-0.011746737
151	0xbd9bddc4	-0.07610658
152	0xbce454e4	-0.02787251
153	0xbedc7d70	-0.4306445
154	0xba7e5de2	-0.00097033207
155	0xbe435112	-0.19073895
156	0x3c1e3910	0.009657159
157	0xbdad32cf	-0.084569566
158	0xbb073c55	-0.0020635326
159	0xbf255907	-0.6458897
160	0xbddfb67e	-0.109234795
161	0xb9cd0138	-0.00039101555
162	0xbd5a4464	-0.05328788
163	0x3c51b4de	0.01279947
164	0xba4f95dc	-0.0007918754
165	0xbd039db6	-0.032132827
166	0xbd9c5abe	-0.07634495
167	0xbea68d10	-0.32529497
168	0xbe9c5e0b	-0.305405
169	0x3c3526ae	0.011056585
170	0xba7a3c4a	-0.0009545727
171	0xbebb7dce	-0.3661942
172	0xbd90c826	-0.07069425
173	0x3ab85d4a	0.0014065888
174	0xbd45b25f	-0.04826581
175	0x3c0203aa	0.007935444
176	0xbf0e4922	-0.5558034
177	0xbe56edbb	-0.20989124
178	0xbbabb854	-0.0052404795
179	0xbe17577a	-0.14779463
180	0x3a7c40c5	0.00096226885
181	0x3bb92829	0.0056505394
182	0xbd3a0dd8	-0.04542336
183	0xbd0b4625	-0.034002442
184	0xbe48d23e	-0.19611451
185	0xbf180649	-0.5938459
186	0xb8fba893	-0.00012000012
187	0xbc98a0f4	-0.018631436
188	0xbca6253c	-0.020281427
189	0xbc04f518	-0.0081150755
190	0xbc4a6861	-0.012353987
191	0xbd5eb787	-0.054374244
192	0xbe1db7f2	-0.15402201
193	0x3b824a13	0.0039761155
194	0x3d824ee3	0.06362703
195	0x3d2bc7f6	0.041938744
196	0xbd212f7f	-0.039351936
197	0xbd343cd8	-0.044003338
198	0xbc60b0df	-0.013714044
199	0x3d3deb0d	0.04636674
200	0x3ccd62fd	0.025071615
201	0x3d578a74	0.052622274
202	0xbce96731	-0.028491588
203	0xbd340ae1	-0.043955687
204	0xbddbd08e	-0.10733138
205	0x3c3a7eb7	0.01138275
206	0x3ccd60e1	0.02507061
207	0xbcf1e7dd	-0.029529506
208	0x3d69c2a3	0.057070386
209	0x3e0d909f	0.138247
210	0x3d149530	0.03627509
211	0xbd1eda7f	-0.038782593
212	0x3d915520	0.070963144
213	0xbdf89268	-0.121373
214	0xbbb1a0af	-0.0054207663
215	0x3dbe7ebe	0.09301518
216	0xbe13b85f	-0.144258
217	0xbd5b4286	-0.05353024
218	0xbd62afb2	-0.055343337
219	0xbcbdabac	-0.023153149
220	0x3d154690	0.036444247
221	0x3c444fff	0.011981963
222	0x3cd8ad9e	0.026449975
223	0xbdf2e447	-0.11859947
224	0x3d7d41ed	0.06183045
225	0x3c043cd8	0.008071147
226	0x3df99127	0.12185889
227	0x3c97edb9	0.018545972
228	0xbdd64282	-0.10461904
229	0x3df128a3	0.11775329
230	0x3dad9c44	0.08477071
231	0xbd05c4f3	-0.03265853
232	0xbc7ac87c	-0.015306588
233	0xbd43be89	-0.04778913
234	0xbd068d68	-0.0328497
235	0x3d3ab709	0.045584712
236	0x3b5c494b	0.0033613022
237	0xbd64050e	-0.055668883
238	0x3c375cb8	0.0111915395
239	0x3c4f6637	0.012658647
240	0xbdfd34b9	-0.12363572
241	0xbd529b6b	-0.05141775
242	0x3c63b2df	0.013897627
243	0x3d941e50	0.07232344
244	0xbd66656a	-0.05624906
245	0x3e714a9e	0.2356362
246	0x3c26e7de	0.010187117
247	0x3d9f7551	0.07786048
248	0xbaebb2e8	-0.0017982395
249	0xbdedf8af	-0.11619698
250	0x3d233663	0.03984679
251	0x3ce0944d	0.027414465
252	0xbca33ffa	-0.019927967
253	0x3e06eae4	0.13175541
254	0x3e32149b	0.17390673
255	0x3d396fc4	0.045272604

fc3.bias f4 [64]
0	0xbe67f487	-0.22651874
1	0x3df15aca	0.11784895
2	0xbea6fabd	-0.32613173
3	0xbd119386	-0.03554108
4	0x3d3a2e59	0.045454357
5	0x3e9695c7	0.29411146
6	0x3bb622d6	0.005558352
7	0x3e1667c5	0.14688022
8	0xbedbb8e1	-0.4291449
9	0xbeb56daa	-0.3543523
10	0x3d72b67c	0.059256062
11	0xbea02ab5	-0.31282583
12	0xbe3e8c5f	-0.18608235
13	0xbd0b9622	-0.034078725
14	0xbebca128	-0.36841702
15	0x3e145e01	0.14488985
16	0xbdf214a7	-0.11820345
17	0xbdd151bd	-0.102206685
18	0xbcdcd633	-0.026957607
19	0x3b94c9e5	0.0045406693
20	0xbbca311a	-0.006170404
21	0xbd587ab5	-0.052851398
22	0xbe7eb8a4	-0.24875122
23	0xbe87b6aa	-0.2650655
24	0xbeb7a555	-0.35868326
25	0xbe4afe3e	-0.19823548
26	0x3cb7364d	0.02236476
27	0x3cf5fb45	0.030027041
28	0xbe51a224	-0.20472008
29	0x3cd5c696	0.02609567
30	0xbddb03dd	-0.10694096
31	0xbd025b00	-0.031825066
32	0xbea9f45c	-0.33194244
33	0x3e81f141	0.25379375
34	0xbea70b4a	-0.326258
35	0xbc9247d9	-0.017856525
36	0xbe5f7bbb	-0.21824543
37	0xbecf4b12	-0.40486962
38	0xbd82d052	-0.0638739
39	0xbd2e86a0	-0.042608857
40	0xbe3230a2	-0.17401364
41	0x3d3ec4b0	0.046574295
42	0x3eb3bc21	0.35104468
43	0x3de18723	0.110121034
44	0xbe642799	-0.2228073
45	0x3da7bccc	0.08190307
46	0xbdfdbbd3	-0.1238934
47	0xbeb15ac3	-0.34639558
48	0xbec6e807	-0.38848898
49	0x3e120153	0.14258318
50	0x3bb53c4b	0.005530869
51	0xbd3eb4c7	-0.04655912
52	0xbe00579e	-0.12533423
53	0x3ddae3e8	0.10688001
54	0xbebc28c8	-0.36749864
55	0x3d0b47a5	0.034003872
56	0xbd06bcc2	-0.032894857
57	0x3e820733	0.25396118
58	0xbd5beb43	-0.05369116
59	0xbece72c1	-0.40321925
60	0xbd423322	-0.047412045
61	0xbe4c708c	-0.19964808
62	0x3e547e36	0.2075127
63	0xbe996a4b	-0.29963908

fc4.weight f4 [1, 64]
0	0x3d736b40	0.059428453
1	0xbe023f5a	-0.12719479
2	0x3d6a65e3	0.057226073
3	0x3cf52aee	0.029927697
4	0x3dec70eb	0.11544975
5	0x3d6dbc3c	0.058040842
6	0x3deee86d	0.116654254
7	0x3d5288cf	0.051400002
8	0x3d59c7b7	0.05316898
9	0x3d49bd60	0.049252868
10	0x3d1e9312	0.038714476
11	0x3d509702	0.050925262
12	0x3d41c5ce	0.047307782
13	0xbdc751e8	-0.09732419
14	0x3d334fb1	0.04377717
15	0x3d99d14c	0.07510623
16	0xbe5e71a1	-0.21723033
17	0x3da87fea	0.08227523
18	0xbe14658a	-0.14491859
19	0x3d4a5058	0.049393028
20	0x3dd1f2f3	0.10251417
21	0x3da578f1	0.08079708
22	0x3d7ca8d6	0.061684452
23	0x3d477169	0.04869214
24	0x3d5f19dc	0.05446802
25	0x3d532417	0.05154809
26	0x3e100216	0.14063296
27	0x3ddcc543	0.10779812
28	0x3d3b2200	0.04568672
29	0x3db31bf5	0.08745567
30	0xbdc73676	-0.097271845
31	0x3db5b588	0.08872515
32	0x3d4cc90b	0.049996417
33	0x3d4c7995	0.049920637
34	0x3d571ce9	0.052517805
35	0x3d6e5791	0.05818898
36	0xbdb06162	-0.08612324
37	0x3d45c929	0.048287544
38	0x3dca458f	0.098765485
39	0x3dae14f1	0.08500088
40	0x3d5651cf	0.052324113
41	0x3d2438fc	0.040093407
42	0x3d524ea8	0.051344544
43	0x3d74d4f7	0.05977341
44	0x3d77a3b7	0.060458865
45	0x3de2cfb1	0.1107477
46	0xbe3de827	-0.1854559
47	0x3d419024	0.047256604
48	0x3d57c866	0.05268135
49	0x3d4918cd	0.049095917
50	0xbd90aa50	-0.070637345
51	0x3de4687a	0.1115274
52	0x3d4cbfb1	0.0499875
53	0xbd9c4ae6	-0.07631473
54	0x3d73f690	0.059561312
55	0xbd9b1588	-0.07572466
56	0x3d0aa3f8	0.03384778
57	0x3d4ea52d	0.050450493
58	0x3d87e389	0.06635196
59	0x3d475c62	0.048672087
60	0x3d88b459	0.066750236
61	0x3d425064	0.047439948
62	0x3d73b756	0.059501015
63	0x3d486f60	0.04893434

batchnorm1.weight f4 [256]
0	0x3f7ecf95	0.99535495
1	0x3f7c3708	0.9852147
2	0x3f84390e	1.0329912
3	0x3f85a148	1.0439844
4	0x3f841660	1.0319328
5	0x3f5b424e	0.8564805
6	0x3f864be7	1.0491914
7	0x3f6473eb	0.89239377
8	0x3f7ca177	0.98683876
9	0x3f7c00c7	0.98438686
10	0x3f8eb895	1.115008
11	0x3f83d49b	1.0299257
12	0x3f7d9fce	0.9907197
13	0x3f8543d2	1.0411322
14	0x3f75d2fb	0.96025056
15	0x3f77e742	0.96837246
16	0x3f77f92d	0.9686459
17	0x3f781107	0.9690098
18	0x3f78e439	0.9722324
19	0x3f838033	1.0273498
20	0x3f74fb7b	0.9569623
21	0x3f6cda53	0.92520636
22	0x3f8449fa	1.0335076
23	0x3f79ed63	0.9762785
24	0x3f8453f5	1.0338122
25	0x3f7de827	0.9918236
26	0x3f6208b7	0.8829455
27	0x3f7d81f4	0.9902642
28	0x3f8629b9	1.0481483
29	0x3f8522c1	1.0401231
30	0x3f7081d2	0.9394809
31	0x3f88cf3b	1.0688242
32	0x3f780486	0.968819
33	0x3f835724	1.0260968
34	0x3f5584d0	0.8340578
35	0x3f7cd124	0.98756623
36	0x3f9721b3	1.1807159
37	0x3f55a386	0.8345264
38	0x3f7bedab	0.9840953
39	0x3f826d6f	1.0189646
40	0x3f6d487f	0.92688745
41	0x3f6405ec	0.89071536
42	0x3f6dfe06	0.92965734
43	0x3f7d2cfe	0.9889678
44	0x3f5b9ed4	0.8578923
45	0x3f5ec5e2	0.87020695
46	0x3f81198f	1.0085925
47	0x3f7c2dd5	0.98507434
48	0x3f8301b4	1.0234895
49	0x3f79c311	0.9756327
50	0x3f83ce70	1.0297375
51	0x3f7b6467	0.98200077
52	0x3f841d2f	1.0321406
53	0x3f7d2e29	0.9889856
54	0x3f85b16c	1.044477
55	0x3f799a41	0.97501
56	0x3f838436	1.0274723
57	0x3f7c0a65	0.9845336
58	0x3f770c4c	0.9650314
59	0x3f7ddc40	0.991642
60	0x3f84489b	1.0334657
61	0x3f83fdb7	1.0311803
62	0x3f7f5a9f	0.9974765
63	0x3f8b29ef	1.0872172
64	0x3f7df2a3	0.9919836
65	0x3f7dc54a	0.99129164
66	0x3f96032b	1.1719717
67	0x3f696954	0.9117634
68	0x3f71c975	0.94448024
69	0x3f549391	0.8303767
70	0x3f9a1b8a	1.2039654
71	0x3f863c2f	1.0487117
72	0x3f53ebed	0.8278187
73	0x3f832bc4	1.0247731
74	0x3f7c6fc6	0.9860805
75	0x3f7a711b	0.97828835
76	0x3f7f61fc	0.9975889
77	0x3f7b6089	0.98194176
78	0x3f7c8cd8	0.9865241
79	0x3f83ab51	1.0286657
80	0x3f796129	0.9741388
81	0x3f7ae5af	0.9800672
82	0x3f83eeeb	1.0307287
83	0x3f764cf8	0.96211195
84	0x3f71607d	0.94287854
85	0x3f85820d	1.0430313
86	0x3f6a380d	0.91491777
87	0x3f4e9e44	0.80710244
88	0x3f89e4e8	1.0772982
89	0x3f62ae91	0.8854762
90	0x3f7863c3	0.97027224
91	0x3f75f9ad	0.960841
92	0x3f7e77bb	0.99401444
93	0x3f77bc68	0.9677186
94	0x3f5ed660	0.8704586
95	0x3f63fd4e	0.8905839
96	0x3f7b5f17	0.9819197
97	0x3f806139	1.002967
98	0x3f6d5a9c	0.92716384
99	0x3f8097cd	1.0046326
100	0x3f59ecd2	0.85126984
101	0x3f7da510	0.9907999
102	0x3f634ede	0.88792217
103	0x3f7b5554	0.98177075
104	0x3f826edd	1.0190083
105	0x3f813457	1.0094098
106	0x3f6ef6d8	0.93345404
107	0x3f8036dc	1.0016742
108	0x3f769dbb	0.9633443
109	0x3f7bfe5e	0.9843501
110	0x3f770ad8	0.9650092
111	0x3f797f8e	0.9746026
112	0x3f765be4	0.96233964
113	0x3f7a3243	0.97732943
114	0x3f5e314e	0.86793983
115	0x3f82db18	1.0223112
116	0x3f5f8baa	0.87322485
117	0x3f815e81	1.0106965
118	0x3f843dbf	1.0331343
119	0x3f722f0d	0.94603044
120	0x3f851a99	1.0398742
121	0x3f81c39e	1.0137823
122	0x3f71a7f1	0.94396883
123	0x3f557bd7	0.8339209
124	0x3f5c34b1	0.860179
125	0x3f80d984	1.006638
126	0x3f846201	1.0342408
127	0x3f7e4479	0.9932323
128	0x3f79261c	0.97323775
129	0x3f5d84e9	0.8653093
130	0x3f7df99b	0.9920899
131	0x3f88ff84	1.0702977
132	0x3f788218	0.9707351
133	0x3f81a7c2	1.0129321
134	0x3f7ce219	0.987825
135	0x3f810dd4	1.0082345
136	0x3f7cc3a5	0.9873603
137	0x3f82afb4	1.020987
138	0x3f853a07	1.0408334
139	0x3f566198	0.83742666
140	0x3f628bbf	0.88494486
141	0x3f785d0b	0.9701697
142	0x3f603b99	0.8759094
143	0x3f81be31	1.0136167
144	0x3f79943e	0.97491825
145	0x3f82c889	1.0217448
146	0x3f779797	0.9671568
147	0x3f856741	1.0422136
148	0x3f78e94d	0.9723099
149	0x3f7c0dfa	0.98458827
150	0x3f78dc20	0.97210884
151	0x3f76cdf1	0.9640799
152	0x3f82afb4	1.020987
153	0x3f70487f	0.9386062
154	0x3f508378	0.81450605
155	0x3f76d282	0.9641496
156	0x3f78d37c	0.971977
157	0x3f7c515d	0.9856165
158	0x3f7a4b72	0.9777137
159	0x3f84b479	1.0367576
160	0x3f5caae9	0.8619829
161	0x3f74eae7	0.9567093
162	0x3f52d5d5	0.8235753
163	0x3f833119	1.0249358
164	0x3f7c22cb	0.9849059
165	0x3f8431e9	1.0327731
166	0x3f75f2f3	0.96073836
167	0x3f83d22c	1.0298514
168	0x3f7ecb82	0.9952928
169	0x3f791c9d	0.97309285
170	0x3f7302ab	0.94925946
171	0x3f8d8263	1.1055416
172	0x3f8492f7	1.035735
173	0x3f955f16	1.1669643
174	0x3f781f1b	0.96922463
175	0x3f836bef	1.0267314
176	0x3f6e12dd	0.92997533
177	0x3f773bd1	0.9657565
178	0x3f7f96b7	0.9983935
179	0x3f56d0a8	0.83912134
180	0x3f9b5a54	1.2136941
181	0x3f68b843	0.9090616
182	0x3f814de2	1.0101893
183	0x3f7fad5b	0.99873894
184	0x3f724f8b	0.9465262
185	0x3f779dfd	0.96725446
186	0x3f6a6739	0.91563755
187	0x3f839958	1.0281172
188	0x3f840b32	1.0315917
189	0x3f7eb815	0.99499637
190	0x3f7c6d11	0.9860392
191	0x3f799f9f	0.9750919
192	0x3f643f1c	0.891588
193	0x3f76cefc	0.96409583
194	0x3f8782b6	1.0586765
195	0x3f572b88	0.840508
196	0x3f76a684	0.9634783
197	0x3f779f34	0.967273
198	0x3f78eebf	0.972393
199	0x3f4f7630	0.81039715
200	0x3f859b56	1.043803
201	0x3f7b2238	0.9809909
202	0x3f9b3745	1.2126242
203	0x3f80efa4	1.0073133
204	0x3f8223a0	1.0167122
205	0x3f7af947	0.9803662
206	0x3f54ee3c	0.83176017
207	0x3f7b145b	0.98077935
208	0x3f86b09c	1.0522647
209	0x3f7943d9	0.9736915
210	0x3f7a54cd	0.97785646
211	0x3f8b1af4	1.08676
212	0x3f779452	0.96710694
213	0x3f70aa49	0.94009835
214	0x3f902651	1.1261693
215	0x3f6afab1	0.91788775
216	0x3f79741b	0.9744279
217	0x3f7214c0	0.9456291
218	0x3f7b5e7c	0.98191047
219	0x3f8869cb	1.0657285
220	0x3f837965	1.0271422
221	0x3f829b60	1.0203667
222	0x3f8558e3	1.0417751
223	0x3f62a89a	0.88538516
224	0x3f823b72	1.0174391
225	0x3f7080c8	0.93946505
226	0x3f7dda13	0.9916088
227	0x3f9a6797	1.2062863
228	0x3f52ee7c	0.8239515
229	0x3f7abbad	0.9794262
230	0x3f79eccd	0.97626954
231	0x3f838aa3	1.0276684
232	0x3f82ec86	1.0228431
233	0x3f55a10b	0.8344886
234	0x3f802002	1.0009768
235	0x3f987748	1.1911402
236	0x3f846f83	1.0346531
237	0x3f8343db	1.0255083
238	0x3f7eff5e	0.9960841
239	0x3f787965	0.97060233
240	0x3f69c942	0.9132272
241	0x3f835869	1.0261356
242	0x3f6843cd	0.90728456
243	0x3f7251d9	0.9465614
244	0x3f9c171b	1.2194551
245	0x3f83f2d3	1.0308479
246	0x3f799a88	0.9750142
247	0x3f7867f1	0.970336
248	0x3f9d7937	1.2302617
249	0x3f59d71d	0.8509386
250	0x3f742a9d	0.9537752
251	0x3f7b6c8c	0.98212504
252	0x3f7ca16a	0.986838
253	0x3f8502b9	1.0391456
254	0x3f7d8569	0.9903169
255	0x3f82f8ee	1.0232217

batchnorm1.bias f4 [256]
0	0x3d43a918	0.047768682
1	0xbe798dcf	-0.24370502
2	0xbe1023c2	-0.1407614
3	0xbbc431b6	-0.0059873713
4	0xbde62cd6	-0.112390205
5	0xbe381b17	-0.17979084
6	0xbdf2634b	-0.11835345
7	0xbe19de86	-0.15026292
8	0xbdcca17c	-0.09991738
9	0x3dacbf5b	0.08434936
10	0xbd883731	-0.06651152
11	0xbdc65e35	-0.09685937
12	0xbe837733	-0.2567688
13	0xbdc42b5a	-0.09578581
14	0xbf1a4c7b	-0.6027295
15	0xbe0a1dff	-0.13488005
16	0xbf392a33	-0.72330016
17	0xbe42d64b	-0.19027059
18	0xbdb450af	-0.08804452
19	0xbdea4af7	-0.1144008
20	0xbe3dc724	-0.18532997
21	0xbe28bf02	-0.16479114
22	0xbdf1d2cb	-0.11807784
23	0xbdd8679b	-0.10566636
24	0xbde7c913	-0.11317649
25	0xbe1cb506	-0.1530343
26	0xbe727ef7	-0.23681246
27	0xbdd1f829	-0.10252411
28	0xbe161999	-0.14658202
29	0xbdf06176	-0.11737339
30	0xbdbc9bbd	-0.09209392
31	0xbd9b5749	-0.07585008
32	0xbd85dd14	-0.06536308
33	0xbe0cd773	-0.13754062
34	0xbe6a4eb0	-0.2288158
35	0xbca88a2c	-0.020573698
36	0x3d81b89e	0.06334041
37	0xbe321dd9	-0.17394198
38	0xbf2edda4	-0.68306947
39	0xbdade29d	-0.08490489
40	0xbe292bba	-0.16520587
41	0xbe186abb	-0.14884464
42	0xbdc1c06b	-0.09460529
43	0xbe3fba75	-0.18723471
44	0xbe27a8d3	-0.16372995
45	0xbe3d905e	-0.18512103
46	0xbe072e75	-0.13201316
47	0xbdb57183	-0.08859541
48	0xbe00ddc4	-0.12584597
49	0xbe883de9	-0.26609734
50	0xbde77aec	-0.11302742
51	0xbe203073	-0.15643482
52	0xbdfb13d6	-0.12259643
53	0xbe245117	-0.16046558
54	0xbdeb69f9	-0.11494822
55	0xbe75053e	-0.23927781
56	0xbde11536	-0.10990374
57	0xbdb77dd3	-0.08959546
58	0xbcb334a9	-0.021875696
59	0xbc7c0895	-0.0153829055
60	0xbdcc9001	-0.09988404
61	0xbe00622d	-0.12537451
62	0xbf769882	-0.9632646
63	0xbdfe6cee	-0.124231204
64	0xbdb59e4c	-0.08868083
65	0xbc8a0025	-0.016845772
66	0xbcf899fb	-0.030346861
67	0xbe26d290	-0.1629126
68	0xbe22d383	-0.15900998
69	0xbebe06d0	-0.37114573
70	0xbcffaf71	-0.031211587
71	0xbccd23eb	-0.025041541
72	0xbe27d3f0	-0.16389441
73	0xbdb0051f	-0.08594727
74	0x3c31f0c4	0.010860626
75	0xbea0d503	-0.31412515
76	0xbdcc29cc	-0.099689096
77	0xbe9e316c	-0.3089708
78	0x3dcdbb9d	0.1004555
79	0xbdb7f482	-0.08982183
80	0x3de36931	0.11104048
81	0xbe2ae47a	-0.1668872
82	0xbdf24d64	-0.11831167
83	0xbe2381a4	-0.15967423
84	0xbd7bc30c	-0.061465308
85	0xbdbadc39	-0.091240354
86	0xbdcf2f9c	-0.10116503
87	0xbe854d65	-0.2603561
88	0xbe1b55ac	-0.151694
89	0xbdfb0152	-0.12256111
90	0xbf66b530	-0.9012022
91	0xbf701e6c	-0.9379642
92	0xbf819b13	-1.012545
93	0xbebd555f	-0.36979195
94	0xbe5f9d34	-0.21837312
95	0xbe13cbcd	-0.14433213
96	0xbf5f4656	-0.872167
97	0xbe8149b5	-0.25251547
98	0xbde13415	-0.10996262
99	0xbdd56964	-0.10420492
100	0xbe24974e	-0.16073343
101	0xbe8aca6f	-0.2710757
102	0xbe6405c2	-0.22267821
103	0xbe12394a	-0.14279667
104	0xbdf2fa96	-0.11864202
105	0xbc19a461	-0.00937757
106	0xbddb80bf	-0.10717916
107	0x3da78b97	0.081809215
108	0xbda6c7ed	-0.081436016
109	0xbe3de2f4	-0.18543607
110	0xbe4eb430	-0.20185924
111	0xbea305d9	-0.318404
112	0xbe1fae9f	-0.15593956
113	0xbd606c1f	-0.054790612
114	0xbe28f562	-0.16499856
115	0xbcd71534	-0.026255228
116	0xbe42a284	-0.19007307
117	0xbd5eb8ba	-0.054375388
118	0xbde55d9e	-0.11199497
119	0xbdf3bd26	-0.119013116
120	0xbde913ef	-0.11380755
121	0xbe095272	-0.13410357
122	0xbe310f3b	-0.17290966
123	0xbe263e83	-0.16234784
124	0xbe29ccec	-0.16582078
125	0xbed3e9e9	-0.41389397
126	0xbde5c161	-0.11218525
127	0xbe239c5a	-0.15977612
128	0xbe0ffa21	-0.1406026
129	0xbe2baab8	-0.16764343
130	0xbe18da47	-0.14927016
131	0xbd8e0458	-0.06934422
132	0xbe1a22c5	-0.15052326
133	0xbe243e5a	-0.1603941
134	0xbeb9f9df	-0.3632345
135	0xbdaab37d	-0.08335016
136	0xbe55dd81	-0.20885278
137	0xbe13743f	-0.14399813
138	0xbdf3383b	-0.118759595
139	0xbe2631e2	-0.16229966
140	0xbe1b0903	-0.15140156
141	0x3ddba6b2	0.10725154
142	0xbe5d6296	-0.21619639
143	0xbe82a069	-0.25513008
144	0xbf52ada0	-0.8229618
145	0xbe051afe	-0.12998578
146	0xbf33fde7	-0.703093
147	0xbddd1559	-0.10795087
148	0x3dec9423	0.11551692
149	0xbefe9155	-0.49720255
150	0xbe08e94b	-0.13370244
151	0xbe0b3c94	-0.13597327
152	0xbe03facb	-0.12888639
153	0xbe420ca8	-0.1895014
154	0xbe20d73b	-0.15707104
155	0xbe4ef497	-0.20210491
156	0xbdafdee2	-0.085874334
157	0xbec52fa1	-0.385129
158	0xbe4e7a25	-0.20163782
159	0xbde34a63	-0.110981725
160	0xbe2297de	-0.15878245
161	0xbf2b3dcf	-0.6689119
162	0xbe88593d	-0.26630583
163	0xbd86705a	-0.06564398
164	0xbeaec1af	-0.34132144
165	0xbe13c573	-0.1443079
166	0x3de2706a	0.110565975
167	0xbddafe02	-0.106929794
168	0xbe0cd843	-0.13754372
169	0xbe46da18	-0.19419134
170	0xbe35029c	-0.17676777
171	0x3d7974cd	0.060902406
172	0xbde85caa	-0.11345799
173	0x3d76e917	0.060280886
174	0xbf192615	-0.59823734
175	0xbdf25d3b	-0.118341886
176	0xbe0f8c79	-0.1401843
177	0xbe08682b	-0.13320987
178	0xbf401a71	-0.75040346
179	0xbe135f6b	-0.14391868
180	0xbcebe2f0	-0.028794736
181	0xbe48c0c6	-0.19604787
182	0xbdf1ab34	-0.118002325
183	0x3b37c522	0.0028041084
184	0xbde5f219	-0.11227817
185	0xbe1cf106	-0.15326318
186	0xbd7c8b5f	-0.061656352
187	0xbdfd5b6b	-0.12370952
188	0xbdc7a0ce	-0.09747468
189	0xbf50ab14	-0.81511045
190	0x3dc146bf	0.09437322
191	0xbe261832	-0.16220167
192	0xbe368432	-0.17823866
193	0x3dd988c3	0.10621788
194	0x3b2cae07	0.0026348846
195	0xbe672f3e	-0.22576615
196	0xbe61427f	-0.21998022
197	0xbe16b3ff	-0.147171
198	0xbe7d2efd	-0.24724956
199	0xbe4d64be	-0.20057961
200	0xbb7e11e4	-0.0038767988
201	0xbb623779	-0.0034517928
202	0xbcfa361a	-0.030543376
203	0x3dceadd3	0.10091748
204	0xbe2e559e	-0.17024848
205	0xbf66b6cf	-0.90122694
206	0xbe1d5be2	-0.15367082
207	0x3de55071	0.111969836
208	0xbdea7bf9	-0.11449427
209	0xbe11ed78	-0.14250743
210	0xbe7d03d2	-0.24708489
211	0x3d8e909e	0.06961177
212	0xbea5934a	-0.32338935
213	0xbdef94aa	-0.11698277
214	0xbd13d552	-0.03609211
215	0xbe03b457	-0.12861763
216	0xbf1959ba	-0.59902537
217	0xbe2776d5	-0.16353925
218	0x3bd7c94b	0.0065852753
219	0xbd4c422f	-0.049867805
220	0xbde472e6	-0.11154728
221	0xbdf38b5e	-0.118918166
222	0xbdc3eadb	-0.095662795
223	0xbe0ea67d	-0.13930698
224	0xbdb3c1dc	-0.0877721
225	0xbe060211	-0.13086726
226	0xbe6349de	-0.22196147
227	0xbcfa5a39	-0.0305606
228	0xbe8da40f	-0.2766423
229	0xbd9849d4	-0.074359566
230	0x3d5db74c	0.054129884
231	0xbde1bda0	-0.11022496
232	0xbe0dde9e	-0.13854453
233	0xbe3403b4	-0.17579538
234	0xbe0682f6	-0.13135895
235	0xbcf4b47f	-0.029871223
236	0xbe00441e	-0.12525985
237	0xbd41c567	-0.0473074
238	0x3d8565fb	0.06513592
239	0xbd20f49e	-0.039295785
240	0xbe53a635	-0.20668872
241	0xbe1381ba	-0.14404956
242	0xbe4ef057	-0.2020887
243	0xbe1b3304	-0.1515618
244	0xbcf05178	-0.029335722
245	0xbdefec00	-0.11714935
246	0xbd9c6311	-0.07636083
247	0xbe1859e0	-0.14878035
248	0xbce43e8d	-0.027861858
249	0xbe369bc2	-0.17832854
250	0xbf321749	-0.6956678
251	0xbdb42f53	-0.08798089
252	0xbe6b76a2	-0.22994474
253	0xbdf39f5a	-0.11895628
254	0x3de5f7fb	0.11228939
255	0xbdee4beb	-0.11635574
