model/model_20210803_043938.pt (torch, 321292 bytes, 45 tensors)

fc1.weight f4 [256, 14]
000000 29 f6 97 be 2f 29 64 3f 54 59 0b c5 6f 24 5d 42
       -0.29679993 0.8912534 -2229.583 55.28558
000010 28 32 32 c4 72 df be c4 51 aa 89 c4 11 85 89 44
       -712.7837 -1526.9827 -1101.3224 1100.1583
000020 63 ce 40 c5 8d 5c 96 c5 ba 36 2c c3 c5 9d ec c4
       -3084.8992 -4811.569 -172.21378 -1892.9303
000030 3d 92 9f 44 f6 0a cf c2 96 8c 0e bf b7 0a 42 3f
       1276.57 -103.52141 -0.5568327 0.757976
000040 8b 28 8e be 50 4c 08 3f bc 2b 2a 3e 37 1a 5f bf
       -0.27765307 0.53241444 0.16618246 -0.87149376
000050 38 fb fd be 9f a7 4b 3f af 7d de 3e 87 ae 00 bf
       -0.49605727 0.79552644 0.43455264 -0.5026631
000060 d8 d7 2a bf 1b 9a 32 bf 12 c8 2c 3f dd 9d 27 3f
       -0.667356 -0.69766396 0.67492783 0.65475255
000070 b0 f1 4a 3f 40 1c 2a 40 d2 24 21 3f 3c 88 ca be
       0.79275036 2.6579742 0.6294681 -0.39557064
000080 f8 92 b7 3e 1a 09 17 40 f0 f6 0c 40 15 4e 48 c0
       0.35854316 2.3599305 2.2025719 -3.1297657
000090 cd 9a a4 3f fe ac dd 3f 5e 7c 3b 3f d5 85 25 3f
       1.2859741 1.7318418 0.73236644 0.64657336
0000a0 d1 bc d8 bf c4 7b 3a bf 7e fa 5d bf 84 8d f2 3e
       -1.6932622 -0.728451 -0.86710346 0.47373593
0000b0 0e 98 26 bf c0 60 59 be f4 c6 8e 3d a3 95 b6 be
       -0.6507577 -0.21228313 0.06971541 -0.3566104
0000c0 39 d4 03 be 86 4d e0 bd 09 b2 92 3e 25 99 af 3e
       -0.12873925 -0.109522864 0.28651455 0.34296528
0000d0 3c 95 78 3e 33 0d 32 be cd 27 99 3d d9 84 6d 3e
       0.24275678 -0.17387848 0.074782945 0.23195209
0000e0 72 52 bc be 8d cc d1 3e 79 1b cf 3f 3c 0a c2 be
       -0.3678165 0.40976372 1.6180259 -0.37898433
0000f0 90 ab e7 3e fb d2 e9 3f 53 75 cf 3f 11 7d f5 bf
       0.4524808 1.8267511 1.620768 -1.9178792
000100 dd 85 91 3f e8 be b6 3f 9e 7b 05 3f 96 58 92 3f
       1.1368977 1.427701 0.5214175 1.1433284
000110 3a 33 a2 bf c8 2c 70 bf 8f 9f e7 c0 c0 b4 6a 41
       -1.2671883 -0.9381833 -7.2382274 14.669128
000120 8b ed 28 c1 5c 2a 93 40 48 f6 1e 40 26 10 07 41
       -10.557994 4.598921 2.4837818 8.4414425
000130 14 be 98 40 21 a3 0f c1 20 05 01 c0 7a 20 b8 40
       4.773203 -8.977326 -2.0159378 5.7539644
000140 8c 54 5d 40 43 85 d7 40 85 76 0c c1 13 ac 89 c0
       3.4582853 6.7350173 -8.778935 -4.302255
000150 95 b3 0c c0 5b 0c 2f c0 80 21 ed c0 a0 8c 4e 3e
       -2.1984608 -2.735129 -7.4103394 0.20170832
000160 c4 91 0b be 21 df 55 bf 6d 20 30 3f d9 10 c0 3f
       -0.13629824 -0.8354359 0.6879948 1.5005141
000170 84 3f 86 be c1 22 56 3e 1b 92 89 be ec aa 90 bd
       -0.26220334 0.20911695 -0.26869282 -0.07063851
000180 8e d5 98 be 47 74 69 be 1c 5d 56 3f ec e8 8c bf
       -0.2985043 -0.22798263 0.83735824 -1.1008582
000190 81 78 1c c0 a3 6a 87 3e 59 c3 d0 be 95 45 43 c0
       -2.444855 0.26448545 -0.40774038 -3.051122
0001a0 18 06 60 c0 e7 32 2b 40 5d 85 6a bf a4 d9 e8 bf
       -3.500372 2.6749818 -0.91609746 -1.8191419
0001b0 cc 84 98 3e 65 a0 f1 bf da 21 10 40 3c 73 2f 40
       0.29788816 -1.8877074 2.2520661 2.7414083
0001c0 6c ab ad 3f ee 47 2d 40 f0 27 21 be 72 72 1f 3f
       1.3567939 2.7075152 -0.15737891 0.62284005
0001d0 a5 b7 04 3e a7 31 fe bd 42 c9 fc 3e 4b 26 80 3e
       0.1296068 -0.12411814 0.49372298 0.25029215
0001e0 6b 07 96 be c8 d8 0c 3f f0 b0 d0 3e 4e 76 bf 3e
       -0.29302534 0.5501828 0.40759993 0.37394947
0001f0 5d d1 35 3f af cc 86 3e 9b 15 4c 3f 2e d8 d5 be
       0.7102259 0.26328036 0.7972047 -0.41766495
000200 4b c5 9c be 1e 37 db 3e e3 6d 3a be 87 7e 16 3e
       -0.30619273 0.4281549 -0.18205981 0.14696704
000210 3f 74 51 3e f3 5b c8 3e a4 38 91 be 5c 05 ed 3d
       0.204545 0.39132652 -0.28363526 0.11573288
000220 24 f6 b9 be 6b ae 31 3e c7 82 80 bd 7f f2 f8 3d
       -0.36320603 0.17351691 -0.06274944 0.121556275
000230 36 96 85 3f c8 8c 2c bf 53 b0 71 3f 8e f1 82 be
       1.0436466 -0.67402315 0.94409674 -0.25574917
000240 56 4e bf bd a3 28 01 be f8 13 ae 3e 96 0d c2 bd
       -0.09341113 -0.12613158 0.3399961 -0.094752476
000250 f8 e5 29 3c 9d 1b f4 3d c1 b8 10 3e 98 19 1a bd
       0.01036977 0.11919329 0.14132978 -0.037622064
000260 c5 0d 99 3d 5f 8c 98 be 28 df 6f bf 69 cd a2 3e
       0.074733295 -0.29794595 -0.93699884 0.3179734
000270 4a d2 24 3f ca d7 c6 be 66 ea c8 bd 23 8f 12 be
       0.64383376 -0.3883651 -0.09810333 -0.14312415
000280 f5 b2 c8 be 8b c3 29 be a3 d2 39 bd 01 c4 db bd
       -0.39199033 -0.165785 -0.045366894 -0.10730744
000290 66 11 24 3e 28 26 bb bd f5 e6 4d 3c 49 62 0b be
       0.16022262 -0.09138137 0.0125672715 -0.13611712
0002a0 fb 45 fc be 39 cb 6e bf 13 0b a1 bf f9 91 11 be
       -0.4927214 -0.93278843 -1.2581505 -0.1421584
0002b0 aa 2b 34 3c 42 64 45 3d 24 d5 e0 3d 1a 73 c4 3e
       0.010996738 0.048191316 0.10978153 0.38369066
0002c0 5e f3 b7 be 24 95 3a 3d 08 40 98 be a2 82 39 3e
       -0.35927862 0.045552388 -0.29736352 0.18116239
0002d0 54 14 34 bd 91 eb 9a bd 9c 68 2e bf 1e 56 9d bf
       -0.0439647 -0.07564462 -0.6812837 -1.2291906
0002e0 b3 ea 89 3f da b0 01 3f 79 2a 0d bd 16 82 25 bf
       1.077475 0.5066048 -0.034464333 -0.6465162
0002f0 27 d7 30 3e 5c ec 65 3e e1 53 0a 3e be 2d 27 3f
       0.17269574 0.22453445 0.1350856 0.6530417
000300 ff 0c 87 3e ed 57 b4 3d ee 76 0c bf ca 3b 20 bf
       0.26377103 0.08805833 -0.5486897 -0.6259123
000310 68 3f 05 3f 5a cc 9d bf f8 ed 96 bf dc 73 4b bf
       0.52049875 -1.2327988 -1.1791372 -0.7947366
000320 a7 ca 44 3e 21 ed a4 bf d1 86 9e bf 0c ed 70 3f
       0.1921793 -1.2884866 -1.2384893 0.94111705
000330 f0 a7 90 bf 9f 44 80 bf 2b 89 71 3e e9 c3 5e bf
       -1.130125 -1.0020941 0.23587482 -0.87017685
000340 a9 b0 88 3f fd 57 18 3e 82 a3 d4 bf 5e bb 0f bf
       1.0678912 0.14877315 -1.6612399 -0.56145275
000350 ac e4 b7 c0 cf 2d 0a bf 91 3c c3 3d 9c 63 aa be
       -5.746664 -0.5397615 0.095330365 -0.3327912
000360 a4 62 85 bd 04 fa 9b 3e 9d a5 d3 3d 34 13 06 bf
       -0.06512955 0.30464184 0.103343226 -0.5237305
000370 d1 76 6d 3e 48 df 38 3d 85 3a d8 3d 32 3d 96 be
       0.23189856 0.045134813 0.10558037 -0.29343563
000380 da 25 30 3f 9c f5 90 bf 06 4b 4f 3e dc 5a 84 3e
       0.68807757 -1.1324954 0.20243463 0.2585057
000390 a7 8d 5f 3d a1 0d 4d 3e 94 85 35 be ce 81 df 3d
       0.05457845 0.2002473 -0.17726737 0.1091343
0003a0 f6 a8 88 be f6 7a a4 3e 6b 7f 9e bd 12 41 01 3e
       -0.26691407 0.32125062 -0.07739147 0.12622479
0003b0 9c cd 0e 3d cc 95 c0 be 19 0e 44 3f b6 94 38 bf
       0.034864053 -0.37614286 0.7658401 -0.72101915
0003c0 3d 37 e9 bf fa dc 90 3f c8 6e e8 be 18 19 34 c0
       -1.8219982 1.1317437 -0.4539702 -2.8140316
0003d0 4b b3 37 c0 46 af 25 40 29 20 d7 bf f8 36 05 c0
       -2.8703182 2.5888228 -1.680669 -2.08148
0003e0 03 f0 da bd ed c3 ee bf ad d8 1d 40 48 ea b1 3f
       -0.1069031 -1.8653542 2.4663498 1.3899622
0003f0 53 2f 8b bf 0e 39 48 3f ff e2 1b c5 62 5d fe 41
       -1.0873817 0.7821206 -2494.1873 31.795597

fc1.bias f4 [256]
000000 94 6f 12 bc b1 01 70 be f0 59 60 be de 98 30 be
       -0.008937735 -0.23438145 -0.21909308 -0.17245814
000010 42 1e 62 3b a9 20 f4 bd e7 49 88 be 92 b2 28 3c
       0.0034502898 -0.11920292 -0.26618883 0.010296481
000020 48 79 1e be 06 7f 40 be 67 68 35 bc e8 f7 5a 3d
       -0.15475953 -0.18798456 -0.011072255 0.053459078
000030 da 0f 24 3e f1 ce 9c bd 15 0b 3e be 09 20 1f 3d
       0.16021672 -0.076566584 -0.18558915 0.03884891
000040 b6 1f 35 3e 5f 59 eb 3d b3 61 93 3d c2 0e 6d 3e
       0.17687878 0.114916556 0.07196369 0.23150161
000050 0a 0e 87 be 1c 83 64 3e 83 b1 d9 3d ff a6 22 bd
       -0.26377898 0.2231564 0.10629561 -0.03971004
000060 80 1c cf 3d f3 ec 31 be ad 37 2c be 93 fc 44 3e
       0.10112858 -0.17375545 -0.16818114 0.19236974
000070 52 b4 68 be 21 c2 51 3e 37 fd 4e be 2f 4c 64 be
       -0.22725037 0.2048421 -0.20213781 -0.22294687
000080 8c a8 46 bd 23 7d 4b be f5 e8 05 3e 97 95 96 bd
       -0.048500583 -0.19871955 0.13077147 -0.07352751
000090 08 0f 10 bd 49 bb e1 bd 44 eb 24 be 92 c0 50 3e
       -0.035170585 -0.1102205 -0.16105372 0.2038596
0000a0 47 9f 04 be a8 f4 41 be 9f 28 2f be 83 b1 a4 3d
       -0.12951384 -0.18940985 -0.1710534 0.0804167
0000b0 dc 8a 59 3e 9f 7e a9 3d 3b 20 5f 3e 1a 96 3b 3e
       0.21244377 0.08276104 0.21789639 0.18318978
0000c0 cd fc 4e 3e 7d b9 cb bd a5 8f 3b be 9d bf f4 bd
       0.20213623 -0.099474885 -0.18316515 -0.1195061
0000d0 e6 58 46 be 19 e9 5b be 80 df 72 3e 83 c9 5a 3e
       -0.1936985 -0.21475638 0.23718071 0.21365933
0000e0 40 e3 aa bd 7c 98 85 be 2a 91 53 3e 3e 3b c8 bd
       -0.08344126 -0.260929 0.20660844 -0.097769246
0000f0 4c 52 bc 3d 4e f7 12 be 2d 24 75 3e 15 ed 15 3e
       0.091953844 -0.14352152 0.23939581 0.14641221
000100 db c7 1d 3d ae fa 65 3e 90 fc ae 3d 8b e4 57 bc
       0.038520675 0.22458908 0.08544266 -0.0131770475
000110 71 50 6f be 42 83 86 be d6 63 b7 3c 21 9b 08 3e
       -0.2337053 -0.26272017 0.022386473 0.13340427
000120 65 02 7e 3d e7 ea 0a 3e 01 8f 1f 3e 3a c3 fd bd
       0.062014002 0.1356617 0.15581895 -0.12390752
000130 6e 23 24 be de 4a 7f 3e d7 18 b6 bd 70 11 6f be
       -0.1602914 0.24930903 -0.088914566 -0.23346496
000140 20 75 92 bd 10 58 28 3e f4 4c 3e 3e 2e af 67 3e
       -0.07151246 0.16439843 0.18584043 0.2262542
000150 21 88 55 3e e3 3b 46 be bf f1 19 3b bb e4 ec 3d
       0.2085271 -0.19358782 0.002349004 0.115670644
000160 a7 55 77 be a8 81 7d be 3d 09 35 be 80 6c 25 3e
       -0.24153768 -0.24756491 -0.17679305 0.1615467
000170 16 e2 26 3e 38 5e ef 3d 96 56 19 be af 8a 4e be
       0.16297182 0.11687893 -0.14974436 -0.20170091
000180 be ed ea 3c e7 0b 9b bd 78 c9 49 be db 8a 9e 3c
       0.028677817 -0.075706296 -0.1970576 0.01935332
000190 b1 b1 6a be ab 56 64 3e 84 cf 05 be b0 a9 88 bb
       -0.22919346 0.22298686 -0.13067442 -0.004170619
0001a0 00 e7 ec 3d 53 20 5c 3e f5 76 02 bd a0 a6 08 be
       0.11567497 0.21496706 -0.031851728 -0.13344812
0001b0 cb c2 c1 bd 66 ce 85 be 02 82 6a 3e 3b 06 f0 3d
       -0.09460982 -0.26134032 0.22901157 0.11719938
0001c0 d5 b1 2f be 99 f5 0d 3e cb 05 82 3d 19 40 a9 3d
       -0.17157681 0.1386322 0.06348761 0.08264179
0001d0 1b d9 66 be 99 61 34 be e2 34 5a 3e c6 e0 ef 3d
       -0.22543757 -0.17615356 0.21309236 0.11712794
0001e0 31 fd ec bd 69 15 54 be 4e 5f 80 be 15 7e ab 3d
       -0.1157173 -0.20711292 -0.25072712 0.083736576
0001f0 24 9b e1 bd 6c 5b ed bd d0 d5 d8 3d 8a 64 90 3d
       -0.11015919 -0.11589703 0.105876565 0.07050426
000200 cf 17 f3 3b 43 a5 ba 3d 0f f3 86 3e 08 ae 6d 3b
       0.0074186097 0.091135524 0.26357314 0.003626706
000210 42 30 49 be 0c ca e0 3d 01 89 94 3c 3a 48 a9 3d
       -0.19647315 0.109760374 0.018131735 0.08265729
000220 38 a7 b5 bd ab 58 2c bd 1a 3a bd 3d 4f b0 7c 3d
       -0.08869785 -0.042076748 0.092395976 0.06169158
000230 4e 9e cd 3d bd 69 93 3d e4 69 4d be e1 a4 e6 3d
       0.1003996 0.07197902 -0.20059925 0.11261917
000240 e2 6e b9 bd 8a 72 71 be c0 f7 63 bd c9 1d 91 3c
       -0.09054352 -0.2357885 -0.055656195 0.017714398
000250 0a bb 83 be e3 32 88 3e 79 32 ed 3d 70 b2 51 3e
       -0.25728637 0.26601323 0.115818925 0.20478225
000260 e9 d0 05 be 4b f0 1e bd ba b3 44 be 91 24 87 bd
       -0.13067974 -0.03880338 -0.19209185 -0.06598771
000270 d4 3a 1d 3e 90 72 25 be d2 ab 46 bb 5e 6a d8 3d
       0.15354472 -0.16156983 -0.0030314815 0.10567163
000280 58 44 35 be 47 9b 51 be e0 fb 17 be 70 0a 69 3e
       -0.17701852 -0.2046939 -0.14842176 0.22757888
000290 71 7d 87 3d f5 ac 87 be 90 8b cf 3d 00 8e 1f be
       0.06615723 -0.26499143 0.10134041 -0.15581512
0002a0 0b af 9f bb f5 8f 5e be 98 55 01 be 18 ed 83 3e
       -0.0048731617 -0.21734603 -0.12630308 0.25766826
0002b0 76 45 87 3d 3b 1d 33 3d d1 a7 29 be 4c 31 04 bd
       0.066050455 0.04372905 -0.16567923 -0.032273576
0002c0 ab 86 7e be 2a 28 52 be df 47 4a be e9 0e 7d 3d
       -0.24856059 -0.20523134 -0.19753979 0.061781798
0002d0 65 0c 5d 3e 1c d0 5e be 1a f8 2f 3e 26 bd 3d 3e
       0.2158676 -0.21759075 0.17184487 0.18529186
0002e0 94 26 13 be bc 25 c8 bd 50 44 38 bd 9f 39 25 be
       -0.14370185 -0.09772822 -0.044987023 -0.16135262
0002f0 02 29 6a bd 8c 40 1d 3e 90 05 01 3e d1 ee a7 bd
       -0.057168014 0.15356654 0.12599778 -0.081998475
000300 45 f3 77 3d ee 8e 7c 3e e5 61 89 3d 8b 0a 02 be
       0.060534734 0.24663898 0.06708125 -0.12699334
000310 dc a6 e8 bd a8 94 18 3e e1 c4 e2 bd 46 ec 75 be
       -0.11359951 0.14900458 -0.11072708 -0.24015912
000320 08 ae b8 bd d5 b7 62 be ef 7a f6 bd 97 49 c3 bc
       -0.09017569 -0.22140439 -0.120351665 -0.023838801
000330 a7 27 68 3e 2e b9 df bd 28 fc c9 3c 45 53 b7 3d
       0.22671376 -0.10923992 0.02465637 0.08951429
000340 af 13 fd bd 6c e5 26 bd 15 05 b0 bd 75 2f 3c bb
       -0.1235727 -0.040746137 -0.08594719 -0.002871481
000350 0e 47 84 be 2c e8 9e 3d 02 97 71 3e 9b bf 9f bd
       -0.2583546 0.07759127 0.23592761 -0.07800218
000360 18 4a 31 bc 9c 68 32 bd 83 6e 24 be 49 af 43 ba
       -0.010820888 -0.043556795 -0.16057782 -0.0007464779
000370 ce ec 68 3e 4c 9a 38 3e 22 76 f4 3d 6d 9e ff bd
       0.22746584 0.1802761 0.119365945 -0.12481389
000380 f6 c5 2d be fc 89 43 3e 91 ed 71 bb 28 cf 29 3d
       -0.16970047 0.19095606 -0.0036915282 0.041457325
000390 f1 55 6a bd 14 54 07 3e 45 69 8a bd 0f 80 85 3d
       -0.057210866 0.13215667 -0.0675836 0.06518566
0003a0 98 91 bb 3d 74 aa 95 bd af e0 a8 3d b6 c6 e7 3d
       0.09158629 -0.07307902 0.0824598 0.11317198
0003b0 98 7d ea 3c dc e5 c5 3d 19 58 48 3e 87 f6 43 be
       0.02862434 0.09662983 0.19564857 -0.19137011
0003c0 15 05 7b 3e db 67 60 3e 3f 2c 53 be cb 66 24 be
       0.24513657 0.21914618 -0.20622347 -0.16054837
0003d0 95 82 2a 3d d4 cf 1c be 4d 73 45 3e bc 2b 52 3c
       0.04162844 -0.15313655 0.19282265 0.01282781
0003e0 80 85 a2 bd 3a ec 84 be 86 91 82 be 0f 04 30 bd
       -0.07935619 -0.25961477 -0.2550165 -0.04297262
0003f0 b6 15 85 be 0d 2a 88 be 38 88 13 be 02 c4 9f 3d
       -0.25993127 -0.26594582 -0.14407432 0.078010574

fc2.weight f4 [64, 256]
000000 92 7c 8b c0 70 aa 2a 3f ab ee dd bf 60 66 26 bf
       -4.3589563 0.66666317 -1.7338461 -0.6499996
000010 93 50 cf 3e e3 0b 0a bf a2 e0 c2 bf bf 42 ff bf
       0.4049116 -0.5392439 -1.5224802 -1.9942244
000020 a5 63 35 bf 8f 78 89 3e 93 00 89 be 89 60 86 3e
       -0.7085517 0.2684979 -0.2675825 0.26245525
000030 c6 9e 62 be d5 5c eb 3e af 91 0b c0 ea d0 39 bf
       -0.2213088 0.45969263 -2.1807668 -0.725844
000040 2c 76 38 be c1 82 b9 bf a1 0e 98 c0 c3 57 4a bf
       -0.18013829 -1.4493028 -4.7517858 -0.79040164
000050 da 6f 45 bf 52 98 a1 3e 02 8f 12 be 29 56 03 3f
       -0.77123797 0.31561524 -0.14312366 0.51303345
000060 af 34 39 be 98 e2 4d bf ec 70 3e bf a0 96 39 bf
       -0.18086503 -0.8042388 -0.74391055 -0.7249546
000070 8d 6d c4 3e fc 46 83 3f a2 95 6d bf a3 1b 81 be
       0.3836483 1.0256038 -0.92806447 -0.25216398
000080 a7 44 44 bf 8c 78 36 bf a7 69 43 c0 35 c6 42 bf
       -0.76667255 -0.7127769 -3.0533235 -0.7608369
000090 21 85 b4 3e fa c7 98 bf ba 2b db be ee 3a 5e bd
       0.3525782 -1.1936028 -0.42806798 -0.05425542
0000a0 9f 54 17 bf 3b a8 3c bf 58 19 91 3f 59 f8 92 3f
       -0.59113497 -0.736942 1.1335859 1.148204
0000b0 ff f5 c0 bd bd ed a6 3f 13 6c 6d 3f 79 00 59 3f
       -0.0942192 1.3041302 0.92743033 0.84766346
0000c0 81 4c 49 bf d9 51 e0 3e 07 fb 35 c0 e2 1d f3 3e
       -0.7863236 0.43812445 -2.8434465 0.47483736
0000d0 b3 c0 d1 bf 8b d3 a1 3e be f0 fb 3e bd 58 bf bf
       -1.6386932 0.31606707 0.4920711 -1.4948956
0000e0 e2 2b 49 bf 75 4a 74 bf 54 73 e8 be 49 37 1e bf
       -0.78582585 -0.9542611 -0.45400488 -0.6180311
0000f0 6b 9b 74 bf 70 22 31 bf e1 58 65 bf 20 c1 89 be
       -0.9554965 -0.6919317 -0.89588743 -0.26905155
000100 41 f3 dd bf 28 00 80 be 93 0b 62 c0 c6 0b c3 be
       -1.733986 -0.2500012 -3.5319564 -0.3809492
000110 73 23 f0 3e aa ab 20 bf d3 1d 9d bf 8a d6 1f c0
       0.46902046 -0.6276194 -1.2274727 -2.4974694
000120 da 40 6b bf ab 24 71 c0 10 a1 12 c0 82 ff 0b 3f
       -0.9189583 -3.767863 -2.2910805 0.5468675
000130 dc d6 41 bf ad 27 b5 bf db 02 65 bf c6 ca 1a 3f
       -0.75718474 -1.4152733 -0.8945748 0.6046566
000140 e6 84 ac be 60 dc 6f 3f e1 14 d8 3e bb 07 53 bf
       -0.33695143 0.9369564 0.4220343 -0.8243367
000150 b1 d0 18 bf 8b 94 49 bf a9 3c 2f c0 ea 81 2d bf
       -0.5969344 -0.78742284 -2.7380774 -0.6777636
000160 dc 38 6d be cf 76 18 c0 a1 4a e1 3e 4a 47 88 3c
       -0.23166221 -2.3822515 0.4400225 0.016635556
000170 2a 82 fb be 47 63 f9 3e bf 4f e7 be 8b 1a 7a be
       -0.49122745 0.48708555 -0.4517803 -0.24424188
000180 63 73 23 bf d8 d8 3e bf 6d de 31 bf 74 d9 ec be
       -0.6384794 -0.7454963 -0.6948002 -0.46259654
000190 f6 2f 7f 3e 18 c3 68 c0 2d 32 01 c1 da 61 3a bf
       0.2492064 -3.6369076 -8.07475 -0.7280556
0001a0 f0 b0 d6 c0 68 8d 50 bf 6d 2f e9 3e 19 4e 0f 3f
       -6.709099 -0.8146577 0.45543995 0.5597854
0001b0 8e 49 fd bf 53 a7 e0 3e 37 ac 77 be a6 22 c4 3d
       -1.9788072 0.43877658 -0.24186788 0.09576921
0001c0 d5 f3 29 bf 4b 52 c2 bf ef 88 33 bf c7 34 ea 3e
       -0.66387683 -1.5181364 -0.7013082 0.4574339
0001d0 b2 53 d9 3e 5e 06 38 c0 0a c3 45 bf 66 5a be 3e
       0.42446667 -2.8753886 -0.7725073 0.37178344
0001e0 9d 1e a2 c0 03 9c 1a 3f 8a ce 30 bf 93 73 1a c0
       -5.066237 0.60394305 -0.69065154 -2.413304
0001f0 8d dc 4e bf 04 60 94 bf 4b b7 94 3e 1c 1b 45 bf
       -0.80805284 -1.1591802 0.2904609 -0.7699449
000200 24 e0 70 3d 46 2d 0f be 4f df df c0 d0 39 eb bf
       0.058807507 -0.13982114 -6.9960093 -1.8377018
000210 b0 4a fd bc ff 57 cb bf 8f a1 94 bf e3 cc d1 be
       -0.030919403 -1.5886229 -1.1611804 -0.4097663
000220 b7 94 3e bf 1c d5 1a be c7 ff cc be 26 45 1d be
       -0.7444567 -0.15120357 -0.40038893 -0.1535841
000230 b2 9f f5 bf 0b 2e f0 bd 4d 2f 84 bf 80 e7 05 bf
       -1.918936 -0.11727532 -1.0326935 -0.52306366
000240 45 67 19 c0 45 18 ef bf 43 32 27 3f 16 3d 17 3f
       -2.396928 -1.8679281 0.6531107 0.59077585
000250 6e 4f 8f bf fd 8b ce 3e 7d 9b 0d c0 0c 1a 14 bf
       -1.1196115 0.40341178 -2.2126153 -0.57852244
000260 bb 8b 0a 3f fe c4 9e be f6 23 29 bf 50 a0 c7 3f
       0.5411946 -0.31009668 -0.660705 1.5595798
000270 0c ec 2d bf 4f 6b 6e 3f ec 43 df 3e fe d7 97 bf
       -0.67938304 0.9313249 0.43606508 -1.186279
000280 2f ec 19 c0 47 42 c7 3e 3a 65 d5 3e 94 fb 09 3f
       -2.4050405 0.38917753 0.41678792 0.538995
000290 4c 6e 56 bf d8 2a cf c0 6e f3 25 bf a4 f0 36 bf
       -0.8376205 -6.47398 -0.6482457 -0.7146094
0002a0 d9 09 d9 3e a8 f2 20 bf 3d f0 c9 3e 69 0c 44 c0
       0.42390326 -0.62870264 0.394411 -3.0632575
0002b0 bc 04 11 c0 cf 22 51 bf 6e ec 15 bf 61 19 08 3f
       -2.265914 -0.8169374 -0.5856389 0.53163725
0002c0 22 bd 88 3e f0 03 14 bf 2b fa 2a bf 61 a9 35 bf
       0.26706797 -0.5781851 -0.66787976 -0.70961577
0002d0 6d ba 39 3f 89 2a fb 3e 0c 58 b1 bf ea b5 10 3f
       0.7255009 0.4905589 -1.3854995 0.5652758
0002e0 3e e5 11 c0 6c 22 91 3e 7f 33 25 c0 1e 00 0f bf
       -2.2796168 0.28346574 -2.581268 -0.55859554
0002f0 57 85 3c bf 0b d1 f4 bf 2d c6 4f bf 4a 0e 38 bf
       -0.7364096 -1.9126295 -0.8116177 -0.71896803
000300 6e 7e 24 bf 31 c1 09 3f 66 70 13 3f 75 0a 6d 3f
       -0.64255416 0.5381041 0.5759338 0.9259408
000310 76 b3 27 bf 8c 48 9e 3e 0e 67 1d 3f 14 df 26 bf
       -0.6550821 0.30914724 0.61485374 -0.6518414
000320 68 04 81 c0 46 ad 67 c0 67 67 25 be 2f 99 b4 be
       -4.031788 -3.6199508 -0.16152726 -0.3527312
000330 3e 53 23 bf f6 62 58 c0 b8 dd 31 be 94 12 0d 3f
       -0.6379889 -3.38104 -0.17369735 0.5510647
000340 00 01 01 c0 33 11 29 bf c9 5b 2f c0 0e 52 16 bf
       -2.015686 -0.6604187 -2.7399771 -0.58718956
000350 56 41 24 bf 8e 7c 8b bf 29 ec c0 be ad 63 89 be
       -0.64162195 -1.0897386 -0.37680176 -0.2683386
000360 ff 82 16 bf 73 82 31 bf 63 67 6f 3e de ee 4d be
       -0.58793634 -0.69339675 0.23379283 -0.20110652
000370 78 9d ae c0 89 46 a0 bf fa bd e4 be 51 5e 4d bf
       -5.4567223 -1.2521526 -0.4467619 -0.8022204
000380 a7 4c b0 3e f3 56 11 be be 13 3a be 3c e8 0d 3f
       0.3443348 -0.14193325 -0.18171594 0.55432487
000390 70 b1 2d be 3f 6b cb 3d d9 56 4a bf cb b0 82 be
       -0.16962218 0.09932565 -0.7903877 -0.25525507
0003a0 ee 1f 24 bf 78 e8 0d 3f 6b af fb bb ae 00 87 bf
       -0.6411122 0.55432844 -0.0076808236 -1.0547082
0003b0 8a f2 30 bf 24 0c 81 bf 52 44 8f bf 44 21 4f bf
       -0.69120085 -1.008183 -1.1192725 -0.80910134
0003c0 6b 61 4b 3d 45 0c 18 bf e3 35 78 bd a8 88 04 c0
       0.049653452 -0.5939372 -0.060598265 -2.0708408
0003d0 00 1a 7e be a7 7d 2f c0 3e 1a 76 bf 5a 9e ac bf
       -0.24814606 -2.7420442 -0.9613379 -1.3485825
0003e0 1a e8 0e 3f 48 f3 b2 bf 25 f8 80 3f 0f 23 8e c0
       0.5582291 -1.3980494 1.0075728 -4.4417796
0003f0 71 c7 b4 3d 0b 76 3d bf 8c 9b 7d 3f ae b0 11 c0
       0.08827103 -0.74008244 0.9906547 -2.2764087

fc2.bias f4 [64]
000000 9c c4 df 3d 55 cb 45 3a 75 71 ed bb 56 71 21 3d
       0.10926172 0.00075452524 -0.007246191 0.039414726
000010 95 9f 51 bc bc 48 f6 3b ee 68 14 3e 69 3e 1f bd
       -0.012794395 0.007515995 0.14493152 -0.03887788
000020 32 8d 71 bd 51 1e d5 3b b1 a6 57 bb d1 d0 96 3d
       -0.058972545 0.006503858 -0.0032905752 0.07364047
000030 89 db e9 bd 00 11 06 bd 20 d3 7c 3d 9f 7a 25 bd
       -0.11418826 -0.032731056 0.061724782 -0.040400144
000040 64 96 4a 3b 95 4e 0f bc 7e 44 56 3e b0 0a 46 bd
       0.0030912394 -0.008746763 0.20924565 -0.048350036
000050 b1 28 ee 3d f8 69 55 3e eb 83 be 3d b7 84 64 bd
       0.11628855 0.20841205 0.09302505 -0.05579063
000060 f9 11 0b 3e 47 56 14 3e 26 30 02 bd 45 ae 68 bd
       0.13581075 0.14486037 -0.0317842 -0.05680682
000070 fe 88 b6 bd b9 64 02 3e 62 85 41 be 4a 43 45 3d
       -0.08912848 0.12733735 -0.18898538 0.048159875
000080 76 b5 59 3d e5 37 d0 bc e5 f9 9b 3d fb a0 ce 3d
       0.05315157 -0.025417278 0.07616023 0.10089298
000090 04 e2 2b bd 20 8a e4 3d fd 98 79 3d 0d 8a bf bd
       -0.041963592 0.11159158 0.060936917 -0.09352503
0000a0 1a 3e a8 3d 22 85 e1 bd 2a ff 1a bc 7e 4e ee bc
       0.0821497 -0.11011721 -0.00946025 -0.029090162
0000b0 a0 fc 9c 3e c6 ab c3 3d 9f 5c 56 bd b8 07 95 3d
       0.30661488 0.095542476 -0.052334424 0.07276863
0000c0 af 3b 74 3d 62 0d 12 3e e8 00 1e 3d 99 a4 d2 bd
       0.05962723 0.14262918 0.038575083 -0.10285301
0000d0 40 2c 85 3d 06 dc e8 bc 28 90 95 3e 31 e0 d4 3d
       0.06502581 -0.028425228 0.29211545 0.103943236
0000e0 d6 93 8e 3d 3c 33 d5 bd f2 d7 3c 3c 30 14 9f bc
       0.06961791 -0.10410163 0.011526095 -0.019418806
0000f0 39 fb a0 bd 62 f6 c4 bd a5 e7 c9 bd 40 c9 d9 3c
       -0.07860417 -0.09617306 -0.09858636 0.026585221

fc3.weight f4 [64, 64]
000000 41 d6 27 bf 56 9b 2f bf b5 06 3b 3e 4b 2a f0 be
       -0.655613 -0.685964 0.18264277 -0.46907267
000010 09 4c 07 be 2d 3a ee be 79 70 a9 41 07 fb 04 c0
       -0.13212599 -0.4652876 21.179918 -2.0778215
000020 fb 96 b5 bf 0a 25 f1 41 74 84 18 3f cb ef 93 41
       -1.41867 30.143085 0.5957711 18.492086
000030 78 d9 ce bf 6e 28 df bf c3 de 02 41 f1 61 9a bf
       -1.6160116 -1.7434213 8.179385 -1.2061139
000040 f6 48 7e 3f fc d0 d1 bf b5 ae b0 bf 12 ee 85 41
       0.9933008 -1.6391902 -1.3803316 16.741245
000050 65 e6 b1 bf 9c 1c 8a 41 78 99 b5 bf 3c 3c 6c 41
       -1.3898436 17.26397 -1.418746 14.764706
000060 33 46 8e 41 f7 49 44 41 46 02 79 3e b1 47 09 c0
       17.784277 12.268058 0.24317273 -2.1450007
000070 7d f1 9f bf d9 93 21 c1 19 67 b8 41 1a 1c 32 bf
       -1.2495571 -10.098596 23.05034 -0.6957413
000080 80 dc f2 40 64 c8 c7 be 18 0c 11 40 ec 02 3a 3f
       7.5894165 -0.39020073 2.2663631 0.7266071
000090 db 3c 03 c1 8f 4b 6c 3f 2f 1f 28 3d f7 7c 1f 3f
       -8.202357 0.92302793 0.041045364 0.62300056
0000a0 00 67 4c 3f 43 e3 59 c0 71 77 9e 3f 66 68 05 41
       0.79844666 -3.404496 1.2380201 8.337988
0000b0 58 0c a0 41 c2 7a 10 c0 d3 67 a9 bf a1 a5 90 41
       20.006027 -2.2574925 -1.323481 18.080873
0000c0 a8 87 08 c1 31 17 03 c0 68 fa 09 c0 22 c3 35 c0
       -8.533119 -2.0482905 -2.1559086 -2.840035
0000d0 29 23 0c 41 f1 da 41 bf 4d b0 8f 41 65 1f 04 bf
       8.758584 -0.75724703 17.961084 -0.51610404
0000e0 15 6f 16 c0 41 6c b5 3e 48 32 3b c0 cb f0 ae be
       -2.35053 0.35434154 -2.924944 -0.34168085
0000f0 ba bd ed bf 51 fa 07 c1 28 50 26 c0 2f 29 d0 bf
       -1.8573525 -8.498612 -2.5986423 -1.6262568
000100 3e ad df 3f 3c 05 52 bf 54 8f af be 2d 0b 41 bf
       1.7474744 -0.8203924 -0.34289038 -0.7540768
000110 b4 42 00 bf 51 8a 6b be 98 61 f7 41 ec 14 eb bf
       -0.5010178 -0.23001982 30.922653 -1.836576
000120 5d ba 9f bf 06 10 ab 41 f8 7d 99 3e 7d f6 dc 40
       -1.2478749 21.382824 0.2997892 6.905089
000130 8b 09 b9 3f 3d db 60 c0 1e 50 22 c1 a6 a6 77 bf
       1.4456037 -3.5133812 -10.14456 -0.9673866
000140 61 05 88 be 17 65 9c bf 98 f5 8b bf 65 3b 09 42
       -0.26566604 -1.221835 -1.0934324 34.308002
000150 4a c5 28 bf 99 31 fe 40 9f 05 8e bf 1d d5 fe 40
       -0.6592604 7.9435544 -1.1095465 7.963515
000160 35 0f 5d 41 ac f8 a2 c1 6a 50 0a bf bb b7 d0 bf
       13.816213 -20.371422 -0.5402895 -1.630607
000170 d0 46 14 bf ee 96 eb c1 80 8f c3 41 56 f3 e8 be
       -0.5792055 -29.448696 24.445068 -0.4549815
000180 f7 df ce c1 da 2b af c0 92 44 ce be c1 00 a4 c0
       -25.859358 -5.474103 -0.4028669 -5.125092
000190 48 bf 62 c1 eb 0b 3e bf 14 96 df be 44 72 c7 3e
       -14.1717 -0.74236935 -0.43669188 0.38954365
0001a0 ea 0b c1 3e 8e 6a b4 c1 38 d9 2b 3f 0d 7d c2 41
       0.37704402 -22.552029 0.67128325 24.31106
0001b0 6a c0 08 41 cd 47 52 bf ac 7a 2e bf fb f9 d2 41
       8.546976 -0.8214081 -0.6815593 26.37206
0001c0 33 22 5f c1 43 81 91 bf c8 0f c8 bf d9 12 42 c1
       -13.945849 -1.1367573 -1.5629816 -12.1296015
0001d0 c8 2e b9 41 b0 68 6b bf 8b ef c3 41 76 6c ec bf
       23.147842 -0.91956615 24.491964 -1.84706
0001e0 a2 d6 3a c0 98 b4 e9 3e e6 9c ff 3b 70 a3 07 3e
       -2.9193501 0.45645595 0.007800686 0.1324594
0001f0 96 98 bb bf ac de c7 c0 a5 bc be bf 72 6d 0e bf
       -1.465594 -6.2459316 -1.490132 -0.5563575
000200 07 46 ca be 24 82 0d bf 6c 51 a8 3e 3c 66 01 be
       -0.39506552 -0.55276704 0.3287462 -0.12636656
000210 06 6e 6e bf 4e cb d2 be 4a e5 b2 3f 41 d9 5f bf
       -0.9313663 -0.41170734 1.3976223 -0.8744088
000220 fa ac 12 bf e2 d4 03 be 9f 22 0c be 6f fd 6a 40
       -0.5729519 -0.12874177 -0.13685082 3.6717184
000230 ff 6f 6e be 36 27 45 bf 4d f1 08 bf 08 e1 04 bf
       -0.2328491 -0.77012956 -0.53493196 -0.5190587
000240 34 51 33 bf ed 22 d9 be 93 04 83 bf 96 a3 f8 3f
       -0.7004578 -0.4240946 -1.0235771 1.9424922
000250 5b ee 12 bf 46 9b 38 c0 f6 0f 3e bf 8c 1b 00 bf
       -0.5739495 -2.8844771 -0.74243104 -0.50042033
000260 6e c4 2e c0 25 e4 16 c0 9e ff 10 bf 21 a0 bc be
       -2.730739 -2.3576748 -0.5664004 -0.3684092
000270 d7 20 c5 be b4 5f 63 bf 0f 41 6a bf 3c b4 a9 be
       -0.38501617 -0.88817906 -0.9150552 -0.3314532
000280 e4 7b 8a bf af cc 2a bf 93 d7 cd be 74 bc b0 be
       -1.0819058 -0.6671857 -0.40203533 -0.34518778
000290 09 f8 2d be 7a 1f d3 be b5 d2 44 be b7 bb a2 be
       -0.16989149 -0.41234952 -0.19221003 -0.3178384
0002a0 97 3b 2a 3f 3e 4e 5e bf 61 7b ce be 98 23 02 3f
       0.66497177 -0.8683814 -0.40328506 0.5083556
0002b0 d2 dc 3b 40 96 ba 35 bf 9d af 38 bf ec bf 8a 3e
       2.9353528 -0.7098783 -0.72142965 0.2709955
0002c0 e4 c2 70 bf d1 d0 2c bf 7b 3b 0f bf 9d 54 03 bf
       -0.9404738 -0.6750613 -0.55950135 -0.51300985
0002d0 ab 2b 60 c0 f1 4c 07 bf 32 9e 6c be 11 f5 2d bf
       -3.5026653 -0.5285178 -0.23107222 -0.67952067
0002e0 28 a7 5a bf f6 e4 0f 3f d0 eb 13 bf c4 4c 47 bf
       -0.8541131 0.5620874 -0.57781696 -0.7785151
0002f0 51 e6 36 bf 46 f7 f2 c0 d1 1f 33 bf 73 dd d2 be
       -0.71445185 -7.5926847 -0.69970423 -0.41184577
000300 f1 80 8a bf 13 f8 c4 3e f9 d5 fd be 4c b9 fc be
       -1.08206 0.38470516 -0.4957731 -0.4936012
000310 06 84 03 3f cf ed f3 bf 68 51 e7 40 0e b7 12 c0
       0.51373327 -1.9056948 7.2286873 -2.2924228
000320 86 48 5d bf 6f d9 30 41 95 75 02 3f 64 43 b1 40
       -0.86438787 11.053084 0.50960666 5.5394764
000330 b6 ae fd be e0 60 3f bf 36 b9 06 41 e4 52 8f bf
       -0.49547356 -0.74757195 8.4202175 -1.1197171
000340 c8 46 17 bf 6f 53 6c bf da 0e b5 3f 9d d9 d2 40
       -0.5909238 -0.9231481 1.4145157 6.589064
000350 0c 37 22 3f db 59 96 41 de d2 ab be ff a0 58 40
       0.63365245 18.793875 -0.33559316 3.3848264
000360 d2 df 45 41 a8 17 33 41 98 6e 14 3f d0 b3 8d be
       12.367144 11.193275 0.5798125 -0.2767625
000370 22 dd 37 3f 73 14 f4 3f ca a7 05 41 6b 5b 80 be
       0.71821797 1.9068741 8.353464 -0.25069746
000380 ff 60 d7 40 f2 96 77 c0 cb 25 f1 bf 7b 04 d5 40
       6.7305903 -3.868588 -1.8839658 6.656797
000390 c8 ce 06 3f 35 30 a9 bf 98 cc b5 3e b2 23 03 bf
       0.52659273 -1.3217837 0.35507655 -0.5122634
0003a0 2d cd 09 bf c5 79 05 41 58 59 a2 bf 17 1f b9 40
       -0.538287 8.342229 -1.2683516 5.785045
0003b0 69 cd 3a 41 6d 1b e0 bf c9 58 69 bc ae 1f 34 40
       11.675149 -1.750837 -0.014242359 2.8144336
0003c0 5d 89 16 41 0f 55 ad bf c8 40 78 be b6 fd 37 3f
       9.408536 -1.3541583 -0.24243462 0.7187151
0003d0 23 1e 4d 40 56 91 e2 bd b6 6f 2b 41 20 ce 25 c0
       3.2049644 -0.11062877 10.714773 -2.5907059
0003e0 02 e7 08 c0 ff 10 1f 3f 97 f3 8c c0 94 ea 3f 3f
       -2.1390996 0.6213531 -4.404735 0.7496731
0003f0 7c fd 0a 3f dc d3 5d bf bf 7d be be 21 33 ef 3e
       0.54293036 -0.86651397 -0.37205312 0.46718696

fc3.bias f4 [64]
000000 3f 52 ce 3d 57 d7 c1 bd 5e 48 4b 3e 0a ec 05 3e
       0.10074281 -0.09464901 0.19851825 0.13078323
000010 28 37 28 be 8f 0b 14 3e a0 54 51 be 4c 5c f4 3d
       -0.1642729 0.14457534 -0.20442438 0.11931667
000020 7f f9 8c 3e 52 ef 5e c0 5e f3 13 3e 04 84 94 be
       0.275341 -3.483357 0.14448306 -0.2900697
000030 8a 0c fd bd 01 c4 06 bd a2 ab a1 3d 8b 20 93 bd
       -0.12355907 -0.032901768 0.078940645 -0.071839415
000040 8a 33 ae bd 69 5a 3c be cb 35 bd bd 98 5a 78 be
       -0.08505924 -0.18393864 -0.09238776 -0.24253309
000050 b4 aa 20 be ae 2c 19 3e ec 05 02 be ed ec 07 c0
       -0.15690118 0.1495845 -0.12697572 -2.1238358
000060 0c c7 0f be 06 56 78 be c8 de 0f 3b 5e f1 90 bd
       -0.14040774 -0.24251565 0.0021952856 -0.07077287
000070 f7 10 9e 3d 4f 83 b2 3c f6 34 fc 3c d4 d5 ce bd
       0.077180795 0.021791128 0.030786972 -0.10099378
000080 70 c0 7c ba ed 32 b0 bd 3c d5 7c 40 9d 46 0e 3e
       -0.00096417125 -0.08603463 3.9505148 0.13894124
000090 d1 b9 18 bd fe f9 a2 be 8f f0 84 3e 27 3d 29 3e
       -0.037286583 -0.31831354 0.25964782 0.16527234
0000a0 58 16 34 be 0f ff 4a be b2 6a 82 c0 d5 fc 64 c0
       -0.17586648 -0.1982386 -4.0755243 -3.5779316
0000b0 ab 8f 66 be db 7c 85 bc b9 fc aa 3c 4c f2 08 3d
       -0.22515742 -0.016294887 0.02087246 0.033434197
0000c0 2b 61 24 3e 6e f4 f1 3d 92 eb 86 bd 8e f2 4f bd
       0.16052692 0.118141994 -0.065879 -0.050768428
0000d0 02 5d 1a 3e f9 2f d2 3e ae 9f c4 3d 5e 08 dc ba
       0.15074542 0.41052225 0.09600769 -0.0016787162
0000e0 0d 4b 7e 3e bf f1 9d be 12 d6 8a 3f 67 c8 95 bd
       0.24833317 -0.308485 1.0846579 -0.07313614
0000f0 f9 3a 90 be c5 f2 21 c0 c9 80 2e 3d 3f b5 91 bd
       -0.28169993 -2.5304425 0.042603288 -0.07114648

fc4.weight f4 [1, 64]
000000 5d e5 61 c0 9a 5d 4a c0 14 3d 45 3f 12 ff 8e bf
       -3.5296242 -3.161963 0.7704632 -1.1171591
000010 0e 96 de be 75 b8 05 bf bb d9 be 3e 9f a1 5e be
       -0.43473858 -0.52234584 0.3727549 -0.21741341
000020 fc e0 94 bf 9b 13 fe 3e ab 0b d6 bf 41 d8 6e c0
       -1.163116 0.49624333 -1.6722311 -3.731949
000030 aa b8 9b be aa f5 f2 be b3 23 dc be f6 d4 8a be
       -0.30414325 -0.47453052 -0.42995986 -0.271156
000040 de f3 fc be 23 eb ce be 55 36 b0 bf 24 a7 9e bf
       -0.49404806 -0.4041377 -1.3766581 -1.2394757
000050 e2 6b b3 3d 75 9b d9 bf 84 38 2a bf f8 9f f5 3e
       0.087608114 -1.7000567 -0.66492486 0.4797361
000060 2e 77 d1 bf 4b 75 82 bf 21 ee ed be 0b 86 f6 bf
       -1.6364496 -1.0192045 -0.4647074 -1.9259657
000070 4a a8 ff bf 7d 7f 22 bf 2b 28 08 bf 29 d8 06 bf
       -1.9973233 -0.6347578 -0.5318629 -0.52673584
000080 d6 c3 31 3f e5 ee 1f c0 49 e1 d4 3e d5 c3 39 c0
       0.69439447 -2.498956 0.4157813 -2.9025776
000090 af a2 41 bf af d5 a1 bf 52 73 47 40 50 8c 08 bf
       -0.7563886 -1.2643336 3.1164136 -0.533391
0000a0 8b 78 a2 bf 32 a8 37 3f 0e 0f 02 3f 33 40 ee 3e
       -1.2693037 0.7174102 0.5080422 0.46533355
0000b0 5e 0f 03 bf 9c 0d cd bf a7 08 dd 3f 53 bf af bc
       -0.51195323 -1.6019778 1.7268265 -0.021453535
0000c0 68 ab 9c bf 05 08 ec bf 84 dc be bf bb 1d 0e c0
       -1.2239809 -1.8439947 -1.4911046 -2.2205646
0000d0 55 46 21 bf d0 84 26 c0 29 92 e2 3e 33 13 7c be
       -0.62997943 -2.6018562 0.44252136 -0.24616699
0000e0 d2 8c ae bf ec 9e 39 bf 07 41 64 c0 6e 80 19 3f
       -1.3636725 -0.7250812 -3.566469 0.59961593
0000f0 25 58 07 c0 36 5e a4 3e 61 65 88 be 14 7c 7d 3e
       -2.114755 0.32103127 -0.26639846 0.24754363

batchnorm1.weight f4 [256]
000000 46 b1 02 43 66 c5 98 3e 8e 27 df bd c6 33 3b 3f
       130.69247 0.29838103 -0.10896216 0.73125875
000010 d2 76 85 3e bf 40 2d 41 35 d0 d2 3f a7 11 94 be
       0.26067215 10.828307 1.646979 -0.28919718
000020 9b 34 c1 be 3d 77 01 be aa 03 21 bd f6 f4 48 3e
       -0.37735447 -0.12643142 -0.039310135 0.19624695
000030 ef 8f a0 3e e5 6a 1b 3e c9 21 f2 3c bd 98 03 40
       0.31359813 0.15177496 0.029557126 2.0561974
000040 4d 99 c0 bc 99 bd a2 be 5a fd 2a 43 52 9f c8 3e
       -0.0235106 -0.31785277 170.98965 0.39184052
000050 1a 62 1c 3e f7 ae ab 41 58 42 61 bd f5 f5 83 3e
       0.15271798 21.460432 -0.05499491 0.25773588
000060 d2 a4 b4 be b7 d5 85 3e 2e 8e 3b 3f 7e 1a a3 42
       -0.35281998 0.26139614 0.73263824 81.55174
000070 b4 b6 1b 41 e8 eb db 3d f9 cf 67 be 67 61 cc 3e
       9.732105 0.10738355 -0.22637929 0.39918062
000080 39 68 3e 3e 6a fd 64 3e 3e 62 bb 3d 17 9e 40 3e
       0.18594445 0.22362295 0.091495976 0.18810306
000090 90 4d 4b 3f 5b a2 30 bd 68 00 9c 3f dd 75 8e 3f
       0.79415226 -0.043123584 1.2187624 1.1129719
0000a0 79 c3 07 be be b2 9d 3d 7d 79 0a 3f 90 f4 38 3d
       -0.1325816 0.07700108 0.54091626 0.045155108
0000b0 8c da 65 be aa 96 e6 3f b5 fc 03 42 f0 ae d9 42
       -0.2244665 1.8014729 32.996784 108.841675
0000c0 90 05 07 3f f1 d6 86 3e 09 b1 bd 40 f6 39 94 42
       0.5274286 0.26335862 5.9278607 74.113205
0000d0 8d bd 6f be 19 0f f3 40 c0 b9 92 3e f7 c0 c4 41
       -0.23412152 7.595593 0.2865734 24.594221
0000e0 66 30 57 3e b6 65 ca 3f e4 31 86 3e ad ca 8c 3e
       0.21014556 1.581229 0.2620994 0.2749838
0000f0 0e cc a2 3f 86 bc a0 3e a1 9a 26 be e1 21 7a 3f
       1.2718523 0.31393832 -0.16269924 0.97707945
000100 79 d8 62 40 b3 49 22 41 dd df 65 41 36 22 a2 3e
       3.5444624 10.142993 14.367154 0.31666726
000110 99 f6 50 be 93 d0 ca 3e 09 b0 38 bd a5 f5 d2 ba
       -0.2040657 0.39612255 -0.045089755 -0.0016094936
000120 a8 8e b5 3f c9 56 c3 42 30 dc bc 42 97 82 52 3e
       1.418416 97.6695 94.43005 0.20557629
000130 bd e2 7c be 96 3d 84 3d 7e b5 71 3e 83 c3 56 bf
       -0.24695869 0.06457059 0.2360439 -0.8389208
000140 8b ee 40 43 3b 15 30 bf d8 dd 93 3c 87 6e 5b 3e
       192.93181 -0.68782395 0.01805012 0.21428882
000150 8d 77 6a 3e 2a 39 04 bf c5 43 89 bc 65 03 2a 3e
       0.22897168 -0.51649725 -0.016755948 0.16602857
000160 67 a0 c8 bd 66 dd 3a 40 d1 c7 87 3e 9e 05 80 3e
       -0.09796219 2.919763 0.26519635 0.25004286
000170 74 c6 72 3d 09 c4 a7 3e 1a bd a7 42 7e ef 14 c0
       0.05927129 0.3276675 83.86934 -2.3271174
000180 98 c7 24 3e cb 56 56 3e 5f 84 22 3e 6b 68 32 be
       0.16091764 0.20931546 0.15870808 -0.17422645
000190 94 30 41 3f f8 ee 03 be 5a 7e b6 42 ac f3 55 3e
       0.7546475 -0.12884128 91.24678 0.20893735
0001a0 c5 47 38 40 10 89 b6 3f e0 a2 44 be eb 1a 9c be
       2.8793805 1.4260578 -0.19202757 -0.30489287
0001b0 ad 8b 10 42 77 da dd 3c 2d db 7f 3e e2 8c 9b 3e
       36.136402 0.027081711 0.24985953 0.30380923
0001c0 f6 1e 99 be 66 ad a2 3f db 7d a0 3e 3d 75 26 3e
       -0.29906434 1.2709167 0.3134602 0.1625566
0001d0 4e bb 68 3e d3 ec 11 be 2c 68 26 3e 49 65 55 3e
       0.22727701 -0.14250498 0.16250676 0.20839418
0001e0 ca 41 04 43 2d 40 1c 3e 56 9f 87 3e f4 4a 17 41
       132.25699 0.15258856 0.2648875 9.455799
0001f0 4d 07 a6 3e 7c 19 91 40 e9 6d 1e 3e 2a b5 83 3e
       0.32427445 4.534361 0.15471615 0.25724155
000200 09 12 cf 3e 33 31 e2 3e ab 54 e7 42 a2 b8 04 bf
       0.40443447 0.4417816 115.66537 -0.5184423
000210 27 4f 00 bf e0 02 9f 3d 99 d4 7a 3d fc ea 61 40
       -0.50120777 0.0776422 0.061237905 3.5299673
000220 32 31 74 3f d6 f7 5a 3f 3f 0e 0b bb 83 c5 f6 be
       0.95387566 0.8553442 -0.0021218208 -0.48197564
000230 7a 42 c5 3f 90 d1 12 3f 46 af 9a bd ae d5 29 3e
       1.5410912 0.57351017 -0.07552962 0.16585419
000240 43 e2 ec 3c 8d 48 85 3c 62 fa 22 3f 8f 01 96 42
       0.028916484 0.016269946 0.63663304 75.003044
000250 02 3c ef 3a a8 26 6d 3e d7 b8 7e bd d9 23 8c 3e
       0.0018252137 0.23159277 -0.062187996 0.273711
000260 56 10 1c 3e aa 07 11 bf b2 7a 59 3e 1a 7a 8c 41
       0.15240607 -0.5665232 0.21238211 17.55962
000270 e7 ce 1c 3e b3 52 97 42 36 e7 3e 3e 61 54 13 be
       0.15313302 75.66152 0.18642887 -0.14387657
000280 04 a1 a2 40 23 8f 81 3c a4 04 f6 bb 4a 15 a2 3f
       5.082155 0.015815323 -0.0075078774 1.2662747
000290 d7 fd 1f 3e dc c0 01 43 c0 17 03 bf f9 e0 e8 bd
       0.15624176 129.75336 -0.51208115 -0.11371035
0002a0 6d 5f 4d 3e 61 e6 61 3e bf f6 36 3e 52 c1 a8 40
       0.20055933 0.22060539 0.17867564 5.2735987
0002b0 f7 a0 71 be 20 87 0f 3f 43 d2 8b 3e 54 ea 6c 3e
       -0.2359656 0.5606556 0.27308854 0.23136264
0002c0 ac e8 56 3e 6e 5b 38 3d 11 31 93 3e 62 f6 a9 3e
       0.20987195 0.04500907 0.28748372 0.33195788
0002d0 06 8f 84 3e 03 17 da bc 31 f8 b1 be 01 b9 eb 3d
       0.25890368 -0.026622301 -0.34759668 0.11509896
0002e0 7b a7 b3 3c bb ab b7 be c6 c4 22 40 93 28 42 3f
       0.021930447 -0.35873207 2.54326 0.7584316
0002f0 6e d4 46 bd ca b3 5b 40 37 a5 1b 3e 71 07 2c 3f
       -0.048542432 3.4328485 0.15199743 0.67198855
000300 fe ce 79 3e 90 68 24 3f e6 88 a3 3e 46 1b 5e bf
       0.24395368 0.6422205 0.31940383 -0.86760366
000310 85 8b 8b 3e b2 f6 9d 42 9c 01 be 3e 0c e6 8b 3e
       0.27254882 78.98183 0.37110603 0.2732395
000320 ab df ef c2 d7 f1 94 bc ff 42 84 41 73 61 6c bd
       -119.93685 -0.018181724 16.532713 -0.057710122
000330 93 48 9b 3e 04 1a 53 41 ba 24 79 bc 5c 1e 52 3e
       0.30328807 13.193851 -0.01520651 0.20519394
000340 60 4a 82 bb 7f ba 95 3e 94 4c f7 3c cf 46 9f be
       -0.0039761513 0.29243848 0.030187882 -0.3110871
000350 e1 80 97 3e c7 69 4f 41 a9 1f 10 3e 9d b3 f0 3d
       0.29590514 12.963325 0.14074577 0.117530085
000360 74 02 90 3f 15 86 77 3e db e3 9c 3e 39 e4 0d 3e
       1.1250749 0.24172242 0.3064259 0.13856591
000370 6d 08 37 43 6c 4f fb bd 63 4d 8c be 76 4d 4b 3e
       183.03291 -0.12271008 -0.2740279 0.19853768
000380 50 40 45 3f 9b 7b 2e 3e 56 9e 69 3d 89 68 4b 3f
       0.7705126 0.17039339 0.057035767 0.79456383
000390 6f 6e 12 40 05 fa 84 be 8c 74 a1 3f f7 1f 7a 3f
       2.2879903 -0.25972 1.2613692 0.97705024
0003a0 38 f1 69 3e 07 cb 13 3f 39 37 47 c3 c0 57 79 40
       0.22845924 0.5773167 -199.21571 3.8959808
0003b0 eb 2b 7b 41 31 cf 83 3f 73 f0 4b 43 50 8a 40 3e
       15.698222 1.0297605 203.93925 0.18802762
0003c0 b1 29 3a 3e 3f 9b 36 3e 57 7a 86 3e bd 88 1d 43
       0.18179967 0.17832659 0.26265213 157.53413
0003d0 11 e6 21 bf 16 d5 4b 43 de e0 94 3f e9 2e d2 40
       -0.6324168 203.83237 1.1631124 6.5682263
0003e0 ac d7 c8 3d 8d f2 02 42 f1 c4 6e bf 4a 3e 79 41
       0.09806761 32.736866 -0.9326926 15.577707
0003f0 97 54 92 bd 76 e3 46 3f 5b 81 53 42 54 ea 87 41
       -0.071450405 0.7769083 52.876324 16.989418

batchnorm1.bias f4 [256]
000000 44 54 97 c1 d1 7d 70 bf 51 cf 67 bf 5b 7c ad be
       -18.916145 -0.9394198 -0.90550715 -0.33883938
000010 af 73 4e bf 5e c5 5b c2 a1 df 86 c0 34 1d 8c bf
       -0.8064527 -54.94274 -4.2147985 -1.0946412
000020 cd c6 b1 bf c9 d8 8d bf 7e cd 6e bf 6c 7d 4e bf
       -1.3888794 -1.1081783 -0.93282306 -0.8066013
000030 00 4b 9c bf bc ee 9f bf e7 ae 52 c0 b0 84 2a c0
       -1.2210388 -1.2494731 -3.2919252 -2.6643486
000040 14 55 ff bf 97 d6 69 bf 4e 64 68 c1 d5 28 3e bf
       -1.9947839 -0.91343063 -14.524488 -0.74281055
000050 53 37 58 bf 0e 2b 6e c3 a7 ca 5a bf 46 a6 35 bf
       -0.8445942 -238.16818 -0.8546547 -0.7095684
000060 02 12 26 c0 4e 11 4b bf e2 ed 2c bf c1 80 44 c2
       -2.594849 -0.7932328 -0.6755048 -49.125736
000070 14 11 15 c0 5c 3b 56 c0 a6 16 95 bf f9 4e 05 bf
       -2.3291674 -3.347373 -1.1647537 -0.5207363
000080 f4 a2 45 bf a4 06 52 bf 3a 4a ba c0 32 91 58 bf
       -0.7720177 -0.8204138 -5.821561 -0.8459655
000090 7e 06 96 be f3 6c 19 bf 8f 58 1b bf cd 26 4f bf
       -0.29301828 -0.5993187 -0.60682005 -0.8091858
0000a0 b1 98 e1 bf 02 8d 90 c0 6f 23 78 c0 45 0e 4a c0
       -1.7624723 -4.517213 -3.8771627 -3.157121
0000b0 9d 32 1c bf 99 8d c6 bf af e2 a6 c2 2c 32 83 41
       -0.6101473 -1.5511962 -83.44274 16.399498
0000c0 a1 8c 02 bf b6 a6 2c bf a0 8f 9c bf b4 34 f8 c1
       -0.5099583 -0.6744188 -1.2231331 -31.025734
0000d0 6b 76 65 bf ed 03 bb c2 9a 41 2e bf ea d3 0d c1
       -0.89633816 -93.50767 -0.6806885 -8.864237
0000e0 da 7b 51 bf f9 87 fc bf ff f8 2e bf 43 f6 24 bf
       -0.8182961 -1.9728996 -0.6834869 -0.64438266
0000f0 e5 24 39 c0 b8 c3 50 bf be 95 a8 bf cf 84 60 bf
       -2.8928769 -0.81548643 -1.3170698 -0.8770265
000100 f4 3a 86 bf b0 04 bb c2 1f fb 21 c1 6f e4 4e bf
       -1.0486741 -93.509155 -10.123809 -0.8081731
000110 f7 9d e3 bf 02 dd 2d bf 07 53 b1 be 3e 98 94 bf
       -1.7782582 -0.67915356 -0.34633657 -1.1608961
000120 c0 af 29 c0 e2 b1 5c 41 e9 7b 5a 41 04 3a 46 bf
       -2.651352 13.793428 13.6552515 -0.77432275
000130 79 55 cf bf 2c 8d c6 be 6e 9e 43 bf 8a 78 8b bf
       -1.6197959 -0.3877958 -0.7641362 -1.0896161
000140 c1 4a 33 41 a0 28 fd c0 17 08 04 be a9 95 52 bf
       11.20575 -7.911209 -0.12893711 -0.82259613
000150 86 b1 52 bf 75 bb a2 bf de 07 37 bf 26 b7 40 bf
       -0.8230213 -1.2713457 -0.7149638 -0.7527946
000160 6c 19 6d c0 16 e5 8d bf e8 f0 4a bf 2d b5 33 bf
       -3.7046766 -1.1085536 -0.79273844 -0.7019833
000170 2a 3a e1 be 35 d3 2f bf 54 a3 27 c2 54 9f b8 c0
       -0.43989688 -0.6868165 -41.9095 -5.769449
000180 40 3e 58 bf 7a a0 47 bf 77 1e 58 bf 90 eb 83 bf
       -0.84469986 -0.7797924 -0.84421486 -1.0306263
000190 5c f1 a1 bf c6 c8 8f c0 34 c2 5a 41 63 80 57 bf
       -1.2651782 -4.4932585 13.672413 -0.8418028
0001a0 70 c0 84 bf ef 75 3b bf 6f 68 27 c0 e5 5b 89 bf
       -1.0371227 -0.7322683 -2.6157491 -1.0731169
0001b0 0d 43 6f c1 6b 46 e2 bf 15 b6 3b bf 4f 77 3a bf
       -14.95387 -1.767774 -0.7332471 -0.728383
0001c0 e5 af 0a c0 44 94 b1 bf 34 ca 3a bf 38 04 59 bf
       -2.1669858 -1.3873372 -0.7296479 -0.8477206
0001d0 9e b7 58 bf e9 91 92 c0 5a 5e 36 bf a7 1e 34 bf
       -0.8465518 -4.5803113 -0.7123772 -0.7035927
0001e0 9b cb 77 41 30 c1 40 bf 96 1a 37 bf 98 c5 0c c1
       15.487208 -0.7529478 -0.7152494 -8.798241
0001f0 d5 f7 42 bf 9d 1b af bf 0d 9f 58 bf 6f cf 3f bf
       -0.7615941 -1.3680302 -0.8461769 -0.74925894
000200 f9 bc 09 bf 01 b2 88 bf 91 d8 87 41 58 e3 9d c0
       -0.53803974 -1.0679322 16.980745 -4.934002
000210 25 40 39 bf 3c 92 a7 c0 ac 4d 48 c0 14 7e 58 c0
       -0.723635 -5.236601 -3.1297407 -3.3826952
000220 6e b6 58 bf 85 9e 75 bf c8 4e ae bf d4 b0 b8 bf
       -0.84653366 -0.95945007 -1.3617792 -1.4428964
000230 bf d2 3a bf 37 f6 20 bf 4c d5 c1 be 60 f5 55 bf
       -0.72977823 -0.62875694 -0.37858045 -0.8357754
000240 64 cf 2c c0 4d 13 1c c0 f9 14 53 bf 14 d4 13 c2
       -2.700158 -2.438678 -0.82453877 -36.957108
000250 a1 c3 44 c0 fc a8 29 bf af 07 4e c0 93 9a 3a bf
       -3.0744402 -0.66273475 -3.219219 -0.7289211
000260 0d 0a 50 bf 8d ea fb bf e1 e4 47 bf 5a 2b 9a c1
       -0.81265336 -1.9680954 -0.78083616 -19.271168
000270 e6 16 59 bf 49 40 05 c3 68 c1 3c bf a3 67 3a c0
       -0.84800565 -133.25111 -0.73732615 -2.9125755
000280 65 7e c1 bf 32 06 f5 bf 3b 1d 0c c0 59 7c 1b bf
       -1.5116698 -1.9142516 -2.189284 -0.60736614
000290 7f 6f 51 bf b9 8d 96 c1 df 2c 85 bf 10 3a 93 bf
       -0.81810755 -18.8192 -1.0404319 -1.1502094
0002a0 3c d8 54 bf 43 57 45 bf aa ec 54 bf f8 61 a9 bf
       -0.8314245 -0.77086276 -0.8317362 -1.3233023
0002b0 41 4c 8a c0 b0 80 b2 be 34 8f 37 bf 23 48 3b bf
       -4.3218083 -0.34863806 -0.71702886 -0.73156947
0002c0 72 a8 43 bf 97 84 77 bf 62 01 4d bf 3c 24 30 bf
       -0.764289 -0.9668669 -0.80080235 -0.6880529
0002d0 d0 64 59 bf 56 7f 63 bf ae 7c 18 c0 87 22 4d bf
       -0.8491945 -0.88866174 -2.3826098 -0.8013081
0002e0 68 ec b3 c0 3f 28 af bf 02 06 79 c0 db 7b f4 bf
       -5.622608 -1.3684157 -3.8909917 -1.9100298
0002f0 5f f4 1d c0 59 92 7a bf 19 10 52 bf 1c b4 ce be
       -2.4680402 -0.9787956 -0.82055813 -0.40371788
000300 c0 87 31 bf 75 b2 26 bf 6c f7 2f bf 49 ab c1 bf
       -0.69347763 -0.65116054 -0.6873691 -1.5130397
000310 b5 86 32 bf 93 c4 39 c2 18 44 6b bf 01 40 46 bf
       -0.69736797 -46.441967 -0.9190078 -0.7744141
000320 e6 68 5f 41 88 82 ae c0 70 e0 a3 c0 25 b2 e1 bf
       13.96311 -5.453434 -5.121147 -1.763249
000330 6a 4b 2e bf 2d a4 9e c0 16 d1 dd bf 41 2e 49 bf
       -0.6808382 -4.957541 -1.7329433 -0.785862
000340 45 7e 46 c0 e1 fb 56 bf 25 a0 b7 bf 4a cb b0 bf
       -3.1014569 -0.83978087 -1.4345747 -1.3812039
000350 f3 78 39 bf f9 ba 1b c1 61 df 04 bf 46 3a 3f bf
       -0.7245018 -9.733148 -0.5190335 -0.74698293
000360 73 9a 34 bf 5b 28 37 bf f1 28 33 bf a9 62 32 bf
       -0.7054817 -0.7154595 -0.69984347 -0.69681793
000370 e4 53 31 41 6a b3 2a bf 34 d0 0c bf 39 b1 4e bf
       11.082981 -0.66680014 -0.5500519 -0.8073917
000380 35 ee 49 bf d9 60 4b bf 77 b1 b1 bf c1 9a aa bf
       -0.788791 -0.7944465 -1.3882283 -1.3328477
000390 50 d3 42 bf 24 a9 9c bf 07 18 52 bf cb 14 84 bf
       -0.7610369 -1.2239118 -0.8206791 -1.0318846
0003a0 b7 b4 4c bf 52 0b f3 be fd e9 3e 41 9d 22 a6 bf
       -0.7996325 -0.47469574 11.932126 -1.2979313
0003b0 c9 06 62 c1 69 69 73 c0 8a f2 41 41 e0 e4 47 bf
       -14.126657 -3.8033087 12.121714 -0.7808361
0003c0 96 4c 4f bf 90 37 55 bf d1 e8 69 bf be 6f 68 41
       -0.80976236 -0.83287907 -0.91370875 14.527281
0003d0 5f 99 a3 bf bc 0d 35 41 c2 ae 17 c1 6b a2 e5 bf
       -1.278118 11.315853 -9.4801655 -1.7940191
0003e0 d7 61 4f bf 3c a5 1a c1 be a0 ea bf 73 09 66 c0
       -0.81008667 -9.66534 -1.8330305 -3.5943267
0003f0 bf 18 90 bf 5d 37 58 bf 5a 55 17 c2 5b bb c0 c1
       -1.1257552 -0.8445948 -37.83335 -24.091482
