model/model_20210803_103312.pt (torch, 321228 bytes, 45 tensors)

fc1.weight f4 [256, 14]
0	0xbc627bc1	-0.013823451
1	0xbd255e6e	-0.04037326
2	0xbf89abdb	-1.0755571
3	0x3ec14153	0.3774515
4	0xbd34f04a	-0.04417447
5	0xbfb8bea6	-1.4433181
6	0xbfc6a7bc	-1.5519938
7	0x3fa36f89	1.2768413
8	0xbf0793fc	-0.5296018
9	0xbfa24139	-1.2676154
10	0xbdbe6501	-0.09296609
11	0xbf87207a	-1.0556786
12	0x3fc3a7ea	1.5285618
13	0x3e5ac1ac	0.21362942
14	0xbc4c4089	-0.012466558
15	0xbe86d837	-0.26336834
16	0xbf018170	-0.5058813
17	0x3e36d368	0.17854083
18	0xbeb49d46	-0.3527624
19	0xbee58632	-0.44828945
20	0xbf06a12d	-0.52589685
21	0x3f03d80d	0.5150154
22	0xbedab274	-0.42714274
23	0xbed67411	-0.41885427
24	0xbe5faa67	-0.21842347
25	0xbe1ba2c3	-0.15198807
26	0x3e3c423d	0.18384643
27	0xbe174058	-0.14770639
28	0xbc86cb0b	-0.01645424
29	0xbc674619	-0.014115834
30	0xc022cac6	-2.5436263
31	0x3e9d6454	0.30740607
32	0xbf0190fd	-0.5061186
33	0xc028ab68	-2.6354618
34	0xc008f50b	-2.1399562
35	0x3ff967d6	1.9484813
36	0xbfa6979e	-1.301502
37	0xc0094559	-2.1448576
38	0xbeb4afd5	-0.352904
39	0xbffa9be6	-1.9578826
40	0x3fb4e253	1.4131569
41	0x3ee95069	0.4556916
42	0xbd193069	-0.037399683
43	0xbec714ea	-0.38883144
44	0xbf757919	-0.95887905
45	0x3f87fd50	1.062418
46	0x3e779d9a	0.24181214
47	0x3f98a564	1.1925473
48	0xbea658b8	-0.32489562
49	0xbe7ffe2d	-0.24999304
50	0xbf8a3442	-1.0797198
51	0xbdc00ab5	-0.09377042
52	0x3d1d46f0	0.03839773
53	0x3e9c5cff	0.305397
54	0xbfd5a687	-1.6691445
55	0xbf8efcf2	-1.1170943
56	0xbb808fa8	-0.003923375
57	0x3b8453f2	0.0040383274
58	0xc11d7a5a	-9.842371
59	0x3eb2b763	0.34905538
60	0xc00b7e8b	-2.1795986
61	0xc0c34a44	-6.1028156
62	0xc0db7d0d	-6.859015
63	0x3fa0f4ed	1.2574745
64	0xc11fc80f	-9.986342
65	0xc17c06d5	-15.751668
66	0xbec7b312	-0.39003807
67	0xc0c60cbd	-6.189055
68	0x40783749	3.8783743
69	0xbf15007d	-0.5820387
70	0xbd158a43	-0.03650881
71	0xbcf3c354	-0.029756226
72	0xbf5e1092	-0.86744034
73	0x3e836239	0.25660875
74	0xbece08a8	-0.4024098
75	0xbefabf79	-0.48974207
76	0xbf53429a	-0.825235
77	0x3f3465af	0.70467657
78	0xbe6e478b	-0.23269479
79	0xbf4b15ce	-0.79330146
80	0xbe6b66b2	-0.22988394
81	0xbf1e0e18	-0.61740255
82	0x3f0dd7be	0.5540732
83	0xbf05772a	-0.52134955
84	0xbaff9a5d	-0.001950096
85	0xbc9a2cde	-0.018820222
86	0xc0f5f7b0	-7.6864853
87	0x3f15824e	0.58401954
88	0xc02bc10a	-2.6836572
89	0xc0fdd437	-7.932155
90	0xc0dee232	-6.9651117
91	0x3fdd725a	1.7300522
92	0xc11c80ac	-9.781414
93	0xc13aef3e	-11.683409
94	0xbf2b1572	-0.668296
95	0xc0bc00f6	-5.8751173
96	0x40b0ac52	5.521035
97	0x3f924049	1.1425868
98	0xbd50249f	-0.050816175
99	0xbcee7849	-0.02911009
100	0xbfa02ee0	-1.2514305
101	0x3fe5024d	1.7891327
102	0x3e1cbd82	0.15306666
103	0x3fa07400	1.25354
104	0xbeb9cfca	-0.36291343
105	0xbec374d2	-0.38175064
106	0xbfaca288	-1.3487101
107	0x3e1ff5f0	0.15621161
108	0xbe12880b	-0.14309709
109	0xbca2eaa0	-0.019887269
110	0xc017764e	-2.3665957
111	0xbfec46a9	-1.8459064
112	0xbcf9a442	-0.030473832
113	0xbcf6add9	-0.030112194
114	0xbf158b45	-0.58415633
115	0x3eac82bf	0.336935
116	0xbeb8383d	-0.35980406
117	0xbf501cb5	-0.81293803
118	0xbf68f50a	-0.909989
119	0x3f8374c5	1.027001
120	0xbd7036aa	-0.05864588
121	0xbf4f72ca	-0.8103453
122	0xbe08b9a2	-0.13352063
123	0xbf54cd82	-0.8312608
124	0x3f405913	0.75135916
125	0x3ea5a6f9	0.32353953
126	0xbcf28e5a	-0.029608894
127	0xbe9c08da	-0.30475503
128	0xbf442be3	-0.76629466
129	0x3eba97c3	0.3644391
130	0xbd855437	-0.06510203
131	0xbfb9c42c	-1.4512992
132	0xbfa36305	-1.2764593
133	0x3f94b424	1.1617475
134	0xbe8fe1fb	-0.28102097
135	0xbf59dbdd	-0.8510111
136	0xbe921a0e	-0.28535503
137	0xbf366f83	-0.71263903
138	0x3f43632d	0.76323205
139	0xbe348f67	-0.17632829
140	0xbd0d7d1e	-0.03454315
141	0xbccf38aa	-0.025295574
142	0xbf5133cb	-0.81719655
143	0x3ef21d75	0.472881
144	0xbf02ba04	-0.5106509
145	0xbf3c05bc	-0.7344625
146	0xbf3e60b4	-0.7436631
147	0x3f5b14e4	0.8557875
148	0xbf655975	-0.89589626
149	0xbf152c86	-0.5827106
150	0xbe512b25	-0.20426615
151	0xbf7df7da	-0.99206316
152	0x3ba1d71a	0.004938972
153	0xbf1181b5	-0.5683854
154	0xbd23d54b	-0.039998334
155	0xbd7d44a3	-0.061833035
156	0xbeee5c3f	-0.46554753
157	0x3f8c74dd	1.0973164
158	0xbe2c24ac	-0.16810864
159	0x3f7b117c	0.98073554
160	0xbeaa0308	-0.33205438
161	0xbbcbb51c	-0.0062166583
162	0xbf4975de	-0.78695476
163	0x3e36fc89	0.17869772
164	0xbe6741ab	-0.22583644
165	0x3d329b6c	0.043605253
166	0xbf999a07	-1.200013
167	0xbf6a7e26	-0.9159874
168	0xbcd0ea12	-0.025502238
169	0xbb18ee26	-0.0023335307
170	0xbf82fd44	-1.023354
171	0x3ee0d0a9	0.43909195
172	0x3e7105db	0.2353739
173	0x3f78cf12	0.97190964
174	0xbe9c91fe	-0.30580133
175	0xbf148bf8	-0.58026075
176	0xbf1b4087	-0.60645336
177	0xbe364df6	-0.17803177
178	0x3d887501	0.06662942
179	0x3d040461	0.03223074
180	0xbf8db116	-1.1069667
181	0xbf5ec364	-0.8701689
182	0xbc47875d	-0.012178269
183	0x3bf6bbec	0.0075297263
184	0xc0f84b81	-7.759217
185	0x3ec9696b	0.3933824
186	0xc0332fce	-2.7997928
187	0xc11dfc47	-9.874091
188	0xc126f197	-10.433982
189	0x3ffc5e53	1.9716285
190	0xc1494059	-12.57821
191	0xc14c486d	-12.767682
192	0xbef1ee2e	-0.4725203
193	0xc0ef0126	-7.46889
194	0x4091079d	4.5321794
195	0xbf765ed1	-0.9623843
196	0x3a4ed492	0.0007889952
197	0x3afa723f	0.0019107534
198	0xc1079376	-8.473501
199	0xbdcc00c3	-0.09961083
200	0xc017cae5	-2.3717587
201	0xc10ec8f8	-8.924065
202	0xc0adc36e	-5.430106
203	0x4032c580	2.7933044
204	0xc12682dc	-10.406948
205	0xc11611d3	-9.379352
206	0xbef33135	-0.4749848
207	0xc0600b09	-3.5006735
208	0x40c869fb	6.262937
209	0x4041f6c8	3.0306873
210	0xbc94c698	-0.018161103
211	0x3dc9a595	0.098460354
212	0xc0999497	-4.7993884
213	0xbeeacd3d	-0.4585971
214	0xbf14883f	-0.58020395
215	0xc0b60937	-5.688625
216	0xc064a66c	-3.5726576
217	0x402cee1b	2.7020328
218	0xc0143815	-2.315923
219	0xc0825ad9	-4.07359
220	0xbe8fc575	-0.28080335
221	0xc01d1042	-2.4541173
222	0x40671f14	3.6112719
223	0x3fce4773	1.6115555
224	0x3d350ac3	0.044199716
225	0x3e236827	0.159577
226	0x400608a8	2.0942783
227	0x3e522b26	0.20524272
228	0x3d6b6fbe	0.057479613
229	0xbf040d9c	-0.51583266
230	0x3db167f0	0.08662403
231	0x3f30f616	0.691255
232	0xbf5d2cd2	-0.86396515
233	0x3f343b11	0.7040263
234	0xbd275890	-0.040855944
235	0x3e92f44e	0.28702015
236	0x3e8e960a	0.27848846
237	0x3ec714c2	0.38883024
238	0x3f11d6d4	0.56968427
239	0x3d8274a4	0.06369904
240	0xc00cffa2	-2.2031026
241	0x3e8fc343	0.2807866
242	0xbf30365d	-0.6883295
243	0xc092e965	-4.5909905
244	0xc08bb977	-4.3663898
245	0x401b3899	2.4253294
246	0xc009c6cc	-2.1527586
247	0xc05dacdd	-3.4636757
248	0xbea0e5dc	-0.3142537
249	0xc069a2df	-3.6505659
250	0x4017b539	2.370436
251	0xbd3735a2	-0.044728883
252	0xbd32b0e2	-0.04362572
253	0xbe27a290	-0.16370606
254	0xbf01b8e3	-0.5067274
255	0x3f5efe8f	0.87107176

fc1.bias f4 [256]
0	0x3deb6435	0.11493722
1	0x3dcc9c44	0.09990743
2	0x3db01354	0.085974365
3	0xbdc9928e	-0.09842406
4	0x3e78fd24	0.24315315
5	0xbe65b368	-0.2243172
6	0xbe0ceb11	-0.13761546
7	0xbdac3c1f	-0.08409905
8	0x3ce0d850	0.027446896
9	0xbe3965cb	-0.18105237
10	0x3e4f35c4	0.20235354
11	0xbe27eb0f	-0.16398261
12	0x3dd51bb9	0.10405678
13	0x39bc527e	0.00035919616
14	0x3e6ded2e	0.23235008
15	0x3dbdb6d7	0.092633896
16	0x3e543878	0.20724666
17	0xbc0ca916	-0.008585235
18	0xbe02093e	-0.12698838
19	0xbe818202	-0.252945
20	0xbdf32c49	-0.11873681
21	0x3d28b2d5	0.041186173
22	0xbe20376a	-0.15646139
23	0xbc471d15	-0.01215293
24	0xbe557256	-0.20844397
25	0xbe1adc26	-0.15123042
26	0x3e14da1d	0.14536329
27	0xbe1990fa	-0.1499671
28	0xbe61bfc0	-0.22045803
29	0x3d906c90	0.07051957
30	0x3db15da9	0.086604424
31	0x3e624912	0.22098187
32	0x3e003d48	0.12523377
33	0xbe4985db	-0.19679968
34	0xbd6d2072	-0.05789227
35	0xbe4f3768	-0.2023598
36	0x3e41842f	0.1889808
37	0x3e5d933a	0.21638194
38	0xbe5a2c7d	-0.21306033
39	0xbdaa2198	-0.08307189
40	0xbdac3d37	-0.08410113
41	0x3c3d0cd4	0.011538703
42	0x3d77d7d8	0.06050858
43	0xbe0b6830	-0.13613963
44	0xbbe43a0a	-0.0069649266
45	0xbe2256e1	-0.15853454
46	0xbe1946e8	-0.14968455
47	0x3daefd6c	0.0854443
48	0x3db06e59	0.08614797
49	0x3e1e62b0	0.15467334
50	0x3e56067a	0.20900908
51	0xbcd10705	-0.025516042
52	0xbe194d22	-0.1497083
53	0xbdd73491	-0.10508073
54	0xbe4ba6e2	-0.1988788
55	0xbe838533	-0.2568756
56	0xbdaffdbc	-0.08593318
57	0xbe87008b	-0.26367602
58	0x3dc1eea7	0.094693474
59	0x3e254a24	0.16141564
60	0xbd833c02	-0.0640793
61	0x3c853330	0.01625976
62	0x3e215b16	0.15757403
63	0xbe0e37f6	-0.13888535
64	0x3d530d1d	0.051526178
65	0xbe42e577	-0.19032846
66	0xbe88906e	-0.2667269
67	0xbe08ddf4	-0.13365918
68	0x3993a3f8	0.0002816019
69	0x3d95b318	0.0730955
70	0x3c86b9c2	0.016445998
71	0x3e2dc5f5	0.16970046
72	0x3d882102	0.06646921
73	0xb98f767e	-0.0002736337
74	0x3e6952d7	0.22785507
75	0xbceed10a	-0.029152412
76	0x3d9a1e93	0.07525363
77	0x3e443e76	0.19164452
78	0x3e86d171	0.26331666
79	0xbe299d95	-0.16564019
80	0x3e4f834a	0.20264927
81	0xbe3af2de	-0.18256709
82	0xbc86f209	-0.016472833
83	0x3e61141b	0.21980326
84	0xbc5f72ad	-0.013638181
85	0xbe51fdde	-0.20506999
86	0x3dcb7c8e	0.09935866
87	0xbbe6b6ff	-0.007040858
88	0x3bb86497	0.0056272256
89	0xbc055b17	-0.008139393
90	0x3b2b60cf	0.0026150232
91	0xbc925ff1	-0.017868014
92	0xbe82b92e	-0.25531906
93	0xbe1c4cb7	-0.1526364
94	0x3dd78cbf	0.10524892
95	0x3e72d9a1	0.23715831
96	0x3e2e02e3	0.16993289
97	0xbd892d84	-0.066981345
98	0x3e1a8a0e	0.15091726
99	0xbe4c233c	-0.19935316
100	0xbe32b7b8	-0.17452896
101	0xbe08f6c7	-0.13375388
102	0x3e680476	0.22657952
103	0x3e85e158	0.26148486
104	0x3d309578	0.043111295
105	0x3dbb9e76	0.091610834
106	0xbe40b8c6	-0.18820485
107	0x3d297ae7	0.041376974
108	0x3e3f92b4	0.18708307
109	0xbdfe1035	-0.12405435
110	0xbe08a49f	-0.13344048
111	0xbe38035a	-0.17970029
112	0x3dc4ed77	0.09615605
113	0x3d885813	0.06657424
114	0x3dd81109	0.10550124
115	0x3c93f768	0.018062308
116	0x3e53c969	0.206823
117	0x3e0002b9	0.12501039
118	0x3e7ae990	0.2450316
119	0x3dca9855	0.09892336
120	0xbcd975b4	-0.026545383
121	0x3df32f53	0.11874261
122	0xbe545df7	-0.2073897
123	0x3e4ea23c	0.20179075
124	0x3e5da7af	0.21645997
125	0xbe296e7f	-0.16546057
126	0x3d28123d	0.04103302
127	0x3d1be5de	0.038061015
128	0x3ca6d8a3	0.020366972
129	0x3e64cd2f	0.22343896
130	0x3e403605	0.18770607
131	0xbe8484f8	-0.25882697
132	0x3e571b3c	0.21006483
133	0x3d8e11e0	0.06937003
134	0xbc14ebdc	-0.009089436
135	0x3d82d6b2	0.06388606
136	0x3e20f277	0.15717493
137	0xbe6d46f5	-0.23171599
138	0xbe077384	-0.1322766
139	0x3d239460	0.039936423
140	0x3e30823d	0.17237182
141	0xbd3f7654	-0.046743706
142	0x3e262c30	0.16227794
143	0xbe043746	-0.1291171
144	0x3e1769cd	0.14786454
145	0x3e3c77a0	0.18405008
146	0xbe20dabd	-0.15708442
147	0x3dedc8d0	0.116105676
148	0x3e3eda09	0.18637861
149	0xbe7f1aea	-0.2491261
150	0x3e8464b4	0.2585808
151	0xbd5379d9	-0.051629875
152	0x3e152d00	0.14567947
153	0xbd6be9ec	-0.057596132
154	0x3d7074b1	0.058705036
155	0xbe2f42d5	-0.17115338
156	0x3d99115d	0.07474015
157	0xbd4b9fd9	-0.04971299
158	0xbc3204e5	-0.010865425
159	0xbda50cb1	-0.08059061
160	0xbe47bf46	-0.19506559
161	0xbd018aa2	-0.03162635
162	0xbe801417	-0.25015327
163	0x3e3901df	0.1806712
164	0xbe623999	-0.22092284
165	0x3b71c842	0.0036893045
166	0x3e1276b0	0.14303088
167	0xbe42e64e	-0.19033167
168	0xbb06abb5	-0.0020549123
169	0x3de8f4ac	0.113747925
170	0xbc8446b5	-0.016146997
171	0xbe1ce884	-0.15323073
172	0x3e702132	0.23450163
173	0x3e6a7b73	0.22898655
174	0xbe8365c9	-0.25663593
175	0x3d04b4c4	0.032398954
176	0x3d940870	0.07228172
177	0xbdee1d42	-0.11626674
178	0x3da15985	0.078784026
179	0xbe3f3971	-0.18674256
180	0xbd6832fb	-0.056689244
181	0xbe84b65d	-0.25920382
182	0xbe2efd9f	-0.17088936
183	0x3cd50671	0.026004048
184	0xbd856329	-0.06513054
185	0x3e5d041b	0.21583597
186	0x3e54a7cc	0.20767134
187	0xbe7d4aac	-0.24735516
188	0x3e70248b	0.2345144
189	0x3e32ff70	0.17480254
190	0x3e7c2cca	0.2462646
191	0x3e74ad31	0.23894192
192	0xbe72f350	-0.23725629
193	0x3e4a00a6	0.1972681
194	0x3e83bdc9	0.25730732
195	0xbe7aa2d8	-0.24476182
196	0xbe253b75	-0.16135962
197	0xbe3b61cd	-0.18299027
198	0xbe3938a3	-0.18088011
199	0xbc76f85c	-0.015073862
200	0xbe286977	-0.16446482
201	0xbe209234	-0.15680772
202	0x3e4d3c74	0.20042592
203	0x3d369419	0.04457483
204	0x3e21b9fc	0.15793604
205	0xbd1e95a6	-0.038716935
206	0x3d831a43	0.064014934
207	0x3d85374f	0.0650469
208	0xbc78c5bb	-0.015183861
209	0xbe513696	-0.20430979
210	0xbdfa3d88	-0.122187674
211	0x3d2334c1	0.039845232
212	0xbdcf205c	-0.10113594
213	0x3e224ab8	0.15848815
214	0x3e45869f	0.19289635
215	0x3ba47e3d	0.0050199316
216	0x3cfec77f	0.031100987
217	0x3c02a3a7	0.007973588
218	0xbe176d04	-0.1478768
219	0x3d1c9ac0	0.03823352
220	0xbdda6616	-0.106640026
221	0xbe7a7b04	-0.24460989
222	0x3bbc1df6	0.0057408763
223	0x3e2e3932	0.17014006
224	0xbe1c585a	-0.15268078
225	0xbe4b8c18	-0.1987766
226	0xbdb4ca12	-0.08827604
227	0x3e2fc584	0.1716519
228	0xbe6e06c2	-0.23244765
229	0xbe1609c2	-0.1465216
230	0xbe2c1858	-0.16806161
231	0x3e6c2d99	0.23064269
232	0x3da4fff4	0.08056632
233	0x3e3d0604	0.18459326
234	0x3e882aec	0.26595247
235	0xbe05d8ff	-0.13071059
236	0xbe3ac5df	-0.18239544
237	0x3e041530	0.12898707
238	0x3c56de1e	0.01311448
239	0xbda1e6aa	-0.07905324
240	0x3e3a51e0	0.18195295
241	0xbe6b50e8	-0.22980082
242	0x3e206074	0.15661794
243	0x3e82a78d	0.25518456
244	0x3e204b80	0.15653801
245	0xbcd08464	-0.025453754
246	0x3dee271a	0.11628552
247	0x3ddf8902	0.10914804
248	0xbe88bf9c	-0.26708686
249	0x3e50a7b2	0.2037647
250	0x3e2a16ee	0.1661031
251	0x3e80b701	0.2513962
252	0x3df9e9f2	0.12202825
253	0xbd7557ac	-0.059898064
254	0xbe230453	-0.15919618
255	0x3d80a554	0.06281534

fc2.weight f4 [64, 256]
0	0x3cc2f4d6	0.023798387
1	0x3c910f8e	0.017707612
2	0x3be390ce	0.0069447523
3	0xbdceb55f	-0.100931875
4	0xbd615dc4	-0.055021062
5	0xbcad0381	-0.021119835
6	0xbd9d5d23	-0.0768378
7	0xbdd8d271	-0.105870135
8	0xbdbdc97d	-0.092669465
9	0xbcf4c002	-0.029876713
10	0xbd865044	-0.06558278
11	0xbd987342	-0.07443859
12	0xbda1897b	-0.078875504
13	0xbd6ba61e	-0.05753147
14	0xbd868723	-0.06568744
15	0x3bd318ce	0.006442166
16	0xbcad163f	-0.021128772
17	0x3e2bbb63	0.16770701
18	0xbb98a9d5	-0.0046589174
19	0xbd49049f	-0.049076673
20	0xbd6f23ed	-0.05838387
21	0xbd8914f7	-0.06693452
22	0xbdbd6230	-0.092472434
23	0xbd89e0f7	-0.06732362
24	0xbdb19e24	-0.08672741
25	0xbda3040b	-0.079597555
26	0x3d7bf9d8	0.061517566
27	0xbd45d49f	-0.048298474
28	0xbc13c781	-0.009019733
29	0xbd47b8e2	-0.048760302
30	0xbce043b7	-0.027376039
31	0xbd18ad27	-0.037274506
32	0xbc98d72a	-0.018657286
33	0x3c1774fc	0.0092442
34	0xbdb84041	-0.089966305
35	0xbdf6627f	-0.120305054
36	0xbd710d94	-0.05885084
37	0xbde82ccc	-0.11336669
38	0x3be85992	0.0070907557
39	0x3dab8ffe	0.08377074
40	0xbdd5a0e2	-0.104310766
41	0xbda4b17a	-0.080416635
42	0x3ca97772	0.020686839
43	0x3b20699d	0.0024477013
44	0xbdc3090a	-0.095232084
45	0xbda77204	-0.08176044
46	0x3d0c5582	0.034261234
47	0xbd73b7f5	-0.059501607
48	0x3cb0286a	0.021503646
49	0xbc4adff1	-0.012382493
50	0xbd6c4a4d	-0.057688046
51	0xbdcfc6b4	-0.101453215
52	0x3dbb454c	0.09144077
53	0x3b8c65e1	0.004284606
54	0xbd95e62a	-0.07319291
55	0xbd8f3e8d	-0.069943525
56	0xbd86cc9e	-0.065819964
57	0xbdbec0aa	-0.093140915
58	0xbaced1b0	-0.0015779044
59	0xbbdb0c9e	-0.0066848537
60	0xbccc1722	-0.024913374
61	0xbd1d84cd	-0.038456727
62	0xbd71e896	-0.0590597
63	0xbd888d50	-0.06667578
64	0xbdc4808b	-0.0959483
65	0xbd2d2a86	-0.04227688
66	0x3ce663ad	0.028123701
67	0xbd163b9c	-0.03667794
68	0xbde32eda	-0.110929206
69	0x3c0bb5dd	0.008527246
70	0x3d960068	0.07324296
71	0xbd12df95	-0.035857756
72	0xbd6dae4d	-0.058027554
73	0xbd6c01f0	-0.057619035
74	0xbdcd2c6f	-0.10018241
75	0x3d9158fe	0.07097052
76	0xbd440c1f	-0.047863122
77	0xbcf33464	-0.029688068
78	0xbd5025e1	-0.050817374
79	0xbd7d7459	-0.061878536
80	0xbd81dfc6	-0.063415095
81	0x3b552e41	0.003252879
82	0xbd95d0c0	-0.073152065
83	0xbde88dd4	-0.113551766
84	0xbe3d4d7d	-0.1848659
85	0xbe0fc63e	-0.14040467
86	0xbd77b72f	-0.060477432
87	0xbd749f0e	-0.059722
88	0x3cf36752	0.029712353
89	0xbb0d03ef	-0.0021517237
90	0x3ce23d50	0.027617127
91	0xbd745cdd	-0.059658874
92	0xbd584d7c	-0.05280827
93	0x3c83ce5b	0.016089609
94	0xbdfd584b	-0.12370356
95	0xbd9c41d4	-0.07629743
96	0xbd3c111b	-0.04591475
97	0xbdde33af	-0.108497016
98	0xbd17cfe3	-0.03706349
99	0x3cc760ce	0.024338152
100	0x3bd7c023	0.006584184
101	0xbe30c70a	-0.17263427
102	0xbd60271d	-0.0547248
103	0xbdaa1b37	-0.08305972
104	0xbd26fbb9	-0.040767405
105	0xbd75166c	-0.059835836
106	0xbdd401ad	-0.10351882
107	0xbd40014f	-0.046876248
108	0x3cd062ff	0.02543783
109	0xbced3515	-0.028955976
110	0xbd8e06af	-0.069348685
111	0xbd371da2	-0.044705994
112	0xbc8fb766	-0.017543506
113	0xbdbd44cc	-0.092416376
114	0xbd823470	-0.06357658
115	0xbd8ce070	-0.068787456
116	0xbd6d5705	-0.057944316
117	0x3d3304df	0.043705817
118	0x3ca9915d	0.020699197
119	0xbdb5e5d5	-0.088817276
120	0xbb82d945	-0.0039931857
121	0x3db19746	0.08671431
122	0xbde10e68	-0.10989076
123	0xbdf93883	-0.12168982
124	0xbc1df5b4	-0.0096411
125	0xbdca69bb	-0.09883448
126	0xbd8b56ac	-0.06803641
127	0x3cfac9b9	0.030613767
128	0xbc177f1d	-0.009246615
129	0x3ffadee2	1.9599268
130	0x3d37d18b	0.04487757
131	0x3c6e3f51	0.014541463
132	0xbc83774a	-0.016048092
133	0xbd83d4cf	-0.064370744
134	0xbd08b5f4	-0.03337665
135	0xbcadc792	-0.021213327
136	0xbb1cd9c4	-0.002393351
137	0xbdf5f84f	-0.12010252
138	0xbc49c72f	-0.0123155555
139	0xbbd19f3d	-0.0063971565
140	0xbd2888aa	-0.041145958
141	0xbc50d8d6	-0.01274701
142	0x3d351f96	0.044219576
143	0xbd346efd	-0.04405116
144	0xbdf9e726	-0.12202291
145	0xbde86585	-0.11347488
146	0x3cd0b559	0.025477098
147	0xbd937615	-0.07200257
148	0xbcfbc340	-0.03073275
149	0xbd4637dd	-0.04839312
150	0xbe0abde1	-0.13548996
151	0x3d862b8c	0.06551275
152	0x3d0b24a9	0.03397051
153	0x3e22bc39	0.15892114
154	0xbda3e84c	-0.080032915
155	0xbcb64da2	-0.022253815
156	0xbc49ad8e	-0.012309445
157	0x3e10d1be	0.1414251
158	0xbadce108	-0.0016851733
159	0xbc081546	-0.008305853
160	0xbd93acb5	-0.072106756
161	0xbc39e96a	-0.011347154
162	0xbce98834	-0.02850733
163	0x3c192978	0.009348266
164	0x3c905f20	0.017623484
165	0xbc9ae479	-0.018907772
166	0x3d822222	0.063541666
167	0xbd6e4072	-0.05816693
168	0xbcadb52e	-0.021204557
169	0xbda829bf	-0.082110874
170	0xbc6aa8e6	-0.014322495
171	0x3d3ae296	0.045626245
172	0xbd26875d	-0.040656436
173	0x3d839b79	0.064261384
174	0xbd875766	-0.06608467
175	0x3d17d6cf	0.03707009
176	0xbd50636e	-0.050876074
177	0xbc8f2d19	-0.017477559
178	0x3da889df	0.08229422
179	0x3be186bc	0.0068825167
180	0xbda9bfae	-0.08288513
181	0xbcf6d11a	-0.030129004
182	0xbd54b889	-0.0519338
183	0xbd8af717	-0.0678541
184	0x3d5245dc	0.051336154
185	0xbd57bc95	-0.05267008
186	0xbe1157fc	-0.1419372
187	0xbd4c9f4d	-0.04995661
188	0xbd0d604f	-0.034515675
189	0xbdb982f8	-0.090581834
190	0xbd33c183	-0.04388572
191	0x3c81a9a0	0.015827954
192	0xbe085716	-0.1331447
193	0xbdf27761	-0.11839176
194	0xbda390d0	-0.07986605
195	0xbd28c148	-0.041199952
196	0xbd102c83	-0.0351987
197	0xbd7d86a5	-0.061895985
198	0xbd3f6606	-0.046728157
199	0xbc865490	-0.016397744
200	0xbd4653bf	-0.04841971
201	0xbdc85d03	-0.097833656
202	0xbd3f4704	-0.046698585
203	0x3c3fe751	0.011712865
204	0xbd93f397	-0.072241955
205	0xbd407150	-0.046983063
206	0xbd1854ec	-0.037190363
207	0xbe33c6e6	-0.17556342
208	0xbc67641b	-0.014122988
209	0xbdd15d58	-0.10222882
210	0xbd2ed186	-0.042680286
211	0xbd9fdf87	-0.07806306
212	0xbd644071	-0.05572552
213	0x3cd324e0	0.02577442
214	0x3b183b96	0.0023228875
215	0x3d8ebce4	0.06969622
216	0xbdbcc930	-0.09218061
217	0xbb1270fd	-0.0022345178
218	0xbc118774	-0.008882392
219	0xbcd8a229	-0.026444511
220	0xbe0bfb41	-0.13670065
221	0xbccdbeed	-0.025115455
222	0xbcc99016	-0.024604838
223	0x3b04115f	0.0020151956
224	0xbcffeb06	-0.031239998
225	0xbda3a9fb	-0.079914056
226	0xbc1ed571	-0.009694443
227	0xbd3ed894	-0.046593264
228	0xbcaf47c2	-0.021396521
229	0xbb41e08e	-0.0029583308
230	0xbd17225b	-0.036898
231	0xbd803b42	-0.062613025
232	0x3b16ab16	0.0022990159
233	0xbd6e96c4	-0.05824925
234	0xbcb595cd	-0.022166157
235	0xbd08055a	-0.03320823
236	0x3d100e9e	0.03517019
237	0xbd281981	-0.041039947
238	0x3cc5c849	0.024143355
239	0xbc51876a	-0.012788633
240	0xbcd5ed03	-0.026113993
241	0xbdff7fae	-0.12475525
242	0xbd0cfbd3	-0.034419846
243	0xbd7e64cf	-0.062107857
244	0xbc315aa9	-0.010824838
245	0xbd858a83	-0.0652056
246	0xbd872aaf	-0.06599938
247	0xbc85935a	-0.016305614
248	0xbd797e89	-0.06091169
249	0xbdcf6050	-0.10125792
250	0xbdc79aad	-0.09746299
251	0xbd041f48	-0.032256395
252	0xbcaa53de	-0.020791944
253	0xbd3ef0e2	-0.046616443
254	0xbda0b25c	-0.07846519
255	0xbad17a86	-0.0015981949

fc2.bias f4 [64]
0	0xbe04d50d	-0.12971897
1	0x3ce825d3	0.028338348
2	0xbdb5d8b9	-0.08879227
3	0xbca44a9f	-0.020055113
4	0xbd7e203d	-0.062042464
5	0x3d49117f	0.04908895
6	0x3d4769bd	0.048684824
7	0xbceeee99	-0.029166507
8	0x3c8768a6	0.016529392
9	0x3d9fcfbb	0.07803293
10	0xbb8af601	-0.0042407517
11	0xbd3c423d	-0.045961607
12	0x3d89131b	0.06693097
13	0x3d4445d3	0.047918152
14	0xbc37126b	-0.011173825
15	0x3cc3d516	0.023905318
16	0x3d401a5c	0.04690014
17	0xbe5173bf	-0.2045431
18	0xbe3d8b5d	-0.18510194
19	0x3c3cd111	0.011524455
20	0xbda9f780	-0.0829916
21	0xbd7795f7	-0.060445752
22	0x3da2b48e	0.07944594
23	0x3cf61dd1	0.030043514
24	0xbc37c13c	-0.011215504
25	0xbd22ff07	-0.039793994
26	0x3beabf07	0.0071638855
27	0x3c8df2f5	0.017327765
28	0x3e2997a1	0.16561748
29	0xbcc6f9f6	-0.024289113
30	0x3bbdf5a1	0.0057971035
31	0xbde935b7	-0.113871984
32	0x3c20f8df	0.0098249605
33	0x3c4b6e87	0.0124164885
34	0xbc5bfc9d	-0.013426927
35	0x3c8bb8d1	0.0170559
36	0xbbe0576e	-0.00684636
37	0x3b4b8db3	0.00310598
38	0xbd292197	-0.0412918
39	0x3ccd74ae	0.025080051
40	0x3d7ae89e	0.061256997
41	0x3d867107	0.06564527
42	0xb9c3dead	-0.00037359205
43	0xbd2e0570	-0.042485654
44	0x3deafcbf	0.11473989
45	0xbd4fb694	-0.05071123
46	0x3db696f0	0.08915508
47	0x3cc52768	0.024066642
48	0x3d594154	0.053040817
49	0xbdd9ab58	-0.10628384
50	0x3d26a018	0.04068002
51	0xbd18802a	-0.0372316
52	0x3d49c2ff	0.04925823
53	0xbd2a8e61	-0.04163969
54	0xbc9ec0ab	-0.01937898
55	0x3cc3b235	0.023888687
56	0x3c45c146	0.012070006
57	0xbcff24eb	-0.031145534
58	0xbcbea4a0	-0.023271859
59	0x3d9755fe	0.073894486
60	0x3d399957	0.045312252
61	0xba6770b9	-0.00088287477
62	0xbc57cedf	-0.0131718805
63	0x3e0b40ba	0.1359891

fc3.weight f4 [64, 64]
0	0xbfb35c8c	-1.4012618
1	0xbc21c195	-0.009872814
2	0xbd74dfe5	-0.059783835
3	0xc06eaeaf	-3.7294118
4	0xbbc7b990	-0.006095119
5	0xbf68c3a1	-0.90923506
6	0x3c828c1d	0.015935952
7	0xc0611a02	-3.5172124
8	0x3d4d1158	0.05006537
9	0x3d05f1b0	0.032701194
10	0xbc2a61d5	-0.010399302
11	0x3d16588f	0.03670555
12	0xbdb3397b	-0.08751198
13	0xc0362e85	-2.8465893
14	0xbe7cec69	-0.24699558
15	0x3cf87c0f	0.030332593
16	0x3b99d427	0.00469448
17	0xbe00d9d2	-0.12583092
18	0xbfde3c27	-1.7362107
19	0x3c93b811	0.018032106
20	0xbd66cfea	-0.056350626
21	0xc007532e	-2.114452
22	0xbe587c6d	-0.21141215
23	0xbcd092c6	-0.025460612
24	0xbe884529	-0.26615265
25	0xbf8c53bb	-1.0963053
26	0xc01d1667	-2.4544923
27	0x3d066b86	0.032817386
28	0xbd36545c	-0.044514045
29	0xbc4ed436	-0.012623837
30	0xbe4dab1e	-0.20084807
31	0xc001eefb	-2.0302112
32	0x3c7825de	0.015145747
33	0xbd53dca1	-0.05172408
34	0x3c7037c3	0.014661732
35	0x3c68c7ac	0.014207762
36	0xbd96388e	-0.07335006
37	0xbea7d9e4	-0.32783425
38	0xbcaa1017	-0.020759625
39	0xc046fbe9	-3.1091254
40	0xbea51bd9	-0.3224781
41	0xbe8bafed	-0.27282658
42	0x3d194969	0.037423525
43	0xbd55f303	-0.052233707
44	0xbe21d17f	-0.15802573
45	0xba059be2	-0.0005096776
46	0x3cd313ad	0.025766218
47	0x3c91eefb	0.01781415
48	0xbf502b29	-0.8131586
49	0xbf4a123e	-0.78934085
50	0xbfb983df	-1.4493369
51	0xbc858cbb	-0.016302457
52	0xbe26270b	-0.16225831
53	0xc0048466	-2.070581
54	0xbf20b689	-0.62778527
55	0xc01469c6	-2.318956
56	0xbe964285	-0.29347625
57	0x3c9c1df1	0.019057246
58	0xbd1a18e7	-0.037621405
59	0xbe6bdceb	-0.23033492
60	0x3c65062b	0.013978521
61	0xbcbf5308	-0.023355022
62	0xbcd679c5	-0.026181111
63	0xbd380f6c	-0.044936582
64	0xbe42cb0d	-0.1902277
65	0x3ef07fdb	0.46972546
66	0xbdc56739	-0.09638829
67	0xbf146d54	-0.5797932
68	0x3db86092	0.09002794
69	0xbd95b58c	-0.07310018
70	0x3f084aae	0.5323895
71	0x3db94730	0.09046781
72	0xbc417d1b	-0.011809613
73	0x3f1166e5	0.5679763
74	0x3d2950c9	0.04133681
75	0x3ec1614b	0.3776954
76	0x3d80289a	0.06257744
77	0xbeed5c75	-0.46359602
78	0xbe674f90	-0.22588944
79	0xbe77bbfc	-0.24192804
80	0x3ab034a9	0.0013443428
81	0xbd31b286	-0.043383144
82	0xbf14fb34	-0.58195806
83	0x3e4659dc	0.19370216
84	0xbe2356a0	-0.15951014
85	0x3e138bad	0.14408751
86	0xbe691036	-0.2276009
87	0x3f246899	0.64222103
88	0xbe2c307a	-0.16815367
89	0xbed0cd7f	-0.4078178
90	0xbe991d98	-0.2990539
91	0xbcff3e70	-0.031157702
92	0xbcb9ce2a	-0.022681314
93	0x3e2afc13	0.16697721
94	0xbe6cb2cc	-0.2311508
95	0xbe0a8652	-0.13527802
96	0x3e6de43d	0.23231597
97	0xbed76f80	-0.42077255
98	0xbea04463	-0.31302175
99	0x3e1642f4	0.14673978
100	0xbe1d4e8a	-0.15361992
101	0xbe604578	-0.219015
102	0x3e95664f	0.29179618
103	0xbe1a9462	-0.15095666
104	0xbf1247d7	-0.5714087
105	0xbe6f95ca	-0.23396984
106	0x3ef6992c	0.48163736
107	0xbe53ced3	-0.20684366
108	0xbe4e6b61	-0.2015815
109	0x3e39f944	0.18161494
110	0x3f09d1bb	0.5383565
111	0x3ead6794	0.33868086
112	0xbed03048	-0.40661836
113	0xbe945fc4	-0.28979313
114	0xbeb63a68	-0.35591435
115	0x3d47afdd	0.0487517
116	0xbe8a81d2	-0.2705217
117	0xbdad466e	-0.08460699
118	0xbe8a55c8	-0.2701857
119	0xbdf1562a	-0.117840126
120	0x3ccd390a	0.025051612
121	0xbbdad2b1	-0.0066779484
122	0xbe879704	-0.26482403
123	0xbe1c8bff	-0.1528778
124	0x3e8b99db	0.2726582
125	0xbe59c8e5	-0.21268041
126	0xbd89db25	-0.067312516
127	0x3e91be57	0.2846553
128	0x3b293502	0.0025818949
129	0x3d9fa562	0.07795216
130	0x3b9a261b	0.0047042496
131	0x3c3f7002	0.01168442
132	0xbf354c2b	-0.7081935
133	0xbc22195a	-0.00989374
134	0x3df52238	0.11969417
135	0xbd3a7abf	-0.045527216
136	0xbdfb2861	-0.12263561
137	0xbdd03413	-0.10166182
138	0xbf40aee4	-0.7526686
139	0x3e01c814	0.1267398
140	0x3d118ea0	0.03553641
141	0x3b11cad8	0.0022246148
142	0x3d0fb0cc	0.035080716
143	0x3e20cc74	0.15702993
144	0xbd65c534	-0.05609627
145	0xbb233278	-0.0024901908
146	0xbd3840ec	-0.04498379
147	0x3e755b5b	0.2396063
148	0x3d2642bd	0.04059099
149	0xbdb60f3c	-0.088896245
150	0x3c4edf04	0.012626413
151	0xbd0372f3	-0.032092046
152	0xbc1b0aa9	-0.009462991
153	0xbba489e1	-0.0050213193
154	0xbcaa630b	-0.02079918
155	0xbdb26642	-0.087109104
156	0x3ccea205	0.025223741
157	0x3e2ce202	0.1688309
158	0x3cef4e3c	0.02921211
159	0xbd4388d5	-0.047737915
160	0xbfaa51d7	-1.3306226
161	0xbc82e1c1	-0.015976788
162	0xbde076e3	-0.10960176
163	0x3e568d17	0.20952259
164	0x3c97fa99	0.018552111
165	0x3b0b5c12	0.0021264595
166	0x3ec8e4a6	0.39236945
167	0xbce4a01b	-0.027908375
168	0xbee2b8ac	-0.44281518
169	0x3c09f816	0.008420965
170	0x3c90858c	0.017641805
171	0x3d22b92a	0.039727367
172	0x3cf8206a	0.030288894
173	0xbf1b1bef	-0.605895
174	0xbd41d0a5	-0.04731812
175	0xbe111328	-0.14167464
176	0xbbfb58b1	-0.007670485
177	0xbc5e79d5	-0.013578852
178	0x39cb1c8c	0.00038740446
179	0xbf3f00a9	-0.7461038
180	0xbcc28210	-0.02374366
181	0x3c46010e	0.012085212
182	0xbc075924	-0.008260999
183	0xbbbadd01	-0.0057026152
184	0xbd1fe4b3	-0.039036464
185	0xbdd48a59	-0.1037795
186	0xbdcddef4	-0.100522906
187	0xbb1743b9	-0.0023081137
188	0x3e144711	0.14480235
189	0xbc73854c	-0.014863323
190	0x3c6acb04	0.014330629
191	0xbd5e333a	-0.054248072
192	0xbfab9829	-1.340581
193	0x3c54cc1f	0.012988119
194	0xbe1ed7e1	-0.15512039
195	0xc04559f2	-3.0836148
196	0xbc3ec2e4	-0.011643145
197	0xbf842c9f	-1.0326117
198	0x3bc62eea	0.006048073
199	0xc05c94ed	-3.4465897
200	0xbd5fc1c9	-0.054628167
201	0xbd8da01f	-0.06915306
202	0xbc923dc0	-0.01785171
203	0xbcb7b3ba	-0.022424567
204	0xbddf408c	-0.10900983
205	0xc03bfad5	-2.9371846
206	0xbe5b118b	-0.21393411
207	0x3c499e8e	0.012305869
208	0xbe1a2fda	-0.15057316
209	0xbe1a2ac8	-0.15055382
210	0xbfccc5b7	-1.5997838
211	0xbd295f86	-0.041350864
212	0xbd7751fc	-0.06038092
213	0xc04672cd	-3.100757
214	0xbe72e50e	-0.2372019
215	0x3cb3d0c0	0.021950126
216	0xbec6878c	-0.3877529
217	0xbf39db57	-0.7260031
218	0xc03c8c61	-2.946068
219	0xbc23a44e	-0.009987904
220	0xbd4a1616	-0.04933747
221	0x3b612816	0.0034356168
222	0xbe428622	-0.1899648
223	0xc012c4b3	-2.2932556
224	0xbd0010e5	-0.031266112
225	0xbdb80977	-0.0898618
226	0xbd8db5f3	-0.0691947
227	0x3cd63385	0.026147613
228	0xbe269175	-0.16266425
229	0xbe88cabd	-0.26717177
230	0x3cd4b6c5	0.025966058
231	0xc010eacc	-2.2643309
232	0xbf66f238	-0.90213346
233	0xbe8a9e49	-0.27073887
234	0x3d111da3	0.035428654
235	0xbd31bea6	-0.043394707
236	0xbe81d35a	-0.2535656
237	0xbc5dbe90	-0.013534203
238	0x3ad84228	0.0016499208
239	0xbcdb3e7f	-0.026763199
240	0xbf1106f0	-0.5665121
241	0xbfa7d16b	-1.3110784
242	0xbf89b0c0	-1.0757065
243	0xbbcc59c3	-0.0062362864
244	0xbe1b6e5e	-0.1517882
245	0xbfdadefc	-1.70993
246	0xbf08149e	-0.5315646
247	0xc026ec8e	-2.6081882
248	0xbfae8ddd	-1.3637043
249	0x3d8be5df	0.06830954
250	0xbd1dc7a7	-0.03852048
251	0xbed75fd2	-0.42065293
252	0x3d55e971	0.05222458
253	0xbd3c082d	-0.045906235
254	0xbd551830	-0.05202502
255	0xbb89ed73	-0.0042092144

fc3.bias f4 [64]
0	0xc05c6016	-3.4433646
1	0x3fb2b903	1.3962711
2	0x3db3a8ea	0.08772452
3	0xc058192a	-3.376536
4	0xc0784eae	-3.8798022
5	0xc06e70da	-3.725638
6	0x3df1c8e9	0.11805899
7	0xc063eabf	-3.5612028
8	0xbe7b7393	-0.24555807
9	0x3f214267	0.62991947
10	0x3d10ceca	0.03535346
11	0x3d4a81ec	0.04944031
12	0x3e8058ef	0.2506785
13	0xbd890971	-0.06691254
14	0xbdd18ebc	-0.102323025
15	0x3efecae9	0.49764183
16	0x40555731	3.3334467
17	0xc0827e58	-4.077923
18	0x3f42f337	0.76152366
19	0x404db7f8	3.2143536
20	0xc0298c9b	-2.6492069
21	0xbd265486	-0.04060795
22	0xbe79f0c3	-0.2440825
23	0xc057d29b	-3.3722293
24	0x4059096e	3.3912005
25	0x3fe79fce	1.8095644
26	0xbdeb19d3	-0.11479535
27	0x3fe513d3	1.7896675
28	0x403890d1	2.883839
29	0x4021a443	2.5256507
30	0xc0665b3e	-3.599319
31	0x3d7a5fae	0.061126404
32	0xc085a6e4	-4.1766224
33	0xc03a8911	-2.9146159
34	0x3d514564	0.051091567
35	0xc0806c34	-4.0132084
36	0x3d75a0cf	0.059967812
37	0x3fa52bde	1.2904012
38	0xbc4cc955	-0.012499173
39	0x3ec19193	0.37806377
40	0x3dcf6537	0.10126727
41	0xc0199ba4	-2.4001245
42	0xbdd4ab57	-0.10384243
43	0xbe0a0e29	-0.13481964
44	0x3d8a05ea	0.06739409
45	0x40144578	2.31674
46	0x3f5fca21	0.874178
47	0x3e558938	0.20853126
48	0xc05f96ff	-3.493591
49	0xc0723159	-3.784262
50	0x3e5a3516	0.21309313
51	0xbcf5d5ca	-0.03000917
52	0x40492469	3.1428473
53	0x4061143c	3.51686
54	0x3eb2e7cf	0.3494248
55	0x3fe2c938	1.7717657
56	0xc01ee4e5	-2.4827206
57	0xc049def0	-3.154232
58	0x3fa59120	1.2934914
59	0x3fcedb0d	1.6160599
60	0xc0434d2e	-3.0515857
61	0x3e534e0f	0.20635246
62	0xc05800d3	-3.3750503
63	0x3d943be0	0.07237983

fc4.weight f4 [1, 64]
0	0x3d7a8884	0.061165348
1	0x3d84d1e4	0.06485346
2	0x3e2c67d3	0.16836481
3	0x3d961034	0.07327309
4	0x3d9104fe	0.0708103
5	0x3d85a50d	0.065256216
6	0x3d712c3e	0.058880083
7	0x3d7c3019	0.061569307
8	0x3d4a0284	0.049318805
9	0x3d584823	0.05280317
10	0x3d5618ef	0.052269872
11	0xbff74671	-1.9318372
12	0x3d3fff34	0.04687424
13	0xbece3ee8	-0.4028237
14	0x3d5a002c	0.05322282
15	0x3d7da318	0.061923116
16	0x3d8fca24	0.07020977
17	0x3d9b6f41	0.075895794
18	0xc01c16ec	-2.438899
19	0x3d71d6a7	0.0590426
20	0x3e0b0ab6	0.13578305
21	0x3d4885a7	0.048955586
22	0xbe305a3b	-0.1722192
23	0x3d802dde	0.062587485
24	0x3d82a9ee	0.06380068
25	0x3d6d9305	0.058001537
26	0x3de48d74	0.111597925
27	0x3da4c772	0.08045854
28	0x3eaadf54	0.3337351
29	0xbf2f50f2	-0.6848289
30	0x3d816f5f	0.063200705
31	0xc004619a	-2.0684571
32	0x3d7a063f	0.061041113
33	0xbe310ab1	-0.17289235
34	0x3e0c7ff9	0.13720693
35	0x3d95ab28	0.07308036
36	0xbf8def69	-1.1088687
37	0x3d8a9432	0.06766547
38	0x3d868192	0.06567682
39	0xbe930d61	-0.28721145
40	0xc016c0ba	-2.355513
41	0x3e0aa24c	0.13538474
42	0xbe763df4	-0.2404707
43	0x3e29973b	0.16561596
44	0x3e00be4c	0.12572592
45	0x3d850878	0.06495756
46	0x3d70438f	0.05865818
47	0xbea6d396	-0.32583302
48	0x3d89ff12	0.06738104
49	0x3d994194	0.07483211
50	0x3d91d87f	0.071213715
51	0x3db6f6c1	0.08933783
52	0x3d933a8d	0.07188902
53	0x3d7c7f12	0.06164462
54	0x3d5fed99	0.05466995
55	0x3d990177	0.074709825
56	0x3f2dd1c3	0.67898196
57	0x3d97429c	0.073857516
58	0xbe4afc0b	-0.1982271
59	0xbfa30515	-1.2735926
60	0xbe431de4	-0.19054371
61	0xbe522e53	-0.20525484
62	0x3d778a5d	0.060434688
63	0x3df5ec73	0.1200799

batchnorm1.weight f4 [256]
0	0x3f5731e8	0.84060526
1	0x3f495071	0.7863837
2	0x3f5e04a9	0.8672586
3	0x3f857cbb	1.042869
4	0x3fc6979a	1.5515015
5	0x3f493548	0.78596926
6	0x3f8d03bd	1.1016766
7	0x3fa950d0	1.3227787
8	0x3f427b7f	0.7596969
9	0x3f40c48d	0.7529991
10	0x3f36dff9	0.71435505
11	0x3f8e2dcb	1.1107725
12	0x3f957997	1.1677731
13	0x3f92620f	1.1436175
14	0x3fa3e002	1.2802737
15	0x3f371ecb	0.7153136
16	0x3f67a830	0.9049101
17	0x3e1c8663	0.1528564
18	0x3f8c1df1	1.0946637
19	0x3f55274e	0.832631
20	0x3f866516	1.0499599
21	0x3f60be7a	0.87790644
22	0x3fa75116	1.307162
23	0x3f9a9773	1.2077469
24	0x3f87eaa8	1.0618486
25	0x3fa43bb0	1.2830715
26	0x3f3d4dc0	0.7394676
27	0x3fab2531	1.3370725
28	0x3fa926d3	1.3214973
29	0x3f7a5b23	0.97795314
30	0x3f7f8cbc	0.9982412
31	0x3fac0cbe	1.3441389
32	0x3f87ea09	1.0618297
33	0x3f0c7d81	0.54879004
34	0x3f5e099a	0.867334
35	0x3f88bc0a	1.0682385
36	0x3fb7f845	1.4372641
37	0x3f913e40	1.1347122
38	0x3f6393e6	0.8889755
39	0x3f602216	0.8755201
40	0x3f920ffc	1.1411128
41	0x3fa7d214	1.3110986
42	0x3f86c683	1.0529331
43	0x3f8ccf33	1.1000732
44	0x3f7fdedf	0.9994945
45	0x3f331579	0.6995464
46	0x3f90c4b9	1.1310035
47	0x3f86bb8d	1.0525986
48	0x3f4ecc1c	0.80780196
49	0x3fccdc37	1.6004704
50	0x3f87b596	1.0602291
51	0x3f4de8e6	0.804335
52	0x3ec6b562	0.3881026
53	0x3f7360da	0.9506966
54	0x3f4f20ae	0.8090924
55	0x3f441c56	0.7660574
56	0x3faa2a77	1.3294209
57	0x3f92cc4a	1.1468594
58	0x3f8718e3	1.055447
59	0x3f885a44	1.0652547
60	0x3f911dca	1.1337216
61	0x3f85f339	1.0464851
62	0x3f8a75bf	1.0817183
63	0x3f9a8934	1.2073121
64	0x3f6e1173	0.92995375
65	0x3f98a9da	1.1926835
66	0x3f3e8954	0.74428296
67	0x3f3dc338	0.74126005
68	0x3f7628bb	0.961559
69	0x3fce6c82	1.6126864
70	0x3f7d6a2f	0.9899015
71	0x3f75261a	0.95761263
72	0x3f9942fa	1.1973565
73	0x3fb12990	1.3840809
74	0x3f81b55e	1.0133474
75	0x3f7650bd	0.96216947
76	0x3f468c26	0.775576
77	0x3f23fc91	0.6405726
78	0x3f8243e9	1.0176975
79	0x3f1038cc	0.56336665
80	0x3f870a01	1.0549928
81	0x3f9119aa	1.1335957
82	0x3f37a9e4	0.7174361
83	0x3f85b8ce	1.0447023
84	0x3fa0614e	1.2529695
85	0x3f90b930	1.1306515
86	0x3faa06c1	1.3283311
87	0x3f2b72bd	0.6697195
88	0x3f56e60d	0.8394478
89	0x3f6b89da	0.9200722
90	0x3f36cf90	0.71410465
91	0x3fc947ee	1.5725076
92	0x3f89a63a	1.0753853
93	0x3f69aa93	0.912759
94	0x3f958254	1.1680398
95	0x3f8d179f	1.1022834
96	0x3f96a306	1.1768501
97	0x3f8842ee	1.0645425
98	0x3f73fb59	0.953054
99	0x3fab701c	1.3393588
100	0x3f3f4057	0.7470755
101	0x3f8c7380	1.0972748
102	0x3fa5ca1f	1.2952307
103	0x3f986fb1	1.1909086
104	0x3f2dc4b1	0.6787825
105	0x3f9387a1	1.1525766
106	0x3f9473c9	1.1597835
107	0x3f5aa8d3	0.85413855
108	0x3f91bfab	1.1386617
109	0x3f2a77d8	0.6658912
110	0x3f84ca66	1.0374267
111	0x3f67ab52	0.9049579
112	0x3f8a5374	1.0806718
113	0x3f837d4b	1.0272611
114	0x3f354dec	0.70822024
115	0x3fa60bc4	1.297234
116	0x3f476fea	0.7790514
117	0x3f78ef5e	0.97240245
118	0x3f708fa2	0.93969166
119	0x3f41966e	0.7562016
120	0x3f69250a	0.9107214
121	0x3f47ea16	0.7809156
122	0x3f88c3db	1.068477
123	0x3f8dfff2	1.1093733
124	0x3fa508fb	1.2893366
125	0x3f5c3c1a	0.8602921
126	0x3f78b14c	0.97145534
127	0x3f603819	0.875856
128	0x3f803c84	1.0018468
129	0x402d0f1b	2.704047
130	0x3fc32c77	1.5247945
131	0x3ea4d67e	0.32194895
132	0x3f334887	0.7003254
133	0x3f9c0b5f	1.219097
134	0x3f51e30a	0.8198706
135	0x3f6f0f3e	0.9338263
136	0x3fc720c7	1.5556878
137	0x3f506198	0.81398916
138	0x3f8f371a	1.1188691
139	0x3f99d402	1.2017825
140	0x3f89a707	1.0754098
141	0x3f84ea30	1.0383968
142	0x3f5ba45c	0.8579767
143	0x3f862132	1.047888
144	0x3f4b30fc	0.7937162
145	0x3f929243	1.1450886
146	0x3ef86d43	0.4852086
147	0x3fab7f70	1.3398266
148	0x3f5a9fcc	0.8540008
149	0x3f6097a5	0.8773139
150	0x3fa5b97d	1.2947232
151	0x3f174321	0.59086806
152	0x3f7a29f0	0.9772024
153	0x3fd2991b	1.6452974
154	0x3fa95f86	1.3232276
155	0x3f58b103	0.846451
156	0x3f0b17a1	0.5433293
157	0x3f44d74c	0.76891017
158	0x3fbcce6e	1.4750497
159	0x3f43fc5a	0.7655693
160	0x3f5d49d2	0.86440766
161	0x3f506fa4	0.8142035
162	0x3f1121b1	0.56692034
163	0x3f5bd05e	0.8586482
164	0x3f45d0bf	0.77271646
165	0x3f319dd9	0.6938148
166	0x3f37e89f	0.71839327
167	0x3f7c763e	0.98617923
168	0x3f5186fa	0.8184658
169	0x3f744a7f	0.9542617
170	0x3f817d67	1.0116395
171	0x3f30ab11	0.69011027
172	0x3f736fab	0.95092267
173	0x3f56f1f8	0.83962965
174	0x3f16b67c	0.588722
175	0x3f95c97b	1.1702112
176	0x3f8fca2c	1.1233573
177	0x3faa7db9	1.3319618
178	0x3f366cb8	0.7125964
179	0x3f91c031	1.1386777
180	0x3f2eba43	0.6825296
181	0x3fce9922	1.6140482
182	0x3fa3a8a4	1.278584
183	0x3f58f172	0.84743416
184	0x3ed9cb14	0.4253775
185	0x3f92cad6	1.1468151
186	0x3f9974fc	1.1988826
187	0x3f9b6ae4	1.2141995
188	0x3f6b9775	0.9202798
189	0x3f9ad381	1.2095796
190	0x3fad6cd9	1.3548843
191	0x3f950a9e	1.1643865
192	0x3fa155f9	1.2604362
193	0x3f895e49	1.0731899
194	0x3f4f1989	0.8089834
195	0x3f4cb798	0.7996764
196	0x3f90654c	1.1280913
197	0x3faf9d87	1.3719949
198	0x3f8830d2	1.0639899
199	0x3f947518	1.1598234
200	0x3f1970b8	0.5993762
201	0x3f57a730	0.8423948
202	0x3f823d73	1.0175003
203	0x3f82bb7f	1.0213469
204	0x3f7eb1d9	0.99490124
205	0x3f474fa0	0.77855873
206	0x3f855516	1.0416591
207	0x3f94770c	1.159883
208	0x3f65ad57	0.8971762
209	0x3f7abf3f	0.9794807
210	0x3f8d5ad8	1.1043348
211	0x3f560ff1	0.83618075
212	0x3f3ac729	0.72960144
213	0x3f65be74	0.89743733
214	0x3f497318	0.78691244
215	0x3f26a711	0.65098673
216	0x3f2b9c09	0.67034966
217	0x402a4cac	2.6609297
218	0x3f473d8b	0.7782828
219	0x3f8eb920	1.1150246
220	0x3f68a3be	0.9087485
221	0x3f3a6505	0.72810394
222	0x3fac6f67	1.3471497
223	0x3f5f92c4	0.8733332
224	0x3f52c8c7	0.8233761
225	0x3f3f19f9	0.74649006
226	0x3fc8fa4d	1.5701386
227	0x3f91079b	1.1330446
228	0x3f3f8e52	0.7482654
229	0x3f8c0c9f	1.0941352
230	0x3f433590	0.76253605
231	0x3f8dd376	1.1080158
232	0x3f245626	0.6419395
233	0x3f6fc5bc	0.93661094
234	0x3fc8d114	1.5688806
235	0x3f89e09b	1.0771669
236	0x3f1f3a0a	0.62197936
237	0x3f5fb0d9	0.87379223
238	0x3f8ecd14	1.1156335
239	0x3fb5a4b7	1.4190892
240	0x3fbec579	1.4904014
241	0x3f6181f6	0.8808893
242	0x3f55add3	0.8346836
243	0x3f5a2846	0.852177
244	0x3f8711c5	1.0552298
245	0x3f6ae62d	0.9175747
246	0x3f199e66	0.6000732
247	0x3fcb7171	1.5893995
248	0x3f4cbbcd	0.7997406
249	0x3f6a80ec	0.9160297
250	0x3fbaf100	1.4604797
251	0x3f3b10a8	0.7307229
252	0x3fcdc437	1.6075505
253	0x3f9f21ac	1.2432151
254	0x3fa5ad93	1.2943596
255	0x3f68320d	0.9070137

batchnorm1.bias f4 [256]
0	0xbe67f27c	-0.22651094
1	0xbe7a256a	-0.24428335
2	0xbe5f0a8c	-0.21781367
3	0xbe6d5fa2	-0.23181012
4	0xbe681b34	-0.22666627
5	0xbe2d9318	-0.16950643
6	0xbdd701ea	-0.10498412
7	0xbe896ed2	-0.26842362
8	0xbe190b1a	-0.14945641
9	0xbe292388	-0.1651746
10	0xbe155175	-0.14581855
11	0xbe68be88	-0.22728932
12	0xbe8099ba	-0.25117284
13	0xbdf8b1be	-0.12143277
14	0xbde52fbb	-0.111907445
15	0xbe3a0d15	-0.18169053
16	0xbfbe57d0	-1.4870548
17	0xbf66e37c	-0.90190864
18	0xbe5ea320	-0.21741915
19	0xbe3d1f4e	-0.18468973
20	0xbe5c9e14	-0.21544677
21	0xbe34c766	-0.1765419
22	0xbf85b3f1	-1.0445539
23	0xbe82dfb7	-0.25561306
24	0xbe6a9bd7	-0.2291101
25	0xbe1aadb9	-0.15105332
26	0xbe2fb484	-0.17158705
27	0xbeec43a2	-0.4614535
28	0xbe8d378b	-0.27581438
29	0xbf97a5da	-1.1847489
30	0xbffb24ce	-1.9620607
31	0xbe8fd9fe	-0.28096002
32	0xbf1cbc46	-0.6122478
33	0xbebb47a4	-0.36578095
34	0xbe270090	-0.16308808
35	0xbe6969cd	-0.22794266
36	0x3df67289	0.120335646
37	0xbebd9600	-0.37028503
38	0xc00d6946	-2.2095504
39	0xbf6a0e8b	-0.9142844
40	0xbe08db84	-0.13364989
41	0xbf4704a3	-0.7774145
42	0xbf12d1f6	-0.57351625
43	0xbe55387c	-0.20822328
44	0xbe6ad9e5	-0.22934683
45	0xbe749a68	-0.23887026
46	0xbf9aadba	-1.2084267
47	0xbe546d4e	-0.20744821
48	0xbec41d6a	-0.3830369
49	0x3d99cd43	0.07509854
50	0xbe52d154	-0.20587665
51	0xbe483cbe	-0.19554421
52	0xbf3f9a7e	-0.7484511
53	0xbe91b14d	-0.28455582
54	0xbdabb2ae	-0.0838369
55	0xbea5200f	-0.3225102
56	0xbd38ff2d	-0.04516523
57	0xbee06263	-0.43825063
58	0xbe7a1296	-0.24421152
59	0xbe5990a6	-0.21246585
60	0xbe5aef32	-0.21380308
61	0xbea2d2cc	-0.3180145
62	0xbe7f1d00	-0.24913406
63	0xbffdfd28	-1.9842882
64	0xbe46ddb7	-0.19420515
65	0xbe100694	-0.1406501
66	0xbe274125	-0.16333444
67	0xbe7f52e2	-0.24933961
68	0xbe3bc2b2	-0.18335989
69	0x3d91845e	0.07105325
70	0xbe7a79ac	-0.24460477
71	0xbe495530	-0.19661403
72	0xbeb43ba4	-0.35201752
73	0xbdd5968b	-0.104291044
74	0xbe4cdcd7	-0.20006119
75	0x3e054b34	0.13016969
76	0xbe242940	-0.1603136
77	0xbf144c96	-0.5792936
78	0xbfb63226	-1.4234054
79	0xbfd4a587	-1.6613015
80	0xbe986a0a	-0.297684
81	0xc011feeb	-2.281184
82	0xbe0bb979	-0.13644971
83	0xbe6d63d9	-0.2318262
84	0xbe886d38	-0.26645827
85	0xbe81781a	-0.25286943
86	0x3df9af71	0.12191666
87	0xbe05c136	-0.13061985
88	0xbe25807c	-0.16162294
89	0xbe3387da	-0.17532292
90	0x3dbd2c7d	0.09237001
91	0xbe87ede9	-0.265487
92	0xbe5d3d30	-0.21605372
93	0xbe2368d9	-0.15957965
94	0xbe7cc82e	-0.24685737
95	0xbe69eae7	-0.22843514
96	0xbd5b220d	-0.05349927
97	0xbe6893e2	-0.22712663
98	0xbe8afc0d	-0.27145424
99	0xbe4758c3	-0.19467454
100	0xbe361983	-0.1778317
101	0xbe602af1	-0.21891381
102	0xbe8cee31	-0.27525476
103	0xbe1030e0	-0.14081144
104	0xbe3e9a1d	-0.18613477
105	0xbdf6e9b9	-0.12056298
106	0xbe8458a0	-0.25848866
107	0xc036e536	-2.85774
108	0xbf0c526d	-0.5481327
109	0xbef06abb	-0.4695643
110	0xbecaa19b	-0.3957642
111	0xbe534253	-0.2063077
112	0xbe58e733	-0.21181946
113	0xbe43349a	-0.19063035
114	0xbe31e313	-0.17371778
115	0xbe3a3750	-0.18185163
116	0xbe14ff77	-0.14550577
117	0xbe439d41	-0.19102956
118	0xbe3932f8	-0.1808585
119	0xbe1a3d61	-0.15062477
120	0xbe4efe45	-0.20214184
121	0xbefa32a7	-0.4886677
122	0xbf9ab0d6	-1.2085216
123	0xbe717c05	-0.23582466
124	0xbe30ea8b	-0.17276971
125	0xbe532ea2	-0.20623258
126	0xbe48bb67	-0.19602738
127	0xbe363aa8	-0.17795813
128	0xbe49a413	-0.19691496
129	0xbd77e189	-0.06051782
130	0xbf373bfc	-0.71575904
131	0xbf02ec8d	-0.511422
132	0xbe3491ba	-0.17633715
133	0xbfb81638	-1.4381781
134	0xbe8888b0	-0.26666784
135	0xbe3a6951	-0.18204238
136	0x3dec98b5	0.11552564
137	0xbe2d10fd	-0.16901012
138	0xbfbdb0ef	-1.4819621
139	0xbf34d24d	-0.70633394
140	0xbe5c0745	-0.21487148
141	0xbe6b1691	-0.22957827
142	0xc00536fc	-2.081481
143	0xbf5cc470	-0.8623724
144	0xbe25ed3d	-0.1620378
145	0xbe6e2844	-0.23257548
146	0xbf086b7b	-0.53289
147	0xbe30cfb3	-0.17266731
148	0xbe3dae23	-0.18523459
149	0xbd9a6432	-0.07538642
150	0xbe9d88c7	-0.30768415
151	0xbe2c142d	-0.16804571
152	0xbedee976	-0.43537492
153	0xbf25827c	-0.6465223
154	0xbe92d03d	-0.28674498
155	0xbe359438	-0.17732322
156	0xbef01f88	-0.46899056
157	0xbe1b7a47	-0.15183364
158	0x3db2b658	0.087261856
159	0xbe2e2b74	-0.17008764
160	0xbe3ba844	-0.18325907
161	0xbe8e6931	-0.2781463
162	0xbfeb64a3	-1.8390087
163	0xbdd5b89f	-0.10435604
164	0xbe34f3dd	-0.17671151
165	0xbe26e589	-0.16298498
166	0xbece7a51	-0.40327695
167	0xbebfaba8	-0.3743565
168	0xbd67d0b7	-0.05659553
169	0xbe45c02f	-0.19311593
170	0xbe50b998	-0.20383298
171	0xbe5be9dd	-0.2147593
172	0xbe410cac	-0.1885249
173	0xbe746781	-0.23867609
174	0xbea263be	-0.31716722
175	0xbf90aedb	-1.1303362
176	0xbe786e9d	-0.24260946
177	0xbe0e4066	-0.13891754
178	0xbf08f7fe	-0.53503406
179	0xbe2d9865	-0.16952665
180	0xbe127563	-0.14302592
181	0x3de0d900	0.109788895
182	0xbe902bae	-0.28158325
183	0xbe5c4d9b	-0.21513979
184	0xbf415795	-0.75524265
185	0xbe791c47	-0.24327193
186	0xbe81935c	-0.2530774
187	0xbf2eabaf	-0.6823072
188	0xbe47f1a8	-0.19525778
189	0xbebcfb65	-0.3691055
190	0xbea537ae	-0.32269043
191	0x3e1e64c8	0.15468132
192	0xbea03adb	-0.31294903
193	0xbe6457f3	-0.22299175
194	0xbe2e3f90	-0.17016435
195	0xbfed72e8	-1.8550692
196	0xbdf3ff8a	-0.119139746
197	0xbf0b7816	-0.5448011
198	0xbe697c7d	-0.22801395
199	0xbf3f9afe	-0.74845874
200	0xbed8c59b	-0.4233826
201	0xbe19cef3	-0.15020351
202	0xbe56e4b8	-0.20985687
203	0xbde6ee3b	-0.112759076
204	0xbfd0d973	-1.631636
205	0xbe46c0c0	-0.19409466
206	0xbe70f8d9	-0.23532428
207	0xbe5f6a97	-0.21818005
208	0xbe872242	-0.26393324
209	0xbe83f14a	-0.25770026
210	0xbf3cb128	-0.7370782
211	0xbf1dc5b1	-0.6162978
212	0xbe1f095a	-0.15530911
213	0xbffe05cb	-1.9845518
214	0xc02ff651	-2.749409
215	0xbf2858f9	-0.6576076
216	0xbe3a4652	-0.18190888
217	0xbdf9c474	-0.121956736
218	0xbe275e04	-0.16344458
219	0xbf8c433c	-1.0958018
220	0xbe39e153	-0.1815236
221	0xbe6834aa	-0.2267634
222	0xbe4a80d7	-0.19775711
223	0xbe3fabe2	-0.18717912
224	0xbe1cee13	-0.15325193
225	0xbe56ef3d	-0.209897
226	0x3d982684	0.07429221
227	0xbf96a6d1	-1.1769658
228	0xbe95acb2	-0.2923332
229	0xbe92ff31	-0.2871032
230	0xbe37553c	-0.17903608
231	0xbe5564e9	-0.20839275
232	0xbe832581	-0.2561455
233	0xbe3b4ece	-0.1829178
234	0x3dd3f114	0.103487164
235	0xbe9e47f6	-0.30914277
236	0xbfcf6df6	-1.6205432
237	0xbe34ff99	-0.17675628
238	0xbf3bfd49	-0.7343336
239	0xbe8309e6	-0.2559349
240	0x3da1d1d4	0.0790135
241	0xbe380208	-0.17969525
242	0xbe4116bc	-0.18856329
243	0xbe292b4c	-0.16520423
244	0xbeba46cf	-0.36382148
245	0xbcab945f	-0.020944772
246	0xbe0160bd	-0.12634559
247	0x3d9da228	0.076969445
248	0xbe3786b4	-0.17922479
249	0xbe3d3c76	-0.18480095
250	0xbf3950cb	-0.72388905
251	0xbe38fbb5	-0.18064769
252	0x3dbdd1bc	0.09268519
253	0xbe296c01	-0.16545106
254	0xbeec522d	-0.46156445
255	0xbe43cd33	-0.19121246
