model/model_20210803_152756.pt (torch, 321292 bytes, 45 tensors)

fc1.weight f4 [256, 14]
0	0x3e564f71	0.20928742
1	0xbbed5d64	-0.007243799
2	0x3d3985e4	0.045293704
3	0x3f03036b	0.5117709
4	0xbe74afba	-0.2389516
5	0xbff9859f	-1.9493903
6	0xbfdfe440	-1.7491531
7	0x3ebeb254	0.3724543
8	0xbffe43f9	-1.9864494
9	0xbf61e9b7	-0.88247246
10	0xbd9292d8	-0.071569145
11	0xbfec3039	-1.8452216
12	0x3e9f1b07	0.31075308
13	0xbf59279a	-0.8482605
14	0xbb89baf1	-0.0042031934
15	0x3cd72464	0.02626247
16	0xbe75c973	-0.24002628
17	0x3e91f4de	0.2850713
18	0xbe690c0c	-0.22758502
19	0xbfc566cb	-1.5421995
20	0xbfa98e14	-1.3246484
21	0x3f8a707d	1.0815579
22	0xbffb7d94	-1.9647698
23	0xbf0ddae4	-0.55412126
24	0xbe1c41e2	-0.15259507
25	0xbf98364b	-1.1891569
26	0x3ebb30f7	0.36560795
27	0xbf025ce1	-0.5092297
28	0x3ad3f4df	0.0016171
29	0xbcbfde87	-0.023421539
30	0xbf3c2898	-0.7349944
31	0x3e51991d	0.20468564
32	0xbdfddd2d	-0.123957016
33	0xbf60f683	-0.8787615
34	0xc00b331a	-2.174994
35	0x3f03fb23	0.5155508
36	0xbfc9c151	-1.576212
37	0xbff5b275	-1.9195086
38	0xbe8d24b1	-0.27567056
39	0xbfb7305c	-1.4311633
40	0xbdcd59a7	-0.100268655
41	0xbf5c290b	-0.86000127
42	0xbba30780	-0.0049752593
43	0xba65a5bf	-0.0008760355
44	0xbeed7961	-0.46381667
45	0xbe84998e	-0.25898403
46	0x3dc14073	0.09436121
47	0x3e5cd387	0.21565066
48	0xbdf3ff79	-0.11913962
49	0x3df72f21	0.12069536
50	0xbe294fbf	-0.16534327
51	0x3e933bcd	0.28756562
52	0x3d6d4600	0.057928085
53	0xbea0403d	-0.3129901
54	0x3ddc57bd	0.10758922
55	0xbebf2dbf	-0.3733959
56	0x3dc19931	0.09453047
57	0xbda4006e	-0.080078945
58	0x3d52ff12	0.051512785
59	0x3eaa0825	0.3320934
60	0x3f0d35e5	0.5516036
61	0x3fc3a233	1.5283874
62	0x400c2967	2.190027
63	0xbe42fe1d	-0.19042249
64	0x4022b898	2.5425167
65	0x3fbaea8b	1.4602827
66	0x3dacba29	0.08433945
67	0x3f7aa663	0.97910136
68	0xbe628e70	-0.22124648
69	0x3c257744	0.010099236
70	0x3e4490ce	0.19195864
71	0xbe1c76d7	-0.15279709
72	0x3eb143de	0.3462209
73	0x3e65eb2f	0.22452997
74	0x3ef04859	0.46930197
75	0x403d1c1e	2.9548411
76	0x40807b84	4.0150776
77	0xbf887f5b	-1.0663866
78	0x409a5afe	4.8236074
79	0x4000a437	2.0100229
80	0x3ecce2f2	0.40016896
81	0x3ff657e8	1.9245577
82	0xbf0d224a	-0.55130446
83	0x3f8f9f0a	1.122041
84	0x3c50aa2d	0.012735886
85	0xbd80f3da	-0.06296511
86	0xbf514ae7	-0.81754917
87	0x3e88ca70	0.26716948
88	0x3e5da089	0.2164327
89	0xbf4a2c79	-0.7897411
90	0xbed9ff04	-0.42577374
91	0x3f20dbc7	0.62835354
92	0xbf2af9ad	-0.66787225
93	0xbef3e42b	-0.47635016
94	0xbd3db3ee	-0.046314172
95	0xbf9fef9b	-1.2494997
96	0xbad871fb	-0.0016513461
97	0xbeb51ac2	-0.35371977
98	0xba51d11d	-0.00080038776
99	0xbb13deae	-0.0022563147
100	0xc05973aa	-3.3976846
101	0x3d8fc801	0.070205696
102	0xbedc5946	-0.4303686
103	0xbe5c058f	-0.21486495
104	0xbfbd4771	-1.4787427
105	0xbd83522e	-0.06412159
106	0xc05d3895	-3.4565785
107	0xc0cf0b34	-6.4701176
108	0xbdf50728	-0.119642556
109	0xbf5e5a74	-0.8685677
110	0x3ef765bd	0.48319808
111	0xbea9a7da	-0.33135873
112	0x3dac2ab6	0.08406584
113	0x3bd92d60	0.0066277236
114	0xbec7f704	-0.39055645
115	0x3e1af2d7	0.15131699
116	0xbd94ab55	-0.072592415
117	0x3de8a2e8	0.11359197
118	0x3da92296	0.0825855
119	0x3e84807b	0.25879273
120	0xbe176da3	-0.14787917
121	0x3da756b8	0.08170837
122	0x3dfd0c88	0.12355906
123	0x3df16ea7	0.117886834
124	0xbed1a5b6	-0.4094674
125	0xbe4e2360	-0.20130682
126	0xbaceb4bb	-0.0015770415
127	0xbe84bbb5	-0.2592446
128	0xbea918f0	-0.33026838
129	0x3e384d94	0.17998344
130	0x3df36d10	0.118860364
131	0x3e411b92	0.18858173
132	0xbe4d4967	-0.20047532
133	0x3eff0151	0.49805692
134	0xbec8c6e2	-0.39214236
135	0xbd8f4fa8	-0.06997615
136	0x3e61305a	0.21991101
137	0x3e906c14	0.28207457
138	0xbec1aff1	-0.37829545
139	0xbe6151c1	-0.22003843
140	0xbb896e38	-0.0041940473
141	0xbd287bf3	-0.041133832
142	0xbe333942	-0.17502311
143	0x3bb51e20	0.005527273
144	0x3e53afbb	0.20672505
145	0x3e17a5d3	0.1480935
146	0xbe4fd9e6	-0.20297965
147	0x3e3eb90b	0.18625276
148	0xbe895c39	-0.26828173
149	0x3ebe445c	0.3716153
150	0xbe0bc168	-0.13647997
151	0xbea56dd3	-0.32310352
152	0xbea15484	-0.31509793
153	0xbf44e2e5	-0.76908714
154	0xba7ec893	-0.0009719219
155	0x3b0009f8	0.0019537192
156	0xc04c0b4d	-3.1881897
157	0x3d449b33	0.047999572
158	0xbeb3c013	-0.35107478
159	0xbfd1d452	-1.639292
160	0xc003d6fa	-2.0599961
161	0x3e3fdbb4	0.18736154
162	0xc07c4a40	-3.9420319
163	0xc0af4b30	-5.477928
164	0xbd8eace8	-0.06966573
165	0xbfaf6662	-1.370312
166	0x3f0d196d	0.5511692
167	0xbeada323	-0.33913526
168	0x3bf1cdd9	0.0073792753
169	0xbbe453d1	-0.0069679995
170	0xbef594d8	-0.4796512
171	0x3e9b0a57	0.30281326
172	0x3da98eb5	0.08279172
173	0x3e3c07e1	0.1836238
174	0x3ece1b6c	0.40255296
175	0x3e96ac89	0.2942851
176	0x3e18db28	0.14927351
177	0x3e2c910c	0.16852206
178	0x3e8a6a55	0.2703425
179	0xbf0d3160	-0.55153465
180	0xbf411907	-0.75428814
181	0xbf9ad201	-1.2095338
182	0x3e81bef8	0.2534101
183	0x3dd8512b	0.105623566
184	0xbf1846db	-0.59483117
185	0xbc18a3c8	-0.009316392
186	0x3da24fea	0.07925399
187	0xbe586ad9	-0.21134509
188	0x3e3bfcf2	0.1835821
189	0xbd932af0	-0.07185924
190	0xbe2e20b7	-0.17004667
191	0x3e9d62af	0.30739352
192	0xbe71b7bb	-0.23605244
193	0x3e1ebf31	0.15502621
194	0xbe41e772	-0.18935946
195	0x3e5ecc56	0.21757635
196	0x3e3263c5	0.17420872
197	0x3e258768	0.16164935
198	0xbed40465	-0.41409603
199	0xbe0b7158	-0.13617456
200	0x3e8e8251	0.278338
201	0xbda27185	-0.079318084
202	0x3e401422	0.1875768
203	0x3ee9b657	0.45646927
204	0xbd7afc0c	-0.061275527
205	0x3e192b06	0.14957818
206	0xbe349272	-0.1763399
207	0x3d8fd99d	0.07023928
208	0xbe4ec05e	-0.2019057
209	0x3cb50bf7	0.022100432
210	0xba8a7bb1	-0.0010565427
211	0x3a9e3e52	0.0012073016
212	0xc044ff9d	-3.0781014
213	0x3d17a432	0.037021823
214	0xbf543fff	-0.8291015
215	0x3ee1c171	0.44092897
216	0x3e099fa5	0.13439806
217	0xbed1efd8	-0.410033
218	0xc0526548	-3.2874317
219	0xc0c10213	-6.031503
220	0x3cb9f519	0.02269988
221	0xbf12e697	-0.573831
222	0x3f39fbb7	0.7264971
223	0xbda3d077	-0.07998746
224	0x3e855221	0.26039222
225	0xbd317ac5	-0.043329973
226	0xbf168324	-0.58793855
227	0x3d218a02	0.039438255
228	0xbde23acc	-0.11046371
229	0xbff6d9ac	-1.9285178
230	0xbff2c993	-1.8967766
231	0x3f27f655	0.6561025
232	0xc0188853	-2.3833206
233	0xbf4263f1	-0.7593375
234	0xbe9da6f4	-0.30791438
235	0xbfd81ce1	-1.6883813
236	0x3e56a088	0.20959675
237	0xbf304400	-0.6885376
238	0x3e566bf6	0.20939621
239	0x3c1522c7	0.00910253
240	0xbed3942d	-0.41323987
241	0x3dd99a16	0.10625093
242	0xbe93c17e	-0.2885856
243	0xc0073405	-2.11255
244	0xc00db3a2	-2.214089
245	0x3f4a6f68	0.7907624
246	0xc011225d	-2.2677224
247	0xbf622827	-0.8834252
248	0x3d0f068d	0.034918357
249	0xbfad02da	-1.3516495
250	0x3f2444b1	0.64167315
251	0xbf25f035	-0.6481965
252	0xbb9fdba3	-0.0048784777
253	0x3b36a633	0.0027870059
254	0xbf4c0592	-0.79696
255	0x3e2624f6	0.16225037

fc1.bias f4 [256]
0	0x3e652e17	0.22380863
1	0x3dcff961	0.10154987
2	0x3e7b8d3a	0.24565592
3	0xbd7f41c8	-0.062318593
4	0xbdbaddfe	-0.09124373
5	0x3df6f364	0.12058142
6	0x3e12563e	0.14290711
7	0x3da0a49c	0.07843897
8	0xbd052be0	-0.032512546
9	0xbe78e67c	-0.24306673
10	0x3df1a1ca	0.11798437
11	0xbd742f3a	-0.05961535
12	0xbd18e117	-0.037324037
13	0xbe6f5032	-0.23370436
14	0x3df27e60	0.1184051
15	0xbe0938a8	-0.13400519
16	0x3e510261	0.20411064
17	0x3e488815	0.19583161
18	0xbd75d176	-0.06001421
19	0xbe812011	-0.25219777
20	0xbe2d9fa4	-0.1695543
21	0x3d69fb96	0.057124697
22	0xbdcb1ed2	-0.09917988
23	0xbddb4896	-0.10707204
24	0x3d8fbb6c	0.0701817
25	0xbd40caac	-0.047068283
26	0x3e19c243	0.15015511
27	0x3d862882	0.06550695
28	0xbcbe8490	-0.02325657
29	0x3e2cf7a6	0.16891345
30	0xbe1e436a	-0.15455404
31	0x3dbfcce9	0.093652554
32	0x3e412956	0.18863425
33	0x3e4bff98	0.1992172
34	0xbdffd4da	-0.1249177
35	0x3e6171ee	0.22016117
36	0xbe31e520	-0.1737256
37	0xbd20dca4	-0.03927292
38	0xbe79a4de	-0.24379298
39	0xbe15b3f8	-0.14619434
40	0x3dcd4062	0.10022046
41	0x3e7812ba	0.24225894
42	0xbe5fb244	-0.21845347
43	0x3e6aab8c	0.22917002
44	0x3dcd7480	0.10031986
45	0x3e475e1d	0.19469495
46	0xbc8211a0	-0.015877545
47	0xbdad4810	-0.084610105
48	0x3e429231	0.1900108
49	0x3d760e50	0.060072243
50	0x3cbab8c0	0.022793174
51	0xbd6656f6	-0.056235276
52	0xbdcbaa24	-0.09944561
53	0x3de7a6b6	0.113110945
54	0xbe4dbfc6	-0.20092687
55	0xbd155287	-0.036455657
56	0xbc8f2db2	-0.017477844
57	0xbe4ee8c7	-0.20205985
58	0xbdc52956	-0.09627025
59	0x3e1af084	0.15130812
60	0x3e363ed8	0.1779741
61	0xbe2db728	-0.169644
62	0xbde4b9d6	-0.11168258
63	0x3e2ec440	0.17067051
64	0xbd7b67a8	-0.06137815
65	0x3e426f1e	0.189877
66	0x3e16af26	0.14715251
67	0x3ccfdc60	0.025373638
68	0xbca5a65f	-0.020220933
69	0x3e13514c	0.14386481
70	0xbe84e2d0	-0.25954294
71	0xbd89c1b5	-0.067264
72	0x3d87fa17	0.06639498
73	0x3e87a156	0.26490277
74	0xbe217091	-0.15765597
75	0x3e1e4c84	0.15458876
76	0xbc528420	-0.012848884
77	0x3db3e758	0.0878436
78	0x3e57a921	0.21060611
79	0xbddf907e	-0.109162316
80	0xbe5a5d06	-0.21324548
81	0xbe43b474	-0.19111806
82	0xbda15838	-0.078781545
83	0x3e142270	0.14466262
84	0x3d5c9d80	0.05386114
85	0xbe22f856	-0.15915045
86	0xbe368db2	-0.1782749
87	0xbe61dc97	-0.22056805
88	0xbe00ea88	-0.12589467
89	0xbdbb17a1	-0.09135366
90	0xbe1227f8	-0.1427306
91	0xbe86721f	-0.26258942
92	0x3cde6843	0.027149325
93	0x3e207b16	0.15671954
94	0x3da025e0	0.07819724
95	0xbdb7bd55	-0.08971659
96	0xbe0689f8	-0.13138568
97	0x3e4c834f	0.19971965
98	0x3cd5fa7a	0.026120413
99	0x3dd8146f	0.105507724
100	0x3d9de7df	0.077102415
101	0x3db619d8	0.08891648
102	0xbca99ac5	-0.020703683
103	0x3d20428a	0.039125957
104	0xbde019c8	-0.109424174
105	0x3e1f9afe	0.15586469
106	0x3e853e41	0.26024058
107	0xbe87f99e	-0.2655763
108	0xbe3ee7d7	-0.18643127
109	0x3e84b3cc	0.25918424
110	0x3d6c4ae0	0.057688594
111	0x3e43819c	0.19092411
112	0x3dc5abb0	0.096518874
113	0xbe8899ef	-0.26679942
114	0x3e3d4094	0.18481666
115	0xbe574f31	-0.21026303
116	0x3d9f66b4	0.07783261
117	0xbc932039	-0.0179597
118	0xbdedff4c	-0.1162096
119	0x3e74d7cd	0.23910446
120	0x3dcd60e5	0.10028247
121	0xbd08d474	-0.033405736
122	0xbe85a915	-0.26105562
123	0x3e0c95b8	0.13728988
124	0xbe88dff6	-0.2673337
125	0xbe801f1e	-0.2502374
126	0xbe842599	-0.25809935
127	0x3e4e6c70	0.20158553
128	0xbda2e29e	-0.0795338
129	0xbd5220d0	-0.051300824
130	0x3dbc3388	0.09189516
131	0xbdba4058	-0.09094304
132	0x3e7294e6	0.23689613
133	0xbdbfd0c6	-0.09365992
134	0xbd1291eb	-0.03578369
135	0xbdd9a736	-0.10627596
136	0x3d0b7e9e	0.0340563
137	0xbd9e2342	-0.07721569
138	0xbe41f8fa	-0.18942633
139	0x3e882890	0.26593447
140	0xbe708b6d	-0.23490687
141	0x3e58b8a7	0.2116419
142	0x3ca9ca83	0.020726448
143	0xbdc4ffc2	-0.096190944
144	0x3d3df0e4	0.04637231
145	0xbe8271f9	-0.2547758
146	0x3e250b52	0.161176
147	0xbe725ceb	-0.23668258
148	0xbe5f9517	-0.21834217
149	0x3dd2151a	0.10257931
150	0x3d272828	0.04080978
151	0xbdd30a27	-0.10304671
152	0xbcea9ec0	-0.028640151
153	0xbd96861c	-0.07349798
154	0x3e028d13	0.12749128
155	0x3d4e12b8	0.05031082
156	0xbdb42845	-0.08796743
157	0xbe5d4392	-0.21607807
158	0x3d98f422	0.0746844
159	0x3dbdef7c	0.09274194
160	0x3be76bdf	0.00706242
161	0xbdb31242	-0.08743717
162	0x3df41b85	0.119193114
163	0x3e25656b	0.16151969
164	0x3e3aaf00	0.1823082
165	0xbd06f330	-0.032946765
166	0x3e4153e6	0.18879661
167	0xbe6b24f6	-0.22963318
168	0x3e0b960a	0.13631454
169	0x3e091612	0.13387325
170	0xbe3dae8d	-0.18523617
171	0xbe30a5c3	-0.17250733
172	0xbcf01717	-0.029307885
173	0x3bc3607b	0.005962429
174	0xbd371940	-0.044701815
175	0x3c6905ce	0.014222575
176	0x3d14f130	0.036362827
177	0x3e091db1	0.13390233
178	0xbe814997	-0.25251457
179	0xbe78bf73	-0.24291782
180	0xbe750237	-0.23926626
181	0xbe361eea	-0.1778523
182	0x3d9678a8	0.07347232
183	0x3e136225	0.14392908
184	0xbe641de2	-0.22277024
185	0xbdcdcb9b	-0.100486
186	0x3db2d16c	0.0873135
187	0xbdd96bf0	-0.106162906
188	0x3d87bcf6	0.06627838
189	0xbe21c26d	-0.15796824
190	0xbe5b0628	-0.21389067
191	0xbe583989	-0.21115698
192	0x3d1b127f	0.037859436
193	0xbc656280	-0.014000535
194	0x3d02b42c	0.031910107
195	0xbe1ca84f	-0.1529858
196	0xbe829a1f	-0.2550821
197	0xbe780b1d	-0.2422299
198	0x3e504cb4	0.2034176
199	0xbd7ddd50	-0.06197864
200	0x3d8ce9a8	0.06880504
201	0x3e0951b2	0.1341007
202	0x3db87596	0.09006803
203	0xbd132b8c	-0.0359302
204	0xbe1742a1	-0.1477151
205	0x3e33b44a	0.17549244
206	0xbd4c0ec0	-0.049818754
207	0xbe4a124b	-0.1973354
208	0xbcb45de3	-0.022017425
209	0xbe87ee87	-0.2654917
210	0xbcb94070	-0.022613734
211	0x3e0744ea	0.13209882
212	0x3dd3cee4	0.10342196
213	0x3e6f2223	0.23352866
214	0xbe423ae8	-0.18967783
215	0xbe5ecf65	-0.21758802
216	0xbe3331c5	-0.17499454
217	0x3e500792	0.20315388
218	0xbe6969f7	-0.22794329
219	0x3e585fba	0.21130267
220	0xbe60f5b6	-0.21968731
221	0x3e216b9b	0.15763704
222	0x3e278660	0.16359854
223	0xbe60be85	-0.21947677
224	0x3d2dd968	0.042443663
225	0x3e51ca06	0.20487222
226	0xbccbd6d7	-0.024882717
227	0xbd480ef0	-0.04884237
228	0x3da18ee4	0.07888582
229	0x3dd1d6d8	0.10246056
230	0xbd601a10	-0.054712355
231	0x3b9f7640	0.0048663914
232	0x3e3c6f87	0.1840192
233	0xbe5ba6f5	-0.21450408
234	0x3e3caf22	0.18426183
235	0x3d550749	0.0520089
236	0x3e36648f	0.17811798
237	0xbd859116	-0.065218136
238	0xbe065d24	-0.13121468
239	0x3e01f132	0.12689665
240	0x3dd8d5b8	0.105876386
241	0xbdc391b6	-0.095492765
242	0x3d846b2c	0.06465754
243	0x3e09a670	0.13442397
244	0x3e642ed5	0.2228349
245	0xbe0b7877	-0.13620172
246	0xbdc64bae	-0.096824035
247	0xbe3f94c8	-0.187091
248	0xbe63e17f	-0.22253989
249	0xbd9aaa75	-0.07552043
250	0xbe857264	-0.26063836
251	0x3e6b4763	0.2297645
252	0x3e0ba540	0.13637257
253	0xbe872c8d	-0.26401177
254	0xbe479105	-0.19488914
255	0x3e5dd05f	0.21661519

fc2.weight f4 [64, 256]
0	0xbd24d43f	-0.040241476
1	0xbd0d07e3	-0.03443135
2	0x3d756083	0.059906494
3	0xbd16a7cc	-0.036781117
4	0xbcf825fd	-0.030291552
5	0xbce0b9b8	-0.027432308
6	0xbc34e898	-0.011041783
7	0x3f8a224e	1.0791719
8	0xbc85df52	-0.016341839
9	0x3b295c63	0.002584242
10	0xbcf6de72	-0.030135367
11	0x3f5e6136	0.8686708
12	0x3d7fe93d	0.062478293
13	0xbc1a08a8	-0.009401478
14	0xbbfdfae7	-0.007750857
15	0x3efc94cd	0.49332276
16	0xbcf51ec1	-0.029921891
17	0xbc79f426	-0.015255963
18	0xbcad4725	-0.021152088
19	0xbcf23ee3	-0.029571002
20	0x3a73b446	0.0009296577
21	0x3c6028d1	0.013681606
22	0x3b8ed4f9	0.0043588844
23	0xbd084f1a	-0.033278562
24	0xbaa399a1	-0.0012481698
25	0xbc57727c	-0.013149854
26	0x3e16d9ad	0.14731474
27	0xbd6727ba	-0.05643437
28	0xbceb723e	-0.028740998
29	0xbce65c4a	-0.028120179
30	0x3a350d13	0.000690655
31	0xbc7f98c3	-0.015600386
32	0xbc2ebc42	-0.010665001
33	0xbc13be39	-0.009017521
34	0xbd01c708	-0.03168395
35	0xbcc0c918	-0.023533389
36	0xbd72f336	-0.059313975
37	0xbcc2c4e0	-0.023775518
38	0xbd08ec46	-0.033428453
39	0xbcaae37e	-0.02086043
40	0xbcc82f9e	-0.024436768
41	0xbca35cea	-0.019941766
42	0xbd858e86	-0.06521325
43	0xbd0f143d	-0.03493141
44	0xbd1b1f7f	-0.037871834
45	0x3e0217b3	0.12704353
46	0xba555ff1	-0.00081396016
47	0xbc692423	-0.014229807
48	0xbc9bd623	-0.019023007
49	0xbd1756ca	-0.036948003
50	0xbc9ea511	-0.01936582
51	0x3dd84c9b	0.10561486
52	0x3db72c6c	0.0894402
53	0x3dddb277	0.10825055
54	0x3c89dedf	0.016829906
55	0xbceff2d1	-0.029290589
56	0x3ef1e4d7	0.47244903
57	0xbb75dc54	-0.003751536
58	0xbcd49e4c	-0.025954388
59	0xbcdcbb5c	-0.026944809
60	0x3d9df009	0.07711799
61	0xbd26409c	-0.04058896
62	0xbacf9f8d	-0.0015840397
63	0xbcd2bf11	-0.025725873
64	0xbd5f7447	-0.05455425
65	0x3d398099	0.045288656
66	0xbd0c8044	-0.03430201
67	0xbcacadf9	-0.02107905
68	0x3d371c03	0.04470445
69	0xbb6c0a74	-0.0036016973
70	0xbcf2b3bd	-0.029626722
71	0x3f3c9c0d	0.73675615
72	0xbb27ee12	-0.0025624079
73	0x3f1d1809	0.613648
74	0xba2eaa61	-0.00066629617
75	0xbcbf6618	-0.023364112
76	0x3b91ffa4	0.0044555236
77	0xbc23d4d7	-0.009999475
78	0xbabec79f	-0.0014555341
79	0x3dc8ba59	0.09801168
80	0xbbbb5446	-0.0057168333
81	0x3c020dd2	0.007937865
82	0x3f86b946	1.0525291
83	0xbd047379	-0.032336686
84	0xbccd6957	-0.025074644
85	0xbcec3741	-0.02883494
86	0xbc979f74	-0.01850865
87	0x3dd72214	0.10504547
88	0xbc5e7b0d	-0.013579142
89	0xbc926016	-0.017868083
90	0xbc317321	-0.0108306715
91	0x3ccd4f1b	0.025062134
92	0x3e11bf06	0.14233026
93	0xbd14de8c	-0.03634505
94	0xbc635023	-0.013874087
95	0xbd72615f	-0.05917489
96	0x3cb91a80	0.022595644
97	0xbd8f765f	-0.07004999
98	0x3c1e4520	0.009660035
99	0xbd21d363	-0.039508235
100	0xbd03534e	-0.032061867
101	0xb9e30d4d	-0.00043306724
102	0x3c71341e	0.014721898
103	0x3d522b0d	0.051310588
104	0x3d15e84a	0.03659848
105	0xbe7445e4	-0.23854786
106	0x3f88f09b	1.0698427
107	0xbd498648	-0.049200326
108	0xbd47fa23	-0.048822533
109	0x3a65e6e7	0.0008770064
110	0xbc1be2cc	-0.009514522
111	0xbcd6bf72	-0.026214335
112	0xbbf53ca3	-0.007484035
113	0xbd249c8e	-0.040188365
114	0xbb8be4fe	-0.0042692414
115	0x3ecc0a94	0.3985182
116	0xbcca8d8b	-0.024725696
117	0x3bf3d228	0.007440824
118	0xbd52903b	-0.05140708
119	0x3c95f6dd	0.01830619
120	0x3f614261	0.8799191
121	0x3d6d2bd0	0.05790311
122	0x3c1a3a32	0.009413289
123	0xbd0e20c6	-0.034699224
124	0x3da37766	0.07981758
125	0xba3ce4d7	-0.00072057307
126	0xbcf7dca5	-0.030256579
127	0xbc8520ec	-0.01625105
128	0x3c6b396a	0.01435695
129	0xbcc1928a	-0.023629446
130	0xbc2c66d1	-0.01052256
131	0xbb787ba2	-0.0037915488
132	0xbcdd7309	-0.027032392
133	0x3c76440b	0.015030871
134	0x3f0a4116	0.54005563
135	0xbd02c872	-0.03192944
136	0x3cd8574b	0.026408812
137	0x3f0c09ed	0.54702646
138	0x3c600ecc	0.013675403
139	0xbd215015	-0.039383013
140	0x3f6f92ce	0.9358338
141	0x3e0ad532	0.1355789
142	0x3f118639	0.5684543
143	0xbb6aea22	-0.003584512
144	0x3bf48036	0.007461573
145	0xb98cb303	-0.00026836255
146	0xbd6cf1df	-0.057847854
147	0xbcbcad77	-0.023031933
148	0x3cb9865c	0.022647075
149	0x3bc3581a	0.0059614303
150	0xbbaf7513	-0.0053545325
151	0xbcdbd9d8	-0.026837274
152	0xbbb0908e	-0.005388326
153	0xbbcc5683	-0.006235899
154	0xbcc6d7f2	-0.024272893
155	0xbc0d864f	-0.008637979
156	0xbb841d9d	-0.0040318505
157	0xbcea659e	-0.028612908
158	0xbc75dd15	-0.015006323
159	0xbcdc52c5	-0.026894936
160	0x3b47578e	0.0030417177
161	0xbc885f1e	-0.016646918
162	0x3b92de24	0.0044820476
163	0xbd8a6d83	-0.06759169
164	0xbcf9ba1f	-0.030484257
165	0xbbb68239	-0.005569723
166	0xbb7c3032	-0.0038480875
167	0xbc9adcb3	-0.018904066
168	0x3bf1a8af	0.007374845
169	0x3f221257	0.63309234
170	0xbd3a1d39	-0.045438025
171	0xbc3237ad	-0.010877532
172	0x3cb89666	0.022532653
173	0x3f0d19b9	0.55117375
174	0x3c1ca8e4	0.009561751
175	0xbceb526a	-0.028725822
176	0xbc007e46	-0.007842606
177	0xbd367a13	-0.044550013
178	0xbceff670	-0.029292315
179	0x3d9b62af	0.07587182
180	0xbbf05145	-0.007333907
181	0xbd8e5fb6	-0.06951849
182	0xbd2b2676	-0.041784726
183	0xbc3001ee	-0.010742648
184	0xbc89982d	-0.016796196
185	0xbc5f0fd0	-0.01361461
186	0xbc39bb9a	-0.011336232
187	0x3b936d7c	0.0044991355
188	0x3cadd524	0.021219797
189	0x3d8e324a	0.069431856
190	0x3b393653	0.002826114
191	0xbd1fca57	-0.039011326
192	0xbccfb9e4	-0.025357194
193	0xbcc7b690	-0.024379045
194	0xba46bae2	-0.00075809483
195	0x3f6c2f5d	0.9225977
196	0xbcc0bc88	-0.023527399
197	0xbcbddb6b	-0.023175916
198	0x3b94f331	0.0045455922
199	0xbc86f0ab	-0.016472181
200	0xbd8d40c6	-0.0689712
201	0x3c19144e	0.00934322
202	0x3e197cd3	0.14989023
203	0xbcb7325d	-0.022362882
204	0x3c0e76a1	0.0086952755
205	0xbd215559	-0.039388034
206	0xbced5474	-0.028970934
207	0xbcfc90fc	-0.030830853
208	0xbcdbcad2	-0.02683011
209	0xbc8154e5	-0.015787551
210	0xbc609f1a	-0.013709808
211	0x3c05dcf2	0.008170353
212	0xbca9003e	-0.020629998
213	0xbc08d6a8	-0.008351959
214	0xbb7107f6	-0.0036778427
215	0xbb1964ae	-0.0023405957
216	0x3ecd143b	0.40054497
217	0xbc474bbe	-0.012164054
218	0x3a20ba79	0.0006131302
219	0xbcc3057a	-0.023806322
220	0xbda6c272	-0.08142556
221	0xbd97ff29	-0.07421715
222	0xbbae8883	-0.005326332
223	0x3c26e346	0.010186022
224	0xbbda756c	-0.00666683
225	0x3b8d3025	0.004308718
226	0x3ed90c7d	0.4239234
227	0xbc31aa8f	-0.010843887
228	0xbd05adcf	-0.03263646
229	0x3af59723	0.0018737059
230	0xbc98c101	-0.018646719
231	0xbcd2dd71	-0.025740357
232	0xbcea9e88	-0.028640047
233	0xbd334b81	-0.043773178
234	0xbd005a73	-0.03133626
235	0xbd34bde5	-0.04412641
236	0x3ef26a9a	0.47346956
237	0x3c958862	0.018253509
238	0x3d387e8e	0.045042567
239	0x3d13ee49	0.03611592
240	0xbcd89583	-0.02643848
241	0xbc8fdc53	-0.017561113
242	0xbb563688	-0.0032686312
243	0x3d4781eb	0.048707884
244	0xbccbed8b	-0.024893543
245	0xbd6325a2	-0.05545581
246	0xbd4db060	-0.050217032
247	0xbc153a70	-0.009108171
248	0x3f511885	0.8167804
249	0x3c29b813	0.010358828
250	0xbbf9a369	-0.007618357
251	0xbd0acf67	-0.0338892
252	0xbc5abe4f	-0.013351037
253	0xbda30c1f	-0.07961296
254	0xbcf0d5e8	-0.029398873
255	0x3e085e4b	0.1331722

fc2.bias f4 [64]
0	0xbc4ef873	-0.012632477
1	0x3d3c3bd3	0.04595549
2	0x3d0225ae	0.031774215
3	0xbd1f067a	-0.038824536
4	0xbd0fe57b	-0.03513096
5	0xba5645ae	-0.0008173835
6	0x3a5bc46f	0.0008383458
7	0xbca74273	-0.020417428
8	0x3e0a0c66	0.13481292
9	0xbbc4294b	-0.005986368
10	0x3d273cf5	0.040829618
11	0xbd8045b0	-0.06263292
12	0xbd8262e0	-0.06366515
13	0xbd7cf97f	-0.061761376
14	0x3d7b8b6e	0.061412267
15	0xbc9dfbfe	-0.019285198
16	0x3cd17e0b	0.025572797
17	0xbd084b6d	-0.033275057
18	0x3da6d183	0.0814543
19	0xbdaa87ff	-0.083267204
20	0xbc67f791	-0.0141581455
21	0x3e002c85	0.12516983
22	0x3b654103	0.0034981377
23	0xbc407b9e	-0.011748223
24	0x3dabe7d8	0.0839383
25	0x3c6f8e74	0.014621366
26	0x3c9bb64d	0.019007826
27	0x3dea89ec	0.11452088
28	0xbd246470	-0.040134847
29	0xbd53a08f	-0.051666792
30	0x3c52abcc	0.012858342
31	0xbd0cc6f7	-0.034369435
32	0x3c83bae0	0.01608032
33	0x3b135a3c	0.0022484204
34	0x3c103014	0.008800525
35	0x3d35eb7d	0.044414032
36	0x3ce3c25b	0.027802637
37	0xbd91977e	-0.07108973
38	0x3bc33eb8	0.0059584044
39	0x3de678f9	0.112535425
40	0x3db91f96	0.09039228
41	0x3ce43d25	0.027861187
42	0xbcd3a3f2	-0.025835011
43	0xbc5de11d	-0.013542441
44	0x3ce128af	0.02748522
45	0x3e0f6fa9	0.14007439
46	0xbd3c513c	-0.04597591
47	0x3d1e0d7a	0.03858707
48	0x3d582c5b	0.052776676
49	0xbd2c90a2	-0.04213012
50	0x3d42a1b0	0.04751748
51	0x3c2aab46	0.010416811
52	0x3d8ee895	0.06977955
53	0x3d6d1702	0.05788327
54	0x3d81f68f	0.063458554
55	0x3c889323	0.016671723
56	0x3da2dcaa	0.079522446
57	0xbc670778	-0.014100902
58	0x3c92f9b7	0.017941339
59	0x3d571d14	0.052517965
60	0x3d37406f	0.044739183
61	0x3d51f369	0.051257525
62	0xbcf972d8	-0.03045027
63	0x3c6daa05	0.014505868

fc3.weight f4 [64, 64]
0	0xbf95605c	-1.1670032
1	0x3b99ef50	0.0046977177
2	0x3b543782	0.0032381718
3	0x383260a8	4.2528525e-05
4	0xbb8587ff	-0.00407505
5	0x3bcea3b7	0.0063061374
6	0xbdbf6239	-0.09344906
7	0x3a964ab1	0.0011466352
8	0x3aa7d4f6	0.0012804556
9	0x3b3854ea	0.0028126785
10	0xbb840c8c	-0.004029816
11	0xbc59a794	-0.013284583
12	0xbf93a237	-1.1533879
13	0xbeae3223	-0.34022626
14	0x3a993f3e	0.0011691821
15	0xbc8554a7	-0.016275717
16	0xbd814f8f	-0.06314003
17	0xc0282216	-2.6270804
18	0xb99ab0f1	-0.00029505
19	0xbfb48c2a	-1.4105275
20	0xbb3c2f4b	-0.0028714712
21	0xb902aa31	-0.00012461167
22	0x3b4c1725	0.0031141725
23	0x3a8d339e	0.0010772829
24	0xbb3502ef	-0.0027620157
25	0xbd1054d0	-0.035237134
26	0xc022ce33	-2.5438354
27	0xbb98f52a	-0.0046678977
28	0xbea628d0	-0.32453012
29	0x3b1d840c	0.0024035005
30	0xbf85bea3	-1.0448803
31	0xbc2755a9	-0.010213294
32	0x3bb3719f	0.005476191
33	0xbf9f6b66	-1.245465
34	0xbe10b2b0	-0.14130664
35	0x3afba7d0	0.0019199792
36	0xbfca4eb8	-1.5805273
37	0xbef26966	-0.47346038
38	0xbfa9cdc2	-1.3265917
39	0xbb34585b	-0.0027518484
40	0x3aaf895c	0.0013392377
41	0xbb181f06	-0.002321185
42	0xbb16a662	-0.0022987355
43	0xbad71a4c	-0.0016411035
44	0xbc725b67	-0.0147923
45	0xbab8d2a4	-0.0014100862
46	0xbd52b188	-0.05143884
47	0xb95ee8dc	-0.00021258317
48	0x3b46ef28	0.003035495
49	0x3a7ada81	0.0009569303
50	0x3a7b5c4e	0.00095886446
51	0xbf0e3951	-0.5555621
52	0xbfc4ef3b	-1.5385507
53	0x380376a8	3.134334e-05
54	0xbe0abfd4	-0.13549739
55	0x3a96de5a	0.0011510358
56	0x39a5a725	0.00031595785
57	0xbac6c1c0	-0.0015163943
58	0x3aa2e6cc	0.0012428402
59	0xbb4359b7	-0.0029808113
60	0x3b2ce002	0.0026378636
61	0xbbb04036	-0.0053787483
62	0xbd18f05f	-0.03733861
63	0x3b06935a	0.0020534606
64	0x3c1c70f1	0.009548412
65	0xbd07ff97	-0.033202734
66	0xbdbcfa34	-0.0922741
67	0x3b99f6ac	0.004698595
68	0x3cd572c3	0.0260557
69	0xbd4cc2c9	-0.04999045
70	0xbcfdbf19	-0.030974912
71	0xbd3441eb	-0.044008177
72	0xbd892428	-0.066963494
73	0xbdcaeb5a	-0.09908171
74	0xbd7b29b6	-0.061319076
75	0x3b4397b9	0.0029845072
76	0x3c2d46cb	0.01057596
77	0x3d081aa6	0.03322854
78	0xbc3098b5	-0.010778596
79	0x3c6dca65	0.014513587
80	0xbc08c0da	-0.008346761
81	0xbd21fefb	-0.03954981
82	0xbd70272b	-0.058631103
83	0x3b41035c	0.0029451465
84	0x3ba2626e	0.0049555814
85	0xbcf96a85	-0.0304463
86	0xbc3c358e	-0.011487378
87	0xbc01b3c4	-0.007916395
88	0xbcdb0914	-0.026737727
89	0x3c4fe96c	0.012689929
90	0xbd82b478	-0.06382078
91	0xbd738a70	-0.059458196
92	0x3c95df5c	0.018294983
93	0xbbf1cb09	-0.00737894
94	0x3c3e6770	0.011621341
95	0x3b826e3a	0.003980425
96	0x3b5d7689	0.0033792576
97	0x3b9624e8	0.0045820363
98	0xbbdb392f	-0.0066901664
99	0x3f32aaf8	0.6979213
100	0xbc5cdea7	-0.013480819
101	0x3c496605	0.01229239
102	0x3c036be2	0.008021327
103	0xbd84a27e	-0.064763054
104	0xbd20cb94	-0.039256647
105	0xbd4fd0fa	-0.050736405
106	0x3ca2aab2	0.019856784
107	0x3affe354	0.0019522705
108	0xbc1efe79	-0.009704226
109	0xbd574a7b	-0.052561264
110	0x3b508191	0.003181551
111	0x3b463fd6	0.0030250452
112	0xbd7a6c9d	-0.061138738
113	0x3cd36b1f	0.025807915
114	0x3b246448	0.0025084186
115	0x3c42896f	0.011873587
116	0x3bede76a	0.0072602527
117	0xbce461ce	-0.027878668
118	0x3b9cad87	0.0047814283
119	0xbd10dbc4	-0.035365835
120	0xbd5c17ca	-0.053733625
121	0x3c399fad	0.011329574
122	0xbbfdfa05	-0.007750752
123	0xbd3b69ea	-0.045755304
124	0x3accdc91	0.0015629699
125	0x3ae02f64	0.0017103967
126	0xbb9fc9ab	-0.0048763356
127	0xbc11ed8d	-0.008906734
128	0xbfa43723	-1.2829326
129	0x3bff5378	0.0077919327
130	0xb7eb94f5	-2.8083547e-05
131	0xba614306	-0.0008593056
132	0xbb4d6c14	-0.0031344937
133	0xbb0808d9	-0.0020757227
134	0xbdf8bbd0	-0.121451974
135	0xba60b82d	-0.0008572366
136	0xbad037a1	-0.0015885719
137	0x3b694dea	0.003559942
138	0xba175be2	-0.00057738845
139	0xbbbba443	-0.0057263686
140	0xbf9c3ac8	-1.2205439
141	0xbe4ef6c0	-0.20211315
142	0xbb0d25eb	-0.0021537493
143	0xbb8c4939	-0.0042811898
144	0xbd9495f8	-0.07255167
145	0xbfeb259d	-1.8370854
146	0xbb19b303	-0.0023452647
147	0xbff5ca1b	-1.9202303
148	0xbab5e3dd	-0.0013877113
149	0x3ac8aed5	0.0015310893
150	0xbb015c75	-0.0019738947
151	0xbb9f17d9	-0.004855138
152	0xbb89b49c	-0.0042024385
153	0xbce71871	-0.028209897
154	0xbfe95a74	-1.8230729
155	0xbb9046df	-0.0044029797
156	0xbecf3073	-0.4046665
157	0x3a99293a	0.001168526
158	0xbfa56a1f	-1.292301
159	0xbc2f04a4	-0.010682259
160	0x3ac764aa	0.0015212495
161	0xbfbce320	-1.4756813
162	0xbe2bfa48	-0.16794693
163	0x3b3eeff7	0.002913473
164	0xbfeaece7	-1.8353547
165	0xbf0e9937	-0.5570254
166	0xbfcff2fe	-1.624603
167	0xb7f42c8c	-2.910781e-05
168	0xb9be3b0c	-0.00036283617
169	0x3abb724f	0.0014301034
170	0xbb36787d	-0.0027842813
171	0x392d0c72	0.00016503202
172	0xbc9d47e1	-0.019199314
173	0x3adc31d4	0.0016799518
174	0xbd52710a	-0.051377334
175	0x39280e9a	0.00016027168
176	0xbbe68ab1	-0.0070355763
177	0xba344abe	-0.00068775925
178	0x3ba59a96	0.0050538285
179	0xbf3d1de3	-0.7387373
180	0xbfc2b2df	-1.5210837
181	0x3bc6c1d6	0.0060655875
182	0xbe13a199	-0.14417113
183	0xb9a4c16d	-0.0003142463
184	0x3ad8a813	0.0016529582
185	0x3b53da72	0.0032326248
186	0xbaf77794	-0.0018880242
187	0x3abe5ba5	0.0014523162
188	0xb9217cd5	-0.0001540066
189	0xbc7cd3ae	-0.015431328
190	0xbd2b96e1	-0.041891936
191	0xbb4d96b0	-0.0031370334
192	0xbdac9b63	-0.08428075
193	0x3b685b70	0.0035454892
194	0xbd2b263b	-0.041784506
195	0xbda498ea	-0.080369785
196	0xbd2ef337	-0.042712416
197	0x3b3a2864	0.0028405422
198	0xbecf99f7	-0.40547153
199	0xbc073740	-0.008252919
200	0x3c871aee	0.016492333
201	0x3d30f6fb	0.04320429
202	0xbb7df83b	-0.0038752693
203	0xbed8e407	-0.4236147
204	0xbd875725	-0.066084184
205	0xbc4114c9	-0.011784741
206	0xbc38793f	-0.011259376
207	0xbd23f681	-0.040030006
208	0x3cb51fea	0.022109944
209	0xbe04af41	-0.12957479
210	0x3c34888e	0.011018885
211	0xbda66570	-0.081248164
212	0xbd494461	-0.049137477
213	0xbc05137d	-0.008122322
214	0x3bce0e20	0.006288305
215	0xbef9b417	-0.4877021
216	0x3be50591	0.006989189
217	0xbcc6d386	-0.024270784
218	0xbdde0c67	-0.10842209
219	0x3c2f945a	0.010716522
220	0xbd631d29	-0.05544773
221	0x3ba3b40b	0.004995828
222	0xbd8fab7c	-0.0701513
223	0x3ab9322d	0.0014129333
224	0x3dd5d605	0.104412116
225	0xbd820dd1	-0.063502915
226	0x3ce03116	0.027367156
227	0x3c60a45a	0.0137110595
228	0xbd9fc633	-0.078014754
229	0x3bfeca92	0.007775613
230	0xbd89d900	-0.067308426
231	0x3be7da0f	0.007075555
232	0x3c7fbd81	0.015609146
233	0x3c177f5e	0.009246675
234	0x3d1a341a	0.037647344
235	0xbdd97b39	-0.10619206
236	0x3c9f767e	0.019465681
237	0xbbf94d4a	-0.0076080905
238	0x3c83d879	0.016094433
239	0xbd6c9373	-0.057757806
240	0x3c052d9e	0.008128552
241	0xbd3fa0b1	-0.046784107
242	0xbbbc051b	-0.0057379133
243	0xbd761973	-0.060082864
244	0xbd1d3210	-0.03837782
245	0x3c5df98a	0.013548264
246	0x3cc368f2	0.023853753
247	0xb9736f73	-0.00023215804
248	0xbca0cad9	-0.019627975
249	0xbd440df4	-0.04786487
250	0x3cc7c22d	0.024384582
251	0xbbf1753b	-0.0073687113
252	0xbe3bd9ce	-0.18344805
253	0xbcf4d626	-0.02988727
254	0xbd42038a	-0.047366656
255	0xbb33c272	-0.002742913

fc3.bias f4 [64]
0	0xbdc5a043	-0.09649708
1	0x3c9babd2	0.019002829
2	0xbe4628dc	-0.19351524
3	0x3e0c7cdf	0.1371951
4	0x3a9ba797	0.0011875507
5	0xbc4d6065	-0.012535189
6	0xbdd33eeb	-0.10314735
7	0x3e4c77a7	0.19967519
8	0x3e663120	0.22479677
9	0x3e5bb0cb	0.2145416
10	0x3e5cd5c9	0.21565928
11	0xbce1ff84	-0.02758766
12	0x3d23a172	0.039948888
13	0xbdb8f4c4	-0.0903106
14	0xbe1250dd	-0.1428866
15	0x3e5c6312	0.21522167
16	0xbe46d26e	-0.1941621
17	0x3e6d515e	0.2317557
18	0xbdc86b7f	-0.09786128
19	0x3d636b83	0.055522453
20	0xbcbe84ae	-0.023256626
21	0xbe696e75	-0.22796042
22	0xbc8dbbf5	-0.017301539
23	0x3d3d7fb0	0.04626435
24	0x3e64983c	0.22323698
25	0x3e222e95	0.15838082
26	0x3e1629e6	0.1466442
27	0x3df4d56d	0.1195477
28	0xbdfd9463	-0.12381818
29	0x3ca7f8f4	0.020504452
30	0x3e585516	0.21126208
31	0xbe066787	-0.1312543
32	0xbd642b51	-0.055705372
33	0x3e751841	0.23935033
34	0x3d2a3852	0.041557617
35	0x3e6ed587	0.23323642
36	0xbe0692d8	-0.13141954
37	0x3e45159b	0.19246523
38	0x3d5efce3	0.05444039
39	0x3e03087a	0.12796202
40	0xb998f1ff	-0.00029172
41	0x3e193512	0.14961651
42	0x3cbee7ad	0.023303831
43	0x3e79905f	0.2437148
44	0xbdf186c5	-0.117932834
45	0x3ce85a12	0.028363261
46	0xbcc97d59	-0.024595903
47	0xbdc87cc4	-0.09789422
48	0xbe4376d4	-0.19088298
49	0x3cebf15f	0.028801618
50	0x3d4ee699	0.050512884
51	0x3e840096	0.25781697
52	0x3d9bcf92	0.0760795
53	0x3e66d0b4	0.22540551
54	0xbdc47fdd	-0.095947005
55	0x3e6a35b7	0.22872053
56	0xbdf23e4f	-0.11828291
57	0xbe4fbf13	-0.20287733
58	0xbcaae951	-0.020863207
59	0xbe088ada	-0.13334218
60	0x3e428fed	0.19000216
61	0xbc01a30b	-0.007912408
62	0x3e4ebc13	0.20188932
63	0x3e888b19	0.26668623

fc4.weight f4 [1, 64]
0	0x3d915321	0.07095934
1	0x3dc12f45	0.09432844
2	0x3d766716	0.060156904
3	0x3dd7f59a	0.10544892
4	0x3dcc0916	0.099626705
5	0x3e1d9e42	0.15392402
6	0x3d266694	0.04062517
7	0xbdd71199	-0.10501403
8	0xbdb57dac	-0.08861861
9	0x3d8ed861	0.06974865
10	0x3d817641	0.06321383
11	0x3de8478c	0.113417715
12	0xbded57f0	-0.11589038
13	0x3d2c2209	0.042024646
14	0x3d249747	0.04018333
15	0x3d1eb4a7	0.038746502
16	0x3d81f596	0.0634567
17	0x3d1c9222	0.0382253
18	0x3d8ec359	0.06970853
19	0x3e7162a0	0.23572779
20	0xbda90512	-0.0825292
21	0x3d2051df	0.03914058
22	0x3d743121	0.059617165
23	0xbe9e7980	-0.30952072
24	0x3d87eb4f	0.066366784
25	0xbe0437b2	-0.12911871
26	0x3d3f4d5b	0.04670463
27	0x3f05b2a3	0.52225703
28	0xbea5e436	-0.32400674
29	0x3d7d6b80	0.061870098
30	0xbdbab585	-0.09116653
31	0xbeed342f	-0.46328875
32	0x3d34632d	0.044039894
33	0x3d2a203d	0.04153465
34	0x3d3f0c2c	0.046642467
35	0x3d2ef733	0.042716216
36	0x3ef85e86	0.48509616
37	0xbdad42b7	-0.084599905
38	0x3e06246b	0.1309983
39	0x3d34da55	0.04415353
40	0x3d1ce85e	0.03830754
41	0x3d8fae1f	0.07015633
42	0x3d26d56d	0.040730882
43	0x3d1e8352	0.038699456
44	0xbeff3682	-0.49846274
45	0x3d24569f	0.04012167
46	0x3d19bfba	0.03753636
47	0x3d7a0a6b	0.06104509
48	0x3d9346e3	0.07191255
49	0x3da9b20d	0.082859136
50	0xbdb955fe	-0.09049605
51	0x3d227cb6	0.039669715
52	0x3e6247c8	0.22097695
53	0x3d89c01c	0.06726095
54	0xbda9d6a6	-0.08292894
55	0x3d30e20d	0.04318433
56	0x3e7536cd	0.23946686
57	0x3d24d3ae	0.040240936
58	0x3e78a175	0.24280341
59	0x3e3dda74	0.18540365
60	0xbdab04d6	-0.08350532
61	0x3d3dd25e	0.0463432
62	0x3d2ebab6	0.04265853
63	0x3d32b433	0.043628883

batchnorm1.weight f4 [256]
0	0x3f1bbc00	0.6083374
1	0x3f1b317a	0.6062237
2	0x3efdf33a	0.4959963
3	0x3f7a318d	0.9773186
4	0x3f78f392	0.9724666
5	0x3f7085f9	0.93954426
6	0x3f47d975	0.7806619
7	0x3f97f3cf	1.187128
8	0x3f53bb87	0.8270802
9	0x3f5f2fc8	0.87182283
10	0x3f58bfa3	0.84667414
11	0x3f93598f	1.1511706
12	0x3f5507b2	0.8321487
13	0x3f5eb4e4	0.8699477
14	0x3f5901da	0.8476845
15	0x3f906e29	1.1283618
16	0x3edc5564	0.43033898
17	0x3f1ba8bd	0.6080435
18	0x3f24d62e	0.6438931
19	0x3f87db49	1.0613796
20	0x3f5d3d34	0.86421514
21	0x3f3c03ce	0.73443305
22	0x3f7857d1	0.97009
23	0x3f6a0bb4	0.9142411
24	0x3f6900bf	0.91016763
25	0x3f64b7ab	0.89342755
26	0x3facd235	1.350165
27	0x3f93ad7a	1.1537316
28	0x3f681be9	0.9066759
29	0x3f82deb5	1.0224215
30	0x3f91d0fa	1.13919
31	0x3f34b25f	0.7058467
32	0x3f745bd4	0.9545262
33	0x3f52c7ff	0.8233642
34	0x3f85c69b	1.0451235
35	0x3efb48b5	0.4907891
36	0x3f6fdabf	0.93693155
37	0x3f784f42	0.9699594
38	0x3f7e4ffe	0.9934081
39	0x3f75757d	0.958824
40	0x3f6d443f	0.9268226
41	0x3f7c2e2b	0.98507947
42	0x3f5a0758	0.85167456
43	0x3f747dc4	0.95504403
44	0x3f8d30ea	1.1030552
45	0x3f5cd009	0.86254936
46	0x3f551c68	0.8324647
47	0x3fa52ed6	1.2904918
48	0x3ed8363d	0.4222888
49	0x3f5d7720	0.86509895
50	0x3f480fd9	0.7814918
51	0x3f156876	0.5836252
52	0x3f20b7b7	0.62780327
53	0x3fa5ad22	1.2943461
54	0x3f28363e	0.65707767
55	0x3f56a2ea	0.8384234
56	0x3f86f498	1.0543394
57	0x3f216054	0.6303761
58	0x3f729864	0.9476378
59	0x3f54282a	0.82873785
60	0x3fa2f02f	1.2729548
61	0x3f7bc0b0	0.9834089
62	0x3fa1adbf	1.2631148
63	0x3f767e39	0.9628635
64	0x3f78977a	0.97106135
65	0x3f9b9a3b	1.2156442
66	0x3f75a90e	0.9596108
67	0x3f1fab80	0.62371063
68	0x3f491140	0.78541946
69	0x3f52130b	0.8206031
70	0x3f9ace2a	1.2094166
71	0x3f997720	1.1989479
72	0x3f7c7cc8	0.986279
73	0x3f98198a	1.1882794
74	0x3f35e2dc	0.71049285
75	0x3f839e90	1.0282764
76	0x3f7beaeb	0.9840533
77	0x3f775c73	0.9662544
78	0x3f681691	0.90659434
79	0x3fa85ee5	1.315396
80	0x3f1c8083	0.61133593
81	0x3f520587	0.82039684
82	0x3f99242e	1.1964166
83	0x3f523cfc	0.82124305
84	0x3f890864	1.0705686
85	0x3f264c8d	0.6496056
86	0x3f784309	0.9697729
87	0x3f6de675	0.92929775
88	0x3f428394	0.7598202
89	0x3fac9420	1.3482704
90	0x3f208543	0.6270334
91	0x3f501ae2	0.8129102
92	0x3eec9573	0.4620777
93	0x3f5c4971	0.8604956
94	0x3f886b56	1.0657756
95	0x3f92b4a8	1.1461382
96	0x3f50fdb4	0.8163712
97	0x3f9db594	1.2321038
98	0x3f86fa02	1.0545046
99	0x3f091181	0.53542334
100	0x3f229da1	0.6352177
101	0x3f8006ab	1.0002035
102	0x3f638034	0.888675
103	0x3fa9cf50	1.3266392
104	0x3f9f6a09	1.2454234
105	0x3fc0094a	1.5002835
106	0x3f9d7cb9	1.2303687
107	0x3f686015	0.9077161
108	0x3f72b722	0.9481069
109	0x3f45aab5	0.77213603
110	0x3f577090	0.8415613
111	0x3f76b8ad	0.9637554
112	0x3fa7595e	1.3074148
113	0x3f6674db	0.9002206
114	0x3f3b56d6	0.73179376
115	0x3f8eee8a	1.1166546
116	0x3f6012b3	0.8752853
117	0x3f44d966	0.76894224
118	0x3f25f714	0.64830136
119	0x3f2cfb13	0.6757061
120	0x3f99bcf0	1.2010784
121	0x3fa4afff	1.286621
122	0x3fa38780	1.2775726
123	0x3f506d71	0.81416994
124	0x3faee999	1.3665038
125	0x3ec698a2	0.38788325
126	0x3f882abe	1.0638044
127	0x3f4a0556	0.7891439
128	0x3f91126d	1.1333748
129	0x3f7e58d7	0.9935431
130	0x3f7df1f5	0.9919732
131	0x3f4e96e3	0.80698985
132	0x3f8b729d	1.0894352
133	0x3f51bd32	0.81929314
134	0x3f93589d	1.1511418
135	0x3f7eeaee	0.99577224
136	0x3fa4414e	1.283243
137	0x3f8f8c8d	1.1214768
138	0x3f355674	0.7083504
139	0x3f208fe2	0.6271955
140	0x3f988dee	1.1918314
141	0x3ed57964	0.41694176
142	0x3f92a019	1.1455108
143	0x3f5cd593	0.8626339
144	0x3ef5c7d2	0.48004013
145	0x3f4e5d3b	0.8061101
146	0x3f85cb32	1.0452635
147	0x3f1491fc	0.58035254
148	0x3fa4a4ec	1.286283
149	0x3f35d011	0.7102061
150	0x3f5f90ca	0.87330306
151	0x3f5ff622	0.87484944
152	0x3f752f4b	0.9577529
153	0x3f0839c8	0.5321317
154	0x3edf296a	0.43586284
155	0x3f6d26a6	0.926371
156	0x3f45f996	0.7733396
157	0x3f30bac7	0.69035
158	0x3f2bbdd4	0.6708653
159	0x3f6816b6	0.90659654
160	0x3f85547e	1.041641
161	0x3f0a1328	0.5393548
162	0x3f542c94	0.8288052
163	0x3f9eefd5	1.2416941
164	0x3f6fd485	0.93683654
165	0x3f8188cd	1.0119873
166	0x3f6ba387	0.920464
167	0x3f73dc9b	0.9525849
168	0x3f7bd593	0.98372763
169	0x3f9113c3	1.1334156
170	0x3f24a0a8	0.6430764
171	0x3f7dd1a7	0.9914803
172	0x3f26d714	0.65171933
173	0x3f8e55c2	1.1119921
174	0x3ee4d39a	0.4469269
175	0x3f81cdc8	1.0140924
176	0x3f5b14dc	0.85578704
177	0x3f7752f7	0.9661097
178	0x3f5b049d	0.85553914
179	0x3f08758c	0.5330436
180	0x3f11988f	0.5687341
181	0x3f979865	1.1843382
182	0x3f7d947d	0.990547
183	0x3f4a2085	0.7895587
184	0x3f443748	0.7664685
185	0x3f52ce4a	0.8234602
186	0x3f542f8d	0.82885057
187	0x3f4c8d12	0.79902756
188	0x3faeb5c9	1.3649226
189	0x3f93db44	1.155129
190	0x3f49b07c	0.7878492
191	0x3f86299a	1.0481446
192	0x3f8d6a9b	1.1048158
193	0x3f80d672	1.0065444
194	0x3f711e3d	0.94186765
195	0x3f987ea6	1.191365
196	0x3f84d600	1.0377808
197	0x3f37cf1c	0.718004
198	0x3f7a96d4	0.97886395
199	0x3f7427b1	0.95373064
200	0x3f8a0208	1.078187
201	0x3f45ffe7	0.773436
202	0x3f0a1bf6	0.53948915
203	0x3f5c82af	0.8613691
204	0x3f4cc2bb	0.79984635
205	0x3f7a0dca	0.9767729
206	0x3fa98843	1.3244709
207	0x3f8bd71c	1.0925021
208	0x3efc549a	0.49283296
209	0x3ecab5ff	0.39591977
210	0x3f70041c	0.9375627
211	0x3f7e0ead	0.99241143
212	0x3f7e3caf	0.99311346
213	0x3f9913d0	1.1959171
214	0x3f682759	0.9068504
215	0x3f7adc22	0.97992146
216	0x3f911a20	1.1336098
217	0x3f5fd9d6	0.87441766
218	0x3f5df6f8	0.8670497
219	0x3f5ac3ab	0.85454816
220	0x3f87382b	1.0564016
221	0x3f936ab5	1.1516939
222	0x3f6cb902	0.924698
223	0x3f6d522a	0.927035
224	0x3f8f6eae	1.1205652
225	0x3f6942d2	0.91117585
226	0x3f899ac1	1.0750352
227	0x3f57e9b8	0.84341
228	0x3f753d90	0.9579706
229	0x3f9a908c	1.2075362
230	0x3f23f572	0.64046395
231	0x3f680025	0.9062522
232	0x3eead9d8	0.45869327
233	0x3f735e82	0.9506608
234	0x3f2b4851	0.6690722
235	0x3f1b47e7	0.6065659
236	0x3f913452	1.1344092
237	0x3f8be134	1.0928102
238	0x3fb107c7	1.3830498
239	0x3f2b88d0	0.67005634
240	0x3f60a6a8	0.877543
241	0x3f602390	0.87554264
242	0x3f659646	0.89682424
243	0x3f6eab78	0.9323039
244	0x3f486ae1	0.78288084
245	0x3f6f09a3	0.9337408
246	0x3f754979	0.95815235
247	0x3f7523d1	0.95757776
248	0x3f918ede	1.1371725
249	0x3fad3770	1.3532543
250	0x3f1db9a6	0.616114
251	0x3f1b8940	0.607563
252	0x3f72e116	0.94874704
253	0x3f96de64	1.1786618
254	0x3f0b27a4	0.5435736
255	0x3ecaa167	0.39576265

batchnorm1.bias f4 [256]
0	0x3ce51c13	0.027967488
1	0xbf7281bc	-0.9472921
2	0xbd8c51e1	-0.06851555
3	0xbe5a9251	-0.21344878
4	0x3e0c3fa1	0.13696148
5	0x3e06ec9b	0.13176195
6	0x3d190c63	0.03736533
7	0xbe577d58	-0.21043909
8	0xbec11da8	-0.37717938
9	0xbef11635	-0.47087255
10	0xbe5682b8	-0.20948303
11	0xbe430098	-0.19043195
12	0xbdcbc567	-0.09949761
13	0xbe9b9d8a	-0.3039363
14	0xbec762dd	-0.38942614
15	0xbe226f3d	-0.15862747
16	0xbe969dbc	-0.29417217
17	0xbe8dc886	-0.2769205
18	0xbed5975e	-0.41717046
19	0x3e0e6596	0.1390594
20	0xbe91c2a3	-0.2846881
21	0xbe3b9c9b	-0.18321459
22	0x3e0a3858	0.13498056
23	0x3e0ab427	0.13545285
24	0xbe75bb0e	-0.23997137
25	0xbe8a8c87	-0.2706034
26	0xbdc778ee	-0.097398624
27	0x3d9e8eb8	0.07742065
28	0x3e01d085	0.126772
29	0xbf4a2ead	-0.7897747
30	0xbd48ab55	-0.04899152
31	0xbd0777e3	-0.033073317
32	0xbe175613	-0.14778928
33	0xbeda7822	-0.4266978
34	0xbf80ffd0	-1.0078068
35	0xbd3d843d	-0.04626869
36	0xbeb52193	-0.35377178
37	0x3e08be91	0.13353945
38	0x3e0a3391	0.13496234
39	0xbf877963	-1.0583919
40	0xbe5aa3f8	-0.21351612
41	0xbe73f4a7	-0.23823796
42	0xbe92f172	-0.28699833
43	0x3e089529	0.1333815
44	0xbf84c058	-1.0371199
45	0xbea40619	-0.32035902
46	0xbe9de413	-0.3083807
47	0xbd93932c	-0.07205805
48	0xbe9e1972	-0.30878788
49	0x3df69ccd	0.12041626
50	0xbe955a18	-0.291703
51	0xbd8b5729	-0.06803734
52	0xbe99ee01	-0.30064395
53	0xbd6dd2a8	-0.058062226
54	0xbf01fb28	-0.5077386
55	0xbe5688cd	-0.20950623
56	0xbe154cab	-0.14580028
57	0xbeb13f5a	-0.34618646
58	0x3e03d932	0.12875822
59	0xbec70a63	-0.38875112
60	0xbe126f42	-0.14300254
61	0xbf269775	-0.65074855
62	0xbd1ddf89	-0.038543258
63	0xbe44ba60	-0.19211721
64	0xbe9f8692	-0.31157357
65	0xbfcb35f4	-1.587584
66	0x3e069734	0.13143617
67	0xbe8e3cca	-0.27780753
68	0xbe2d411d	-0.1691937
69	0xbe373731	-0.17892148
70	0xbd1553fb	-0.036457043
71	0xbe46ff83	-0.19433407
72	0x3d8566fc	0.06513783
73	0xbe39f6e4	-0.18160588
74	0xbe189737	-0.14901434
75	0xbe9b4b54	-0.30330908
76	0xbf539891	-0.8265467
77	0x3e0ddd99	0.13854064
78	0xbe97ebe9	-0.29672173
79	0xbd8e506c	-0.06948933
80	0x3adb1262	0.0016713853
81	0xbe6bcef2	-0.23028162
82	0xbe557998	-0.20847166
83	0xbe3e0f77	-0.18560587
84	0xbf315ea5	-0.6928504
85	0xbe4dcbce	-0.20097277
86	0xbed649e7	-0.41853258
87	0xbdf8ffdd	-0.12158177
88	0xbe8aefd1	-0.2713609
89	0xbd35f755	-0.044425327
90	0xbe6b6594	-0.22987968
91	0xbe9983b1	-0.29983285
92	0xbe4b4041	-0.1984873
93	0xbe8432bd	-0.2581996
94	0xbf1a3e0d	-0.6025093
95	0x3db27853	0.08714356
96	0xbe3fa612	-0.18715695
97	0x3db21a83	0.08696463
98	0x3d0c41dc	0.034242496
99	0xbef696b4	-0.48161852
100	0xbeaf7e78	-0.34276175
101	0xbf2ac50c	-0.6670692
102	0xbe36dd7c	-0.17857927
103	0xbd48a979	-0.048989747
104	0xbd172fb9	-0.036910746
105	0xbdea5aee	-0.11443125
106	0xbe631299	-0.22175063
107	0x3d957c97	0.07299154
108	0xbe6870f6	-0.22699341
109	0xbe4ec4b6	-0.20192227
110	0xbeeb445e	-0.45950598
111	0xbeb72c98	-0.3577621
112	0xbf5b2801	-0.85607916
113	0x3e065512	0.13118389
114	0xbef22d35	-0.47300115
115	0xbe1974a7	-0.14985906
116	0xbe910238	-0.28322005
117	0x3c3e3ac9	0.011610695
118	0xbec7e598	-0.39042354
119	0xbeabd325	-0.33559528
120	0xbe502280	-0.2032566
121	0xbd8d105d	-0.06887887
122	0xbf5c65ef	-0.8609304
123	0xbe8430b1	-0.258184
124	0xbde24b40	-0.11049509
125	0xbf3266f5	-0.6968835
126	0x3e107251	0.14106108
127	0xbe266e20	-0.16252947
128	0xbfe76a3f	-1.8079299
129	0xbf891453	-1.0709327
130	0x3dfc9299	0.12332649
131	0x3e3b3729	0.1828276
132	0xbeb7a2c2	-0.35866362
133	0x3cfe5f29	0.031051235
134	0xbe2917f6	-0.16513047
135	0xbfac3a05	-1.3455206
136	0xbd18ef84	-0.037337795
137	0xbe278c10	-0.16362023
138	0xbf0b0700	-0.54307556
139	0x3cc2ac28	0.023763731
140	0xbe531138	-0.20612037
141	0xbdb8a87f	-0.09016513
142	0xbe2706bf	-0.16311167
143	0x3ccaf322	0.024774138
144	0xbed5970a	-0.41716796
145	0xbe445dfe	-0.1917648
146	0xbebb16ac	-0.36540735
147	0xbef3e5bb	-0.47636208
148	0xbd4bcd8c	-0.04975657
149	0xbe8c3efc	-0.27391803
150	0x3d5714be	0.052510016
151	0xbe0fb077	-0.1403216
152	0xbe2cd389	-0.1687757
153	0xbee84013	-0.45361385
154	0xbe8a4452	-0.2700525
155	0xbd2de2db	-0.042452674
156	0xbdcfced7	-0.101468734
157	0xbf060187	-0.5234608
158	0xbf16f7b1	-0.589717
159	0x3e0b97c4	0.13632113
160	0x3da7e8e2	0.08198716
161	0xbed4c7c2	-0.41558653
162	0x3e28ded3	0.1649125
163	0x3db3d73c	0.08781287
164	0x3e09ef79	0.13470258
165	0xbf73f340	-0.95293045
166	0xbdb51d28	-0.08843452
167	0x3e09d31d	0.1345944
168	0xbec16511	-0.3777242
169	0xbe2dfd0d	-0.16991062
170	0xbef01021	-0.46887305
171	0x3e0ab1dd	0.13544412
172	0xbe6f3f43	-0.23363976
173	0xbe2e6d27	-0.17033826
174	0xbf91ec3e	-1.140022
175	0x3e1a83af	0.15089296
176	0xbed5b4ec	-0.41739595
177	0x3e1249ae	0.14285919
178	0xbe9419d1	-0.28925946
179	0xbd9d53b0	-0.07681978
180	0xbf07312d	-0.5280941
181	0x3db21ff4	0.08697501
182	0xbf0036ee	-0.50083816
183	0xbe57acd4	-0.21062022
184	0xbe2ef285	-0.17084701
185	0x3ce4722d	0.027886475
186	0xbee6ded1	-0.4509187
187	0x3c54e343	0.012993637
188	0xbd954e54	-0.072903305
189	0xbe5cd540	-0.21565723
190	0xbe83efc7	-0.25768873
191	0xbfafa343	-1.3721699
192	0x3e12cb2d	0.14335318
193	0xbe0ccd79	-0.13750257
194	0xbeb5f9d6	-0.35542172
195	0xbe54373e	-0.20724198
196	0x3df71d77	0.12066167
197	0xbe62cd39	-0.22148599
198	0xbe8b0503	-0.2715226
199	0xbfabfe99	-1.3437072
200	0x3da5f071	0.08102501
201	0xbe881412	-0.26577812
202	0xbdd0199c	-0.101611346
203	0xbe409b32	-0.18809202
204	0xbe2d4ece	-0.16924593
205	0x3e07c686	0.13259324
206	0xbfc04bf3	-1.5023178
207	0x3e1a70ff	0.15082167
208	0xbee7de66	-0.45286864
209	0xbf275225	-0.6535972
210	0xbf1f332c	-0.6218746
211	0xbed82f25	-0.42223468
212	0x3e0ba046	0.13635358
213	0xbd257591	-0.040395323
214	0x3b1cd271	0.0023929144
215	0xbf2f6f27	-0.6852898
216	0xbe194319	-0.14967002
217	0xbe8450b0	-0.2584281
218	0x3dfd0767	0.123549275
219	0xbe8fce78	-0.2808721
220	0xbeb93601	-0.36174014
221	0x3d8ea8a6	0.06965761
222	0xbed7cd3a	-0.42148763
223	0xbf098754	-0.5372212
224	0xbf90725f	-1.1284903
225	0xbf53eb38	-0.8278079
226	0xbe1609c2	-0.1465216
227	0xbec27188	-0.37977242
228	0xbfac8a0f	-1.3479632
229	0xbfde47f7	-1.7365712
230	0xbef52fe6	-0.47888106
231	0xbef3ffd6	-0.47656125
232	0xbed01e0d	-0.40647927
233	0xbe50b752	-0.20382431
234	0xbebc6dd8	-0.36802554
235	0xbef6c8df	-0.48200127
236	0xbe212a67	-0.15738831
237	0x3d1be785	0.03806259
238	0xbda1bc81	-0.078972824
239	0xbf318c91	-0.6935511
240	0xbe8ead8c	-0.2786678
241	0xbe9b3f3f	-0.3032169
242	0xbf6c6d7c	-0.9235456
243	0xbd8f8d5f	-0.07009386
244	0xbe4fb30d	-0.20283146
245	0x3e0c9116	0.13727221
246	0xbe908a5d	-0.28230563
247	0xbf619f4e	-0.88133705
248	0xbe43df06	-0.19128045
249	0xbdacb4c5	-0.084329166
250	0x3c8d4191	0.017243179
251	0xbe908cbe	-0.28232378
252	0x3d507ca9	0.050900135
253	0x3da8c6cd	0.08241043
254	0xbe3da3b6	-0.18519482
255	0xbdccd220	-0.10001016
